models/blood/28-_ssim_gaussian_identity.pth (torch, 27353 bytes, 3 tensors)

conv.0.weight f4 [128, 32, 1, 1]
00000000: a50e a13d a9f6 f5bd f676 493d e5ff c13d
00000010: 22de 5bbd 8ed4 80bc adc0 99bd dedf 953d
00000020: 309e 0dbe be82 5f3d d5c1 8ebd 1d9b 64bd
00000030: 0c80 ab3b 46fb b0bd 30af ea3c 0907 8a3d
00000040: e00c 5cbb eeb0 903d 84eb 283e bd9c 25be
00000050: b018 a7bc 5b5f 10bd 2d2e f6bd 237d af3a
00000060: cded 0fbb aca3 a73d 40e4 b8bd f896 613d
00000070: 242b c7bd db63 08bd d039 f23d b287 9dbd
00000080: bfd5 0bbe 5c1f 99bd 04f7 79bd 2e52 efbd
00000090: c820 093e fa92 c23d 181e aabd bb72 cdbd
000000a0: b1b6 713d f638 1c3e bff2 43bd 5f89 46bd
000000b0: 22a8 09be 28eb 703d f280 99bd f764 f03d
000000c0: 0fa3 253e 3388 0f3e 5170 51bd 123c 22be
000000d0: ce9a 993d 79db 70bd 64a1 543d c375 cd3d
000000e0: e3b4 02be df67 64bd 228c 8e3d 2242 2a3e
000000f0: 9c92 25bd 175d 8ebd ee5d 0d3e ab3e f1bd
00000100: edf0 2e3e 1a0a 733c 6970 833d c798 29bd
00000110: 2930 b83d 04a9 f33c 0afa 17be 108b f63d
00000120: be5c 1fbe f84a 593d efdf be3d 7390 9a3d
00000130: 9d1c 963a 75d2 2b3e 9ef0 98bd 81c2 55bd
00000140: f4e5 f7bd 700d 88bd 9fc3 253d 5799 ae3d
00000150: 8516 923c 3940 02bd b4a5 56bb 7c9a e73d
00000160: 0ae3 0d3e 5e54 0f3e dc22 213e 8b61 113e
00000170: 87ba 283e aba3 c8bd d446 1e3d 4383 c73d
00000180: 1480 9cbd 84f9 3bbe b1a0 4bbd 1cc5 b2bd
00000190: abb4 4bbd fe28 7dbd 94d4 07bd 2221 07be
000001a0: 8003 783d 8a4c 6d3d 3454 c23d b311 253d
000001b0: 65ce 253e 101b cd3d e7bf 07be df12 7abd
000001c0: f93b 673d 6cd7 5639 9d18 9bbd 44d0 2fbe
000001d0: a42c 943c 5082 0b3e 6282 c23a bcb1 e63d
000001e0: 186a 2b3d 4739 9c3d 52ea a3bc a7ef 00be
000001f0: c5fd d33d 1a0a 933d e65a 143e c588 af3d
00000200: c7c8 613d 717f 39be 7a91 463d 0613 b33d
00000210: 1f90 113e 5817 fd3d 3f44 1f3e c156 fb3c
00000220: 47a4 0a3e 8504 03be 6bca fd3d af40 1cbe
00000230: 4466 ccbd 8e10 873d 594e dc3d fbfe 21bd
00000240: 1568 b8bc 3ccf c2bd aee1 8abc 5993 273e
00000250: f5d0 67bd 0e51 833d 4ea9 2abe 9e6d a5bd
00000260: 7c0a 28be b74e f7bd 2f7a 0abe d52d 0f3e
00000270: 42b6 10be c454 37bd cac8 b8bd 66fb 20bc
00000280: 50e4 153e 1399 a3bd 6443 28bd c1dc 643c
00000290: 355d 863d dc6f 06be b8fd 293d 980c 98bd
000002a0: 5fc0 2f3c 485c 193e 7d99 b9bd 3746 773d
000002b0: 1c3d 133c 2663 cdbd af40 2dbe 779b a1bd
000002c0: 23b1 8a3c 06f9 f43d 467d abbd 9ead b13d
000002d0: 23ea c8bc 23e5 1d3d e52c f23d 5118 1ebe
000002e0: 10a4 e13d a2bd d73d 59de 2a3d b65c 05be
000002f0: f90c c2bc 3c0a bb3c 636f 053e 788c b2bd
00000300: 7082 113e 4dae 3a3c bccf fb3d acbb 33bc
00000310: c788 40bd 21db 373d d61e a13d 5b27 2e3e
00000320: 7ddb b3bd 0ea6 b43d b3f9 0abe b2a3 e73d
00000330: 18c0 193d a43c 813d d85b 0fbd 73b9 ad3d
00000340: 6022 fcbd f99a a63d af1b adbd 60be a43c
00000350: f55a 0d3e 8f92 103e 38c0 17bd f027 e8bc
00000360: f2ac 043e cd4e cc3d 715e 0f3e cd36 a4bd
00000370: 5163 06bc 9b4b d6bc c490 283e 41a1 09be
00000380: f76d e93c 1a3d 27be e9f9 22be 62d0 0c3e
00000390: 8c83 96bc a901 11be 2dc3 143e cd40 9b3d
000003a0: 11b5 77bc f01d cabd 12e9 38be b5d9 ce3d
000003b0: 89c3 023e 4f13 5ebd c256 f53c 24dd c0bd
000003c0: 5d64 f63d 429d 1e3d c15b e23d 2982 04be
000003d0: 3f19 253c d4c4 babd c5de 253e 23c1 09be
000003e0: c5f5 df3d e40a 263e 0322 0a3e c13e 923c
000003f0: cc04 94bc 2de4 a0bd 348d f33d fab7 523d
0.07864121 -0.12009937 0.049185716 0.09472636 -0.05367864 -0.015726354 -0.07507453 0.0731809
-0.13829875 0.054568045 -0.06970564 -0.05581199 0.0052337702 -0.086416766 0.028647989 0.06739623
-0.003357701 0.07064997 0.16496092 -0.16173072 -0.020397514 -0.035247188 -0.12020526 0.0013388734
-0.0021961809 0.08185515 -0.0902791 0.055075616 -0.09725025 -0.033298355 0.11827433 -0.076918975
-0.13655756 -0.074766845 -0.061026588 -0.116855964 0.13391411 0.0950069 -0.08306521 -0.10031649
0.05901212 0.15256104 -0.047838923 -0.04847085 -0.13443044 0.058818012 -0.074952975 0.117380075
0.16175483 0.140168 -0.051132504 -0.15843228 0.0750023 -0.058803055 0.051911727 0.10032227
-0.12764315 -0.05576312 0.06960322 0.1662679 -0.04042302 -0.06951349 0.13805363 -0.11779531
0.17084093 0.014833951 0.06417925 -0.041405465 0.08993561 0.029743679 -0.14841476 0.12038243
-0.15562722 0.05305001 0.09320056 0.07547083 0.0011452619 0.16779502 -0.07467769 -0.052187447
-0.12104407 -0.06643188 0.040469762 0.08525341 0.017833004 -0.03179953 -0.0032752575 0.113087624
0.1385614 0.13997027 0.15735954 0.14197366 0.16477405 -0.09796842 0.038641766 0.09741833
-0.076416165 -0.18356901 -0.049713794 -0.08729002 -0.049732845 -0.06180667 -0.033161715 -0.13196233
0.060550213 0.05793432 0.09488717 0.040300082 0.16192015 0.100149274 -0.13256799 -0.061053153
0.05645368 0.00020488881 -0.07573054 -0.17169291 0.018087693 0.13623929 0.0014839882 0.11264369
0.041849226 0.07628112 -0.020009194 -0.1259142 0.10351137 0.07179661 0.144878 0.085710086
0.055123117 -0.18115021 0.04847858 0.08743863 0.14215134 0.12357968 0.15553378 0.030681016
0.1353923 -0.12794693 0.12392124 -0.1525905 -0.09980443 0.065949544 0.10757131 -0.03954981
-0.022510568 -0.09512183 -0.016953316 0.16364802 -0.05659576 0.06411944 -0.16666147 -0.080775484
-0.1641025 -0.120755605 -0.13523172 0.13982327 -0.14132026 -0.044758573 -0.090226725 -0.009825563
0.14637876 -0.07988181 -0.041079894 0.013968647 0.065607466 -0.13128608 0.04150173 -0.07424277
0.010727017 0.14976609 -0.09062479 0.060369696 0.008986738 -0.10028677 -0.16919206 -0.07890981
0.016930168 0.1196156 -0.083735034 0.08675693 -0.024525708 0.0385486 0.11824969 -0.15438963
0.110176206 0.105342165 0.041715953 -0.13023648 -0.023687826 0.022832029 0.13030772 -0.087181985
0.14209914 0.011394096 0.122954816 -0.010970037 -0.04700544 0.044886712 0.078672096 0.170072
-0.087820984 0.08820735 -0.13571815 0.11310519 0.03753671 0.063103944 -0.0349997 0.08482637
-0.12311244 0.081350274 -0.08452546 0.02011031 0.13804229 0.14118408 -0.03704855 -0.028339356
0.12956598 0.099759676 0.1400087 -0.08018265 -0.00820239 -0.026159098 0.16461474 -0.1344042
0.028494818 -0.16331902 -0.15915646 0.13751367 -0.018373273 -0.1416079 0.14527579 0.07580719
-0.015118853 -0.098689914 -0.1805766 0.10100118 0.12769903 -0.054217633 0.029948596 -0.09417179
0.120308615 0.03872419 0.11052657 -0.12940277 0.01007682 -0.09119573 0.16198261 -0.13452582
0.10935549 0.16215092 0.13489537 0.017852189 -0.018068694 -0.07856021 0.11892167 0.051444985

conv.0.bias f4 [128]
00000000: 64b2 90bd 7f64 bcbd f2eb fcbc e2ce 173e
00000010: 3847 e13d c6c6 233d a70b 8dbd 78ea eebd
00000020: 4204 e0bd 8c84 ebbd bb6b 503d 9f38 61bb
00000030: 5e9c 913d 6f66 293e c54a bf3d 4ac1 933c
00000040: e301 273e 79fb 88bc f749 4bbc dce1 043e
00000050: a1ba 0ebe cf5c 0cbe 1055 0e3e 9b04 d83d
00000060: c215 e4bd 4cb5 16bc cde2 a43d 6db8 8f3d
00000070: 428f 2a3d 9b72 0f3e 72a0 21be 9015 9d3d
00000080: f4b5 113c 74e3 68bd f296 193e 9fbc b13d
00000090: 5f94 5bbd 5efa e3bd 7387 2bbe 2339 c13d
000000a0: 0106 4dbd 8b21 903d c140 023e f73b d23d
000000b0: 8bbe a33d 6c87 fa3c 524f ca3d 3c74 b1bd
000000c0: adc2 0fbe e764 80bd dade 153e 2e84 9fbc
000000d0: f037 82bd c76d a9bd a09f 0c3e 5578 9bbd
000000e0: 4be1 9bba 2c2b a8bd 0a51 1bbe 6c2c 2cbb
000000f0: 215d 36be 7845 e6bb 852f b73d 5491 6bbd
00000100: e429 db3d 2859 71bc fd19 1dbe f270 30bd
00000110: 1748 47bd e173 dbbd 0d6c 0fbe 8197 9c3c
00000120: b8e4 833d aa6f 893d 4dce 2bbd 6d30 75bd
00000130: 286a 05bc b88f 05be 06dd 863d 4e84 1c3c
00000140: 3d0a 043e 43fb d93d de5c fdba cced 9d3d
00000150: f8f3 c13d e508 8b3c 782f 0d3e 6762 86bd
00000160: 307d f1bd cbf2 8ebd 27a1 12be 420a 833d
00000170: 62e6 20be 5e78 e9bc 696e 95bd 71d2 20be
00000180: 184d a23d bee1 50bc 9753 ab3c ed29 d43c
00000190: c656 d53c 34d5 86ba f116 de3d 1a3b 143e
000001a0: b09d 1abe a03d 97bc a8b5 143e 92ac 1ebe
000001b0: d8b1 ffbd e6e2 093e fb51 213e 535b bcbd
000001c0: 8240 a5bd c899 da3c f004 d6bd 6fae 0b3e
000001d0: b10b 26bd 56bd 5fbd 2601 953d fb3d 033e
000001e0: c89a 1e3e 8612 b4bd 99d1 113e 5356 0ebe
000001f0: 08ee a4bd 9b9c eabc 9e99 fbbc 5bcb bf3d
-0.07065275 -0.091988556 -0.030874226 0.14825013 0.10999912 0.039984487 -0.06886988 -0.11665815
-0.10938312 -0.11499891 0.05088399 -0.0034366024 0.07109903 0.16542982 0.09340433 0.018036503
0.16309313 -0.016721474 -0.012407771 0.12976784 -0.13938381 -0.13707279 0.13899636 0.105477534
-0.111369625 -0.009198498 0.08051071 0.07017598 0.041640528 0.14008562 -0.15783861 0.07670128
0.008893479 -0.05685754 0.14998987 0.08678555 -0.053608295 -0.11131738 -0.16750889 0.09434726
-0.050054554 0.07037648 0.12720014 0.10265344 0.079953276 0.030582152 0.098784104 -0.08664748
-0.14039107 -0.062692456 0.14635792 -0.019472208 -0.063583255 -0.082728915 0.13732767 -0.07591311
-0.0011892704 -0.082113594 -0.15167633 -0.0026271595 -0.17808963 -0.0070273243 0.089446105 -0.057511643
0.107013494 -0.014730729 -0.15341945 -0.043076463 -0.048652735 -0.107154615 -0.14006062 0.019115211
0.06440109 0.06710751 -0.04194479 -0.059860636 -0.008142985 -0.13043106 0.065851256 0.009553028
0.1289453 0.106436275 -0.0019330045 0.07711372 0.094703615 0.016972015 0.13787639 -0.065617375
-0.11791456 -0.06979903 -0.14319287 0.06398441 -0.15712884 -0.028499778 -0.0729645 -0.15705277
0.07924861 -0.012749134 0.020913882 0.025898898 0.026042353 -0.0010286928 0.108442195 0.1447567
-0.15099216 -0.018462002 0.14522421 -0.15495518 -0.12485093 0.13465461 0.1575393 -0.09197106
-0.080689445 0.026684657 -0.104501605 0.1364076 -0.040538494 -0.054623924 0.0727561 0.12816612
0.15488732 -0.087925956 0.14240111 -0.13900118 -0.08053213 -0.028639128 -0.030712899 0.09364959

conv.2.weight f4 [16, 128, 1, 1]
00000000: 07b8 10bc c1f3 d63b c677 0abb 99ac 8b3b
00000010: 0df5 10bb e06c d73a 2b8c 33bb 92b0 a3ba
00000020: f746 14bc 7383 bbbb a5c5 4a3a 01e9 f13a
00000030: 2fa9 db3b 72e7 dd3b 6f15 3fba e0d5 beb9
00000040: 8965 463b eeab 973a 5aef 9fbb bbfc 2e3b
00000050: 743e 30bc 0a62 f43b 5ae1 6cbb 8c76 bc3b
00000060: d8a7 97ba 7dd4 6c3a 68d4 cbba 9da3 a33a
00000070: db4f 79bb e780 aa3b a56e 47bc 0ee3 4b3b
00000080: e943 d43b 7076 3cbb 108a 0a3c 92be 333b
00000090: 0000 0000 9deb 243b bca8 ddbb bacc 2f3c
000000a0: d3ad 64bb 4d57 a33a f34c 113c 0235 ba3b
000000b0: 0650 0c3c 4021 033c 76df b93a b5b3 c13b
000000c0: f308 973b 293b 41bc 4389 813b 3b3f d6bb
000000d0: e2e3 3abb 1a6e 63bb e6b8 083b 2175 0abb
000000e0: 97f4 1e39 3c5a 1fbc f0f5 f6ba d487 ca3b
000000f0: 607c 043a ab8a 203c c84c 683b 7e1f a1bb
00000100: eb21 13bb a6de ac3b 4a63 1cbc f54d 0fbb
00000110: 9673 14bb ed36 a6bb 3021 a7bb 81d5 623b
00000120: fcef e83b b263 223c 0000 0000 cfca a4bb
00000130: c9d1 323b 7c8b babb eb5a c939 3355 b1bb
00000140: 9f61 a1bb 0975 d43b 9f03 b5bb f2a1 4a3b
00000150: f9f6 54bb e534 213c 1b3b ab3a d287 cfba
00000160: 3bf0 9fbb c9a7 283c b97b 5bbb e83d b637
00000170: 0000 0000 d674 ee3b dac0 8fbb 5a27 37bb
00000180: 8a9f 71ba e0f5 dd3b 6d51 3ebb b9a5 073b
00000190: 944c 193c b4f9 193c 45a3 bf3b 8988 663b
000001a0: 0243 23bc 74ed 92bb 2ec3 d83a ba7e ffba
000001b0: 8c64 ed3a 9301 c83b 084e c23b 69ef fb39
000001c0: d3ee 11bc bac6 7a3a 8654 fc3b f594 0d3c
000001d0: b65f c2bb aedd 1aba 0a60 dfba c257 573a
000001e0: af67 2f3b 2bec 8fbb a924 d3b7 b067 bebb
000001f0: 1032 07bc 8e47 7bbb 8388 0fbb 3eab 573a
00000200: 0b34 f8ba 065b c63b 6ad6 06bb 8a62 01ba
00000210: 78a7 6bbb bb45 bdb9 ad4e 89bb 4ab4 2abb
00000220: 7027 0a3b 2091 aebb 6d40 faba bf3b 9cb9
00000230: 9c27 4b3b 8577 2d3b 657a 9dba c5cd 96ba
00000240: b8f9 44ba d8ab d23b dd27 9ebb 6ea1 e4ba
00000250: 48da a0bb 6601 c03b 882d 94bb b843 1a3b
00000260: 99a9 00bb 9262 16bb 7f43 baba fc86 ea3a
00000270: 5f76 6abb 2195 00ba cdf9 86bb f1fc 03bb
00000280: 712e 09bb 17eb 59ba e72a 683b 2926 4eb8
00000290: 0000 0000 3faf 8e3b 54f6 aebb 9141 b63b
000002a0: 8862 87bb 0839 1b3a b3ee 4f3b 6a08 103b
000002b0: bd35 683b e45f d53a 4cd0 0abb 9eed a43b
000002c0: 53f3 a63b 8855 34bc fb5d c7b9 8035 7dbb
000002d0: e8db d63b 004d c0b9 d265 fbb9 1254 f6ba
000002e0: d4fb 91bb 6903 62bb 13ea 2bb9 1c8a 983b
000002f0: 1604 b03b 6a7f 033c 935d 16ba 1e1e 8dbb
00000300: dbf1 e2bb 4ddd e33a 23c9 1bbc 79aa 57bb
00000310: d8c5 03ba 3aa9 99bb 9027 a0bb 0c7e ff3a
00000320: 6c76 4a3b 6f2a 8f3b 0000 0000 cadc bbbb
00000330: efb5 6b3b 04c9 d0bb fc2d 90ba 4c59 01bc
00000340: e294 30bb 0c86 003b 0a3d b5bb 6d42 e339
00000350: fbf0 80bb eed9 b93b 9259 07b9 533f 843b
00000360: e8a5 babb ce6e 51bb 7466 6bbb 963e c8ba
00000370: 0000 0000 3594 45ba 7154 b0bb f91b 80bb
00000380: 7486 99bb fca5 8d3a 7f45 a9bb 0afa 02ba
00000390: 3d6b d93b f564 c13b 6e36 d83a 8c93 6cba
000003a0: 000d e03a 4807 71bb d216 95ba b63b 3bba
000003b0: de7e 493b 5a43 6b3a fd05 e33a 6372 103a
000003c0: 4174 eb3a f6cd 3d3a dae0 563b 7bc1 513b
000003d0: a83e c4bb dadd c6ba 46df 24bb ef5b fdba
000003e0: 2b29 803a b6eb 69bc 360d 21bb ad22 173a
000003f0: 35d0 103a b749 9ebb 6596 c1bb 15ad 51ba
-0.008832938 0.0065598194 -0.002112852 0.0042625186 -0.0022118718 0.0016435646 -0.002739678 -0.0012488535
-0.009050122 -0.005722457 0.000773514 0.0018456281 0.006703518 0.006771975 -0.00072892656 -0.00036398973
0.0030272922 0.0011571625 -0.004880828 0.0026700932 -0.0107570775 0.007457976 -0.0036145062 0.0057514366
-0.0011570407 0.0009034349 -0.0015550973 0.0012484674 -0.0038041982 0.0052033546 -0.012172376 0.0031110677
0.006477822 -0.0028757118 0.008455768 0.0027426821 0.0 0.002516485 -0.0067644995 0.010729963
-0.0034893646 0.0012461931 0.008868444 0.0056825886 0.008564001 0.008003533 0.0014180976 0.0059113153
0.004609221 -0.01179389 0.0039531305 -0.0065382994 -0.0028517176 -0.0034703077 0.0020862161 -0.0021126943
0.00015159171 -0.009726103 -0.0018841606 0.0061807428 0.0005053934 0.009798686 0.0035446156 -0.0049170842
-0.0022450637 0.005275565 -0.009545157 -0.0021866534 -0.0022651902 -0.0050724656 -0.005100392 0.0034612122
0.0071086865 0.0099114645 0.0 -0.0050290595 0.0027285686 -0.0056928974 0.00038405447 -0.005411768
-0.0049249674 0.0064836782 -0.0055241133 0.003091928 -0.003249584 0.009839271 0.001306388 -0.0015833324
-0.0048809326 0.010293909 -0.0033490492 2.1724918e-05 0.0 0.0072771115 -0.0043870034 -0.002794704
-0.00092171936 0.0067736953 -0.0029040233 0.0020698144 0.009356637 0.009397913 0.0058483207 0.0035176596
-0.009964706 -0.004483873 0.001653766 -0.0019492724 0.001811163 0.0061037033 0.005929712 0.00048052825
-0.008907038 0.0009566356 0.0077005057 0.008641471 -0.00593182 -0.00059076666 -0.0017042172 0.0008214676
0.002676468 -0.004392167 -2.5170231e-05 -0.0058107004 -0.008251682 -0.003834221 -0.0021901436 0.0008227116
-0.0018936408 0.0060533313 -0.0020574578 -0.0004935643 -0.0035957973 -0.00036100842 -0.004190287 -0.0026047402
0.0021080635 -0.005327359 -0.0019092687 -0.00029799153 0.003099895 0.0026468944 -0.0012014626 -0.0011505416
-0.00075140176 0.006429177 -0.0048265294 -0.0017443129 -0.0049088337 0.0058595417 -0.0045220293 0.0023538899
-0.0019632338 -0.0022946936 -0.0014210789 0.0017893012 -0.003577612 -0.00049050344 -0.004119134 -0.0020139778
-0.0020932222 -0.0008312924 0.0035425962 -4.9149767e-05 0.0 0.004354387 -0.005339423 0.0055620153
-0.004131619 0.0005921279 0.003172797 0.0021977671 0.003543242 0.0016279188 -0.0021181284 0.005033209
0.0050949245 -0.01100672 -0.0003802626 -0.0038636625 0.0065569766 -0.00036678463 -0.00047950313 -0.0018793365
-0.004455069 -0.0034486896 -0.0001639503 0.004655136 0.005371581 0.008025983 -0.00057359895 -0.0043065688
-0.006925804 0.0017384678 -0.009508404 -0.0032908006 -0.00050267344 -0.004689363 -0.0048875287 0.0019492521
0.003089334 0.004369072 0.0 -0.005733107 0.0035966595 -0.006371619 -0.0011000033 -0.007894825
-0.002694421 0.0019611148 -0.005530958 0.00043346305 -0.003934977 0.005671731 -0.00012907971 0.004035869
-0.005696047 -0.0031956914 -0.003591922 -0.0015277441 0.0 -0.0007537038 -0.00538116 -0.0039095846
-0.0046852175 0.0010806913 -0.0051657553 -0.0004996365 0.0066350983 0.0059019276 0.0016495713 -0.0009024672
0.0017093718 -0.0036778022 -0.0011374599 -0.00071423815 0.0030745785 0.0008974575 0.001732051 0.0005510209
0.0017963724 0.00072404684 0.003278783 0.0032006192 -0.0059889145 -0.0015172318 -0.0025157495 -0.0019329767
0.0009777894 -0.014277389 -0.0024574525 0.000576536 0.00055241893 -0.004830565 -0.005907821 -0.00079985085
