models/blood/28-_manhattan_identity.pth (torch, 19133 bytes, 3 tensors)

conv.0.weight f4 [128, 16, 1, 1]
0	0x3e2bc6c9	0.1677505
1	0x3e633351	0.22187544
2	0x3dba4f59	0.090971656
3	0xbdae1e13	-0.0850183
4	0x3e32de1f	0.17467545
5	0x3e82a84c	0.25519025
6	0xbe478ccf	-0.19487308
7	0x3d90b0f1	0.07064999
8	0x3cbfa68b	0.023394844
9	0x3d79a57e	0.06094884
10	0xbda0aa6c	-0.078450054
11	0x3e38e9e2	0.18057969
12	0xbe59a7b0	-0.21255374
13	0x3e0ba843	0.13638406
14	0x3d39b30a	0.04533676
15	0xbe54e8b2	-0.20791891
16	0x3d9a45ba	0.075328305
17	0x3e242fd0	0.16033864
18	0xbc81e5e4	-0.01585669
19	0x3d8e694f	0.0695368
20	0x3e48fc25	0.19627436
21	0x3ca665ff	0.020312307
22	0x3d65ece5	0.056134123
23	0xbe2be30e	-0.16785833
24	0xbd4588a6	-0.04822602
25	0xbc339bba	-0.010962421
26	0x3e05bb50	0.13059735
27	0x3de94984	0.11390975
28	0x3e1b2181	0.151495
29	0xbdbbf4cf	-0.09177553
30	0x3ce67379	0.028131234
31	0x3e567558	0.209432
32	0xbe6129dd	-0.21988626
33	0xbe4df9eb	-0.20114867
34	0xbe09382c	-0.13400334
35	0xbe333995	-0.17502435
36	0x3db1b8b4	0.086778075
37	0xbd02fb21	-0.031977776
38	0x3e87dffc	0.26538074
39	0x3e581a76	0.21103844
40	0xbe019f04	-0.12658316
41	0xbe5a1cdc	-0.21300071
42	0x3c1cb72c	0.009565156
43	0xbe5eaff0	-0.21746802
44	0x3de5ac9b	0.112145625
45	0x3e5710af	0.21002458
46	0x3dce6bee	0.1007918
47	0x3e7f78fa	0.24948493
48	0xbdef6035	-0.11688272
49	0xbe14c929	-0.14529862
50	0xbd94a210	-0.072574735
51	0xbc82d1db	-0.015969208
52	0xbcbb4c44	-0.022863515
53	0xbc51c17a	-0.012802476
54	0xbdc2fed5	-0.095212616
55	0x3e7af529	0.24507584
56	0x3e3d44a4	0.18483216
57	0xbe4d08a7	-0.20022832
58	0x3e14cc50	0.14531064
59	0xbe2d7382	-0.16938594
60	0xbe75c1b8	-0.23999679
61	0xbdde0ff3	-0.10842886
62	0xbdbb8033	-0.091553114
63	0x3d9962f8	0.0748958
64	0x3e859a92	0.2609449
65	0x3d568601	0.05237389
66	0xbd35b78b	-0.044364493
67	0xbdd0e66e	-0.10200201
68	0x3daf4a45	0.08559088
69	0xbb75316e	-0.0037413496
70	0x3e534923	0.20633368
71	0x3c39eb3e	0.01134759
72	0xbcd95a10	-0.026532203
73	0xbe164fb9	-0.1467885
74	0xbe84751e	-0.25870603
75	0x3d1e0217	0.03857621
76	0xbe63ce76	-0.22246727
77	0x3cd7dca4	0.026350327
78	0x3da75d78	0.081721246
79	0x3e39395f	0.18088292
80	0xbe9dccc6	-0.30820292
81	0x3d5f0d3a	0.054455973
82	0x3e0d9d9c	0.13829654
83	0x3e268a3b	0.16263668
84	0xbe122020	-0.14270067
85	0xbced51d3	-0.02896968
86	0xbe09ff75	-0.13476355
87	0xbd17c1f7	-0.037050214
88	0x3e1b23d2	0.15150383
89	0xbe839b56	-0.2570445
90	0x3c1442c3	0.00904912
91	0xbdf91a3c	-0.12163207
92	0x3e4f4e36	0.20244679
93	0x3df6d109	0.12051589
94	0x3dce28fc	0.10066411
95	0x3d2177a3	0.039420735
96	0x3e6189bf	0.22025202
97	0xbe57d15e	-0.21075961
98	0x3e677def	0.22606634
99	0x3d886fa0	0.06661916
100	0xbcd13cfc	-0.025541775
101	0xbe557d34	-0.20848542
102	0x3db5a423	0.08869197
103	0xbe613fa5	-0.21996935
104	0x3db5a9f4	0.088703066
105	0xbdfec34f	-0.12439596
106	0x3e2cfc66	0.16893157
107	0x3db42689	0.087964125
108	0xbe4ca624	-0.19985253
109	0xbd3adb74	-0.045619443
110	0x3dd93d96	0.1060745
111	0xbda2af80	-0.0794363
112	0x3d3fc3b2	0.04681749
113	0xbe2a7181	-0.16644861
114	0x3d95ed6c	0.07320675
115	0xbdc2e265	-0.095158376
116	0x3dfe5be1	0.12419868
117	0x3dd022d4	0.10162893
118	0xbe5c8619	-0.21535529
119	0x3d4ff5cf	0.05077153
120	0x3dfc19d7	0.12309616
121	0x3e230690	0.15920472
122	0x3e11a9d7	0.14224945
123	0x3db9e1e0	0.09076285
124	0xbc84d246	-0.016213547
125	0x3c725370	0.014790401
126	0x3e5fd6b7	0.21859251
127	0x3e4aa60f	0.19789909
128	0x3bd0f1e9	0.006376494
129	0x3cd35540	0.025797486
130	0xbcf737be	-0.030177947
131	0x3cdfdb2b	0.027326187
132	0x3d0dd1b6	0.034623824
133	0xbe018048	-0.12646592
134	0xbe436f4d	-0.19085427
135	0xbe4cf9c6	-0.20017156
136	0xbe29b89a	-0.16574326
137	0xbe6cb93b	-0.23117535
138	0x3e5673b4	0.20942575
139	0xbd1af9cb	-0.037835877
140	0xbe5ba428	-0.2144934
141	0xbde195a6	-0.11014871
142	0xbe61a567	-0.22035752
143	0x3e1e9d1a	0.15489617
144	0x3a5aab5a	0.00083415734
145	0x3d5ac3f8	0.053409547
146	0xbe0b7274	-0.13617879
147	0xbdfba632	-0.122875586
148	0xbd5774d7	-0.05260166
149	0xbe75df54	-0.24010974
150	0xbe5938a8	-0.21213019
151	0x3d0d0ee7	0.03443804
152	0x3e0ab1c2	0.13544372
153	0x3d3f17ef	0.046653684
154	0xbe1831d7	-0.14862762
155	0x3e6d6926	0.23184642
156	0xbce3871b	-0.027774384
157	0xbe76c687	-0.2409917
158	0xbd2899ff	-0.041162487
159	0xbd322307	-0.043490436
160	0xbdecc823	-0.115616105
161	0x3de8c2e2	0.11365296
162	0xbddc9c30	-0.10771978
163	0x3d29bed8	0.04144177
164	0x3dc4f294	0.096165806
165	0xbe1f5b24	-0.15562111
166	0x3e658830	0.22415233
167	0xbd65678b	-0.05600695
168	0xbe55a1e6	-0.2086254
169	0xbe306489	-0.17225851
170	0x3e1a8153	0.15088396
171	0x3e7332b5	0.23749812
172	0x3b4ffe30	0.00317372
173	0xbe7f89fc	-0.2495498
174	0xbe22f70c	-0.15914553
175	0x3cab62c9	0.020921128
176	0x3dbcb506	0.09214215
177	0x3deaef6f	0.114714496
178	0xbda8f407	-0.082496695
179	0x3d8a23d2	0.067451134
180	0xbdd75741	-0.10514689
181	0x3bdcfa1e	0.0067436835
182	0x3d4cd48d	0.05000739
183	0xbd66120c	-0.056169555
184	0x3ce69e33	0.028151607
185	0x3d546edf	0.051863547
186	0xbe469044	-0.1939097
187	0x3e0a57d2	0.13510063
188	0xbe3de0c0	-0.18542767
189	0xbe5814a4	-0.21101624
190	0x3e0d73ca	0.13813701
191	0x3e43fbbd	0.19139
192	0x3d929295	0.071568646
193	0xbd978656	-0.073986694
194	0x3e0d82e8	0.13819468
195	0xbe510aab	-0.20414226
196	0x3c98870a	0.01861908
197	0xbdf700db	-0.1206071
198	0xbd8fd71f	-0.07023453
199	0xbe4582e0	-0.19288206
200	0xbce32151	-0.027725847
201	0x3e08f50d	0.1337473
202	0x3dd1c1b3	0.10242023
203	0x3e17cfb9	0.14825334
204	0xbcaacd69	-0.0208499
205	0xbd980736	-0.074232504
206	0xbe4c1f52	-0.19933823
207	0x3cdf52bb	0.027261129
208	0x3ccf8118	0.025330111
209	0x3d5757b6	0.052573882
210	0xbaf61e7a	-0.0018777393
211	0x3dd77404	0.10520175
212	0x3db73f6f	0.08947646
213	0x3dee607a	0.11639495
214	0x3e531b65	0.20615919
215	0x3d4a8f05	0.0494528
216	0x3e04867c	0.12941927
217	0xbd821722	-0.063520685
218	0xbe123e4a	-0.14281574
219	0xbe09079a	-0.13381806
220	0x3e32932c	0.17438954
221	0xbddc6c9e	-0.107629046
222	0x3d26dead	0.040739704
223	0xbe34f49b	-0.17671435
224	0xbddc6919	-0.10762233
225	0x3dd1fe9a	0.102536395
226	0x3dba30e3	0.09091356
227	0xbca1cd72	-0.019751284
228	0xbdc3d915	-0.095628895
229	0x3e8814ca	0.2657836
230	0x3db8e4f2	0.09028043
231	0x3d688c98	0.056774706
232	0x3e02e8bd	0.12784095
233	0x3e163a0f	0.14670585
234	0x3e5aad42	0.21355155
235	0x3def387c	0.116806954
236	0x3c164258	0.009171091
237	0xbe4ee0da	-0.20202962
238	0xbe391a91	-0.1807654
239	0xbde772ec	-0.113012165
240	0x3cd81688	0.026377931
241	0x3e6d1169	0.23151173
242	0x3c31bf81	0.010848881
243	0x3e51d7df	0.20492505
244	0x3e54c7e3	0.20779376
245	0xbdafe061	-0.08587719
246	0x3dc9ddd5	0.09856764
247	0x3deff1c7	0.11716037
248	0xbdc2d7a1	-0.09513784
249	0xbe40a26c	-0.18811959
250	0xbe7b4553	-0.24538164
251	0x3e0dd4f8	0.13850772
252	0xbdbdc5b0	-0.092662215
253	0xbe2acfe8	-0.16680872
254	0xbe55a2d4	-0.20862895
255	0xbddbaf7f	-0.107268326

conv.0.bias f4 [128]
0	0xbe16e01c	-0.14733928
1	0x3c6ac673	0.014329541
2	0xbd41b8fc	-0.047295555
3	0x3e85dca4	0.26144898
4	0xbe391f62	-0.18078378
5	0x3e0931c7	0.13397895
6	0xbe6c6829	-0.23086609
7	0x3d6565bd	0.05600523
8	0xbc0b8a38	-0.008516841
9	0xbd1ae830	-0.037819088
10	0x3e3e7532	0.18599394
11	0xbd4023fb	-0.046909314
12	0x3e7b9db8	0.24571884
13	0x3d8f0319	0.06983013
14	0x3e594556	0.21217856
15	0xbe481bab	-0.19541804
16	0x3dbb9f5a	0.09161253
17	0xbcaae749	-0.020862238
18	0x3e39a528	0.18129408
19	0x3e7eb102	0.2487221
20	0x3e0b295a	0.13589993
21	0x3e394cd3	0.18095712
22	0x3e5c2e6f	0.21502088
23	0xbd5bb776	-0.05364176
24	0xbcbe97f2	-0.023265813
25	0xbe42e45c	-0.19032425
26	0x3e619ed5	0.22033246
27	0x3c9abd54	0.018889107
28	0xbe0e18b1	-0.13876607
29	0x3e36bf8e	0.1784651
30	0x3da302c4	0.07959512
31	0xbd9678e4	-0.07347277
32	0xbe5e63a4	-0.21717697
33	0x3e04e452	0.12977722
34	0x3d8c3cb3	0.06847515
35	0x3e398cf2	0.18120173
36	0xbde69209	-0.11258323
37	0xbcb7ea06	-0.022450458
38	0x3e6b4a8f	0.2297766
39	0x3e59326a	0.21210638
40	0xbe2c222f	-0.16809915
41	0x3d9a5a24	0.07536724
42	0x3de8dded	0.11370454
43	0xbe056e06	-0.13030252
44	0xbd4c1060	-0.049820304
45	0x3e808c44	0.25107014
46	0x3e206b6e	0.15665981
47	0x3d87e35b	0.066351615
48	0x3e0589e6	0.13040885
49	0x3e018639	0.12648858
50	0xbdc9b496	-0.09848897
51	0xbe611c64	-0.21983486
52	0x3dc636c3	0.09678414
53	0xbd00803d	-0.031372298
54	0x3e81a612	0.25322014
55	0x3d6b0529	0.057377968
56	0xbe697ac8	-0.22800744
57	0x3d86a824	0.06575039
58	0x3e77c9a6	0.24198017
59	0x3d50247e	0.05081605
60	0x3cedd7b7	0.029033525
61	0x3e2c363e	0.16817567
62	0x3e51bfe5	0.20483358
63	0xbe726755	-0.2367223
64	0x3cead994	0.028668202
65	0xbd8486be	-0.064710125
66	0xbe10c67c	-0.14138216
67	0x3e02346e	0.12715313
68	0x3e70c741	0.2351351
69	0xbe325a3a	-0.17417231
70	0xbd2da36b	-0.042392176
71	0xbe39d423	-0.1814733
72	0xbd9de3c5	-0.07709459
73	0x3d8dde6d	0.0692719
74	0xbdc9f3ac	-0.0986093
75	0x3e6965cf	0.22792743
76	0x3e0e41c9	0.13892283
77	0x3c7534cc	0.014966201
78	0x3e298b11	0.16556956
79	0x3db23f71	0.08703507
80	0xbd89dd2e	-0.0673164
81	0xbe7cd8df	-0.24692105
82	0xbe424686	-0.18972215
83	0xbde2acee	-0.1106814
84	0x3e119975	0.14218695
85	0x3e57bc9e	0.21068045
86	0x3dbab9e1	0.09117485
87	0x3d0fef8c	0.03514056
88	0x3e08a8d5	0.13345654
89	0xbd793ae7	-0.06084719
90	0xbdc5b68c	-0.09653959
91	0x3df8b3dd	0.12143681
92	0xbe73a9de	-0.23795268
93	0x3e78ef89	0.24310125
94	0x3d8dd330	0.069250464
95	0x3e0f9d03	0.14024739
96	0x3da51f78	0.08062643
97	0x3da9b976	0.08287327
98	0x3deb5983	0.114916824
99	0xbe4c3b8b	-0.19944589
100	0xbdc21ac7	-0.094777636
101	0x3df139ae	0.1177858
102	0xbe563950	-0.209203
103	0xbe3f0686	-0.18654832
104	0x3d66bfa2	0.0563351
105	0x3d04c8e7	0.032418158
106	0xbe045c22	-0.12925771
107	0x3e847eaa	0.25877887
108	0x3d39cfd3	0.045364212
109	0xbce342f9	-0.027741896
110	0xbd0bf8cd	-0.03417282
111	0xbd948650	-0.072521806
112	0xbe5d5821	-0.2161565
113	0x3e18e032	0.14929274
114	0xbc769a9f	-0.015051513
115	0xbda0aea9	-0.07845814
116	0x3da87387	0.0822516
117	0x3e0e61e4	0.1390453
118	0x3da059e5	0.07829646
119	0x3d24cac3	0.04023243
120	0xbe0e8754	-0.13918811
121	0xbe0f53b6	-0.13996777
122	0x3de9e91a	0.11421414
123	0x3de16b73	0.110068224
124	0xbe5b4a86	-0.21415147
125	0x3cf47d8c	0.029845022
126	0x3e8979cf	0.26850745
127	0xbe007779	-0.12545575

conv.2.weight f4 [16, 128, 1, 1]
0	0xbc002417	-0.0078211045
1	0xbbabf67d	-0.0052478896
2	0xbbc27244	-0.0059340317
3	0x3c261681	0.010137201
4	0xbc6f7229	-0.01461462
5	0x3be0e1da	0.006862861
6	0xbc254edb	-0.010089601
7	0x3a0a8803	0.00052845496
8	0xbc0c461c	-0.008561637
9	0xbb5ef524	-0.0034020627
10	0x3c4296f0	0.011876807
11	0xbc049efc	-0.008094545
12	0x3c15f54c	0.009152722
13	0xba8eb4c4	-0.0010887613
14	0x3c1fd432	0.009755181
15	0xbbe2d010	-0.0069217756
16	0x3bdf31c0	0.0068113506
17	0x3b8339ec	0.0040047076
18	0x3b774295	0.0037728895
19	0x3c0cd7c2	0.008596363
20	0x3c55c1cd	0.013046694
21	0x3c46ecc5	0.012141411
22	0x3c6e142c	0.014531177
23	0xbaea25b6	-0.0017864022
24	0xbb7158d3	-0.0036826625
25	0xbc19d36e	-0.009388788
26	0x3c974bdb	0.018468788
27	0xbb6c40b6	-0.0036049313
28	0xbc7437b8	-0.0149058625
29	0x3ba25be1	0.0049548005
30	0x3ca74cdd	0.020422393
31	0xbc2f084d	-0.010683131
32	0xbca9c492	-0.020723615
33	0x3cbc1434	0.022958852
34	0x3ba8dec4	0.005153509
35	0x3c366185	0.011131649
36	0xbc1fe44f	-0.009759023
37	0xbb7f277f	-0.0038933454
38	0x3b17654b	0.0023101147
39	0x3c829d61	0.015944185
40	0x3c1c8fd7	0.0095557785
41	0xbc86c7f9	-0.016452776
42	0x3b23f3c2	0.0025017117
43	0xbb5b0155	-0.0033417542
44	0xbb24afa7	-0.002512911
45	0x3c889614	0.016673125
46	0x3cc44cb0	0.023962349
47	0xbc1001e6	-0.008789515
48	0x3c6d5d50	0.014487579
49	0x3c9426dd	0.018084938
50	0xbbae5c77	-0.0053210813
51	0xbc8be1da	-0.017075468
52	0x3d004a48	0.03132084
53	0xbb7c3e25	-0.003848919
54	0x3c8e4e0d	0.017371202
55	0x3ccf4d94	0.025305547
56	0x00000000	0.0
57	0xba32713b	-0.0006807034
58	0x3c641278	0.013920419
59	0x3c02eadf	0.007990568
60	0xbbd947b4	-0.006630862
61	0x3be8e8c5	0.0071078264
62	0x3bbbdb3e	0.005732923
63	0xbc4fd88d	-0.012685907
64	0x3a49c59e	0.0007696989
65	0xbbbdcbf0	-0.0057921335
66	0xbc1d08a9	-0.009584584
67	0x3c5f1dd5	0.013617952
68	0x3cad95b3	0.021189546
69	0xbbc5305f	-0.006017729
70	0x3b235e2a	0.0024927952
71	0x38755900	5.849544e-05
72	0xbc123937	-0.008924774
73	0x3bcf4830	0.006325744
74	0xbbada8bd	-0.005299656
75	0x3be57409	0.007002358
76	0x3b8220e5	0.0039712065
77	0xbc43db3c	-0.011954125
78	0x3c909cc9	0.017652886
79	0x3ba01add	0.004886015
80	0x3c967a80	0.01836896
81	0xbc3e19f5	-0.011602868
82	0xbb5f735c	-0.003409586
83	0x00000000	0.0
84	0x3c521615	0.012822648
85	0x3c8f6226	0.017502856
86	0xba664491	-0.0008784021
87	0x3c94167e	0.018077131
88	0x3c91cfd6	0.0177993
89	0xbbc2f813	-0.005949983
90	0x3a0a5562	0.0005277005
91	0x3c8b7174	0.017021872
92	0xbc18a348	-0.009316273
93	0x3bda099e	0.0066539785
94	0x3c9963e2	0.018724386
95	0x3ccb755d	0.024836237
96	0x3b6e991b	0.0036407176
97	0x3c377501	0.0111973295
98	0x3ca62b86	0.020284425
99	0xbcc0e251	-0.023545416
100	0xbbd0ef73	-0.006376201
101	0x3a361922	0.0006946494
102	0xbc795892	-0.015218871
103	0xbc06c75b	-0.008226241
104	0xbbcbf22c	-0.0062239375
105	0xbb4f6803	-0.003164769
106	0xbc3c5477	-0.011494747
107	0x3ca2c9ef	0.01987168
108	0x3bd180c6	0.006393525
109	0xbc1a14d9	-0.0094043845
110	0xbbe799e4	-0.0070679057
111	0xbc0cf6aa	-0.008603731
112	0xbc10c001	-0.00883484
113	0x3b6d33ae	0.0036194134
114	0xbc37f1b6	-0.011227062
115	0xbc92de4e	-0.017928269
116	0x3ba483ed	0.0050206096
117	0x3c9cd5c0	0.019144893
118	0x3c274d20	0.010211259
119	0x3c50992c	0.0127318315
120	0x3d26e5cf	0.040746506
121	0xbc5e7b5d	-0.013579217
122	0x3c3347ba	0.010942394
123	0x3c1468aa	0.009058157
124	0xbd0ed706	-0.03487303
125	0xbb561340	-0.0032665282
126	0x3c965282	0.01834989
127	0xbb2d04de	-0.0026400606
128	0xbbb6843f	-0.005569964
129	0xbb253bee	-0.0025212723
130	0x3aa41d22	0.0012520889
131	0x3b016394	0.001974319
132	0xbc62fbbb	-0.0138539625
133	0x3ae75e39	0.0017651982
134	0xbb93d5b1	-0.004511558
135	0x3ba58b5c	0.0050520133
136	0xbc1064db	-0.008813108
137	0xbb0c715c	-0.0021429872
138	0x3b452b3d	0.0030085586
139	0xbbd4086b	-0.00647073
140	0x3c511395	0.012761016
141	0x3acbac0a	0.0015538943
142	0x3b86c7ca	0.004113172
143	0xbbf1296c	-0.007359674
144	0x3be92139	0.007114556
145	0x3b87ea2d	0.004147789
146	0x3a05f029	0.0005109334
147	0x3be65cb4	0.007030094
148	0x3becbb3d	0.007224469
149	0x3bf48747	0.0074624154
150	0x3ba3fc23	0.0050044223
151	0xbab183ab	-0.0013543268
152	0xbb79abcd	-0.0038096786
153	0xbc405474	-0.011738885
154	0x3c847f8c	0.0161741
155	0xbb929395	-0.0044731596
156	0xbc28caf2	-0.010302292
157	0xba3bc6e5	-0.00071631215
158	0x3c8ef680	0.017451525
159	0xbc48b66e	-0.012250526
160	0xbcffdb9f	-0.031232653
161	0x3c732501	0.014840365
162	0x3b13ae15	0.002253418
163	0x3ae65480	0.001757279
164	0xbc2184d4	-0.009858329
165	0xbb76e5b6	-0.003767354
166	0x3bf8a0ac	0.007587513
167	0x3c0b669a	0.008508349
168	0x3bf448c0	0.0074549615
169	0xbc9fdf82	-0.019515757
170	0x3ac82d7c	0.0015272344
171	0xbbb23e4d	-0.0054395557
172	0xbba1500c	-0.0049228724
173	0x3c4c8cfe	0.012484787
174	0x3c87e39a	0.016588021
175	0xbb4b7847	-0.0031047033
176	0x3c8776a5	0.016536066
177	0x3bd6e872	0.0065584714
178	0x3ba2c452	0.004967251
179	0x3b8e803f	0.004348784
180	0x3cce841e	0.025209483
181	0xbc14019a	-0.009033585
182	0x3be5d16d	0.007013491
183	0x3c9d07df	0.019168792
184	0x00000000	0.0
185	0x3a379922	0.00070037146
186	0x3c2ccbea	0.010546664
187	0x3c2f4e03	0.010699752
188	0x3b38b027	0.0028181167
189	0x3c601daf	0.013678952
190	0x3c1f7e1a	0.009734655
191	0xbcb22883	-0.021747833
192	0x3b8c8798	0.004288625
193	0xbc9bda20	-0.019024909
194	0xbc325d94	-0.010886569
195	0x3c1a2cbe	0.009410081
196	0x3c80a270	0.015702456
197	0xbb2bcc43	-0.0026214279
198	0xbb9bdf3f	-0.0047568376
199	0xbc9fa59f	-0.019488154
200	0xbc159af9	-0.009131187
201	0x3befa503	0.007313372
202	0xbc87d780	-0.01658225
203	0x3c54e64d	0.012994361
204	0x3a24d629	0.0006288016
205	0xbc552734	-0.013009835
206	0x3c89db5c	0.016828232
207	0xbb4e01b1	-0.0031434114
208	0x3be488bd	0.0069743083
209	0xbc0c2221	-0.008553059
210	0x3907e06d	0.00012958208
211	0x00000000	0.0
212	0x3c44ef77	0.0120199835
213	0x3c837132	0.016045187
214	0x3b2dd17f	0.0026522574
215	0x3c7c87fe	0.015413282
216	0x3c82eaf6	0.015981179
217	0xbbd3a609	-0.006459002
218	0xb78237d8	-1.5523212e-05
219	0x3c4a72bf	0.012356459
220	0x3ae9402f	0.0017795617
221	0x3c77f6a3	0.015134486
222	0x3c56176c	0.013067108
223	0x3c258819	0.010103249
224	0xbb203ec2	-0.002445147
225	0x3c13e602	0.009027006
226	0x3cbcd8ec	0.023052655
227	0xbcb15ed5	-0.021651665
228	0xbbde6a88	-0.006787602
229	0x3ac1a2a4	0.0014773202
230	0xbc4b2958	-0.012399994
231	0xbbce00ca	-0.006286715
232	0x3b7a2623	0.0038169704
233	0xbbc25d2e	-0.005931518
234	0xbc734389	-0.014847645
235	0x3c71e67b	0.0147644235
236	0x3bc36cc0	0.0059638917
237	0xbc281e46	-0.010261124
238	0xbbc5b0f8	-0.006033059
239	0xbbe0120c	-0.006838089
240	0xbb3e0f2a	-0.0029000738
241	0x3bb555c6	0.0055339066
242	0x3c220457	0.00988873
243	0xbc57566c	-0.013143163
244	0x3b910dcf	0.004426695
245	0x3c7d4c7a	0.015460128
246	0x3bdfed47	0.0068337056
247	0x3c00deab	0.007865588
248	0xbd7b3673	-0.061331224
249	0xbc1ea6bb	-0.009683306
250	0x3bdedffb	0.006801603
251	0x3bdc3d72	0.006721192
252	0xbc1fd0e9	-0.009754398
253	0x3c04e271	0.008110628
254	0x3c75e258	0.015007578
255	0xbbd73172	-0.0065671736
