models/blood/28-_manhattan_gaussian_identity.pth (torch, 27388 bytes, 3 tensors)

conv.0.weight f4 [128, 32, 1, 1]
000000 e4 80 0b be 79 79 c6 bd e6 1e 2f be a2 88 ad bd
       -0.13623387 -0.09691138 -0.1710163 -0.08473326
000010 2b 86 93 bd bb b3 6f 3d d5 d9 98 3c 55 50 72 3c
       -0.07203325 0.058521014 0.018658558 0.01478966
000020 0e 81 d2 bd ea 34 80 bd 4f ba f1 3d a4 d3 30 3e
       -0.102785215 -0.062600926 0.11803114 0.17268234
000030 c9 7a 9c 3d 91 ae 22 be ba 0b 37 3d a9 b7 25 be
       0.07640607 -0.15886904 0.044688918 -0.16183342
000040 1b c0 0e be 08 15 aa 3d de 8c f0 3c e6 b6 45 3e
       -0.1394047 0.08304793 0.029364046 0.19308051
000050 5c f3 14 3e 12 0c ad 3d c8 a9 d9 bd 28 d0 f7 3d
       0.14545959 0.08449568 -0.10628086 0.121002495
000060 9c ca af 3d 91 e9 c3 3d 60 bd 8c 3d 65 9b 02 3e
       0.085835665 0.09566034 0.06872058 0.12754591
000070 07 d2 4f 3b 7b 6c e8 bd e7 fa 39 3e 22 b9 bb 3d
       0.003171088 -0.11348816 0.18162118 0.09166171
000080 42 f3 46 be 78 25 07 be 37 b8 05 3d 75 21 16 3e
       -0.19428733 -0.13197887 0.032646384 0.146612
000090 8c 13 b7 3d 67 5a da bd 72 1a 11 3e 4b c2 87 bd
       0.08939275 -0.10661774 0.14170244 -0.06628855
0000a0 ac 07 71 3d 46 e4 ef 3c 6e 62 90 3d f5 60 ab bd
       0.058845207 0.029283654 0.07050024 -0.083681025
0000b0 e6 28 04 3e 22 cd c8 3b ba 2f 15 be b2 b8 e9 bd
       0.12906227 0.0061279694 -0.14568987 -0.11412181
0000c0 82 7e 50 3d eb 16 3d bd 7e 69 16 3e 88 98 23 3e
       0.050901897 -0.046164434 0.1468868 0.15976155
0000d0 b2 e3 11 be 6d dc d5 bc 38 33 1f 3d c1 41 72 ba
       -0.14247015 -0.026106084 0.038867205 -0.00092413655
0000e0 08 4d e0 3c 72 e5 e8 bd e8 e9 e8 bd 6c fb 0b be
       0.027380481 -0.11371888 -0.11372739 -0.13670129
0000f0 8e 88 f4 bd ab 37 a7 3d 60 d7 88 bd ef cc 82 bd
       -0.11940108 0.08164915 -0.066817045 -0.06386744
000100 8c 7c b2 3b d1 57 05 be f6 ff 7a 3c 05 09 24 be
       0.005446976 -0.1302178 0.015319815 -0.16019066
000110 d3 02 98 3d 47 2c e3 3d 0f e0 ff bd 73 d6 18 bd
       0.07422414 0.110924296 -0.12493908 -0.03731389
000120 58 c6 c5 3d 26 8c 02 bc 45 af fe bd 25 2d 16 3c
       0.09656972 -0.007967984 -0.12435774 0.009166037
000130 5c 38 1a be 98 49 92 bd 82 58 16 be 87 06 35 3e
       -0.15060562 -0.07142943 -0.146822 0.17678271
000140 fc 82 fc bd 3c 14 1c be 99 b8 0e be 39 23 63 bd
       -0.12329671 -0.15242094 -0.13937606 -0.055453513
000150 79 28 50 bd 20 72 2c 3d dc 98 1a 3e 75 c7 9c 3d
       -0.050819848 0.042101026 0.15097374 0.07655231
000160 32 b5 f7 bd 46 76 f6 bc e2 54 03 be 69 2d a9 bc
       -0.12095107 -0.030085694 -0.12825349 -0.020651536
000170 01 0b a1 bd 0e f8 83 3d 87 ec d3 bd 39 84 f8 3d
       -0.07863427 0.06443797 -0.103478484 0.121345945
000180 f5 d5 70 3d bd 58 ae bd 08 f9 94 bd ba 20 8e 3d
       0.058797795 -0.08513019 -0.072740614 0.06939836
000190 7a 26 aa 3c ee 19 a8 3d 62 95 18 bc 09 2a 88 3d
       0.0207703 0.08208071 -0.009312959 0.066486426
0001a0 ca fc 0d 3e 58 a5 2a 3d aa a0 f0 bd 4f 3b 30 be
       0.13865963 0.04166159 -0.11749394 -0.17210124
0001b0 f9 d9 16 be d7 fe ce 3d 28 f8 ba 3d f6 26 89 3c
       -0.14731587 0.101072006 0.09129363 0.01674221
0001c0 26 cc 87 bd 2e bf 2d 3e f6 d2 cd bd b4 69 25 be
       -0.06630735 0.1696746 -0.10050003 -0.16153604
0001d0 19 84 50 bd e5 f5 cd 3c 8c 2d 36 3c 9c 12 f8 3d
       -0.05090723 0.025141666 0.011119258 0.121129245
0001e0 6c 0e 2e be ea 8d ef bc 86 95 ff 3d 26 b7 da 3d
       -0.16997689 -0.029242475 0.12479691 0.10679464
0001f0 96 21 63 bd b4 b9 f0 3d 9a 6d 29 be 58 bf c8 bd
       -0.055451952 0.1175417 -0.16545716 -0.09802121
000200 34 7b 8b 3d 0c 94 f0 bd 5c bc 9c 3d c2 db 24 be
       0.068106085 -0.11746988 0.07653114 -0.16099456
000210 2e c3 a2 3d 87 b5 87 bc cd 3b 56 3b df 70 8c bc
       0.07947384 -0.016566051 0.0032689453 -0.017143665
000220 82 4c 99 3d 6d 4e e8 3d ae 7f cb bd 1d 62 ad 3d
       0.07485296 0.113430835 -0.09936462 0.08465979
000230 84 e5 e6 3b a1 f4 c0 bd 69 de 07 be c1 b2 8b bc
       0.0070464034 -0.09421659 -0.13268436 -0.01705301
000240 5b 38 ab 3d 95 18 d4 bd ab 04 e7 bd 8d 58 fa bd
       0.08360358 -0.10356251 -0.11280187 -0.12223921
000250 97 33 ea 3c b1 e3 d7 bc 7e 87 0f 3e 97 3b c1 3d
       0.028589053 -0.026353689 0.1401653 0.09435194
000260 ba c8 1b 3e 19 c6 18 be dc 16 0b 3e e3 6b 53 3d
       0.1521329 -0.14919318 0.13582939 0.05161656
000270 9b 8c b8 bd 01 dc af bc fb 8a c8 bd ba be ee bd
       -0.09011193 -0.02146721 -0.097921334 -0.11657472
000280 09 00 ac bd bb 0c c8 bd 56 e0 15 3e f2 fa 07 3e
       -0.08398444 -0.09768053 0.14636359 0.13279322
000290 a1 50 dc bd dd 37 dc 3d 53 79 be bd 87 ed 19 be
       -0.10757566 0.107528426 -0.093004845 -0.15032016
0002a0 98 d3 96 3d 07 4b 01 3d bd c3 f7 bd d8 cd ec 3d
       0.07364577 0.031565692 -0.12097881 0.11562699
0002b0 c8 80 37 3e 37 c7 09 be cb 3d 80 bb e8 99 8b 3d
       0.1792022 -0.134549 -0.0039136163 0.06816465
0002c0 1f 3d d5 3c ee 35 9b 3b be 3a f6 bd 6a 44 11 be
       0.026030121 0.0047366535 -0.12022923 -0.14186254
0002d0 ce a2 69 3d 3d 9c 96 bd 22 98 f3 3d 30 5a cd bd
       0.05704003 -0.07354019 0.118942514 -0.100269675
0002e0 5e 5e 87 bd 9a 07 65 bd f1 80 0b bd 09 cd 0a be
       -0.06609796 -0.055915453 -0.034058515 -0.13554777
0002f0 dd a4 94 3d a7 1d 76 bd 68 0f 13 be 33 1e fd 3c
       0.07258008 -0.060086872 -0.14361346 0.03089819
000300 ed 65 06 be c1 69 27 be f4 89 86 3d d5 3e b2 bd
       -0.13124819 -0.16348936 0.06569281 -0.087033905
000310 65 e8 22 be 69 c0 84 bd bb c3 5e bc 7d 98 2a be
       -0.15908964 -0.06482012 -0.0135964705 -0.16659732
000320 36 93 15 bd 30 ef e3 bc 28 ec b5 3c 1c cd 00 be
       -0.036517344 -0.027824014 0.022207335 -0.12578243
000330 64 9b c8 bd 71 f8 d9 3d 72 ee c5 3d 24 05 ce bd
       -0.097952634 0.106430896 0.096646205 -0.10059574
000340 6d 66 22 bd 09 2a 0b be 0b 16 a5 3d 9d 7a 07 bd
       -0.039648462 -0.13590254 0.08060845 -0.033075918
000350 6d 16 ce bc 8e 83 2f bd 88 c4 1c 3d 52 ac d4 bd
       -0.025157178 -0.04285007 0.038273364 -0.1038443
000360 cb 9a 28 be be d4 07 bd 18 e5 20 3e ee c7 d8 3d
       -0.16465299 -0.03316187 0.15712392 0.105850086
000370 71 a8 b5 bc eb fd f6 bc b5 56 1b 3d 0f ba 55 3d
       -0.022175046 -0.030150374 0.037924487 0.052179392
000380 86 dd 23 3e db 54 2d 3e bb ae 43 3d 3d dc 24 be
       0.16002473 0.16926901 0.047774058 -0.16099639
000390 8b a4 16 3c 0f 52 ea 3d 9b 5c d6 bd b8 76 dd b8
       0.009194504 0.11441433 -0.10466882 -0.00010560214
0003a0 6a e0 03 3e 23 23 33 be db 0e 26 3c 3c 90 e6 3d
       0.12878576 -0.17493872 0.010135378 0.11257979
0003b0 79 f5 26 3e 22 02 43 3d c8 3e b6 bd 9c 25 17 bd
       0.16304578 0.047609456 -0.08898693 -0.0369011
0003c0 f9 59 a8 3b e9 13 d6 bd f2 ae 47 3d 3a 9b be bd
       0.0051376787 -0.10453016 0.048750825 -0.09306951
0003d0 d6 6a 23 3e 2a 5d 66 3c 6c 2c 2f be 54 2f 55 3d
       0.15958723 0.014060298 -0.1710679 0.05204709
0003e0 0f 03 59 bd 4d a9 e0 bd db 53 d0 bd 7e 6e dc bd
       -0.052981433 -0.109697916 -0.10172244 -0.10763262
0003f0 fb a2 1c be 00 46 f9 3d 50 ae 26 be 7b 2f 82 3d
       -0.15296547 0.121715546 -0.16277432 0.063567124

conv.0.bias f4 [128]
000000 10 22 b8 bc 6d a8 fe bb 4e 95 48 3e 6a 87 45 3e
       -0.02247718 -0.0077715428 0.19588205 0.19289938
000010 5a e6 e2 3d 49 30 59 bd 3f 42 51 be 8c a0 3b bd
       0.11079092 -0.053024564 -0.20435427 -0.045807406
000020 07 41 7a bd bc da 2d be 20 c3 c4 3d ed 77 d1 3d
       -0.06109717 -0.16977972 0.0960753 0.10227952
000030 65 23 5c be c2 da 1b be e5 8a 93 bd 67 08 c4 bd
       -0.21497877 -0.15220168 -0.072042264 -0.09571915
000040 15 73 d1 3d cc 39 71 bd 45 e1 8c 3d 03 19 ff 3d
       0.10227028 -0.05889301 0.06878904 0.124559425
000050 3d d9 1d 3e c9 a0 97 bd 7d f6 cd bd c1 39 b7 bd
       0.15414901 -0.07403714 -0.100567795 -0.089465626
000060 9a 3f 1a 3e 0f 93 23 3e 87 09 8c bd 67 3b 42 3e
       0.15063325 0.15974067 -0.06837755 0.18967973
000070 e8 b2 46 3e b7 bf 0b be e4 99 ad bd b7 5b d1 3d
       0.19404185 -0.13647352 -0.08476618 0.10222571
000080 d8 09 87 bd d3 52 7b 39 d8 9e 46 3d 34 52 18 3e
       -0.065936744 0.0002396808 0.04849133 0.14875108
000090 32 d6 29 3e af 8c 9f bd 2a 50 50 be 73 6a 43 3e
       0.16585615 -0.07790505 -0.2034308 0.19083576
0000a0 6e c6 88 bd a8 ce 4e 3e 70 83 b2 bd 46 94 07 3e
       -0.066784725 0.2019602 -0.08716476 0.13240156
0000b0 21 93 1a be 68 66 16 3e f2 61 3d 3c ad a0 00 be
       -0.15095188 0.14687502 0.0115589965 -0.12561293
0000c0 52 27 32 be 86 8c 13 3e 06 1d 29 3d 91 a8 4a bd
       -0.17397812 0.14409074 0.041287445 -0.049477164
0000d0 17 e4 bc bd a7 80 34 3e 9a 21 28 3c 61 a2 10 be
       -0.09223192 0.17627202 0.0102619175 -0.14124443
0000e0 91 77 be bd d4 da 45 3d 77 2a 15 be 0d a1 07 3e
       -0.09300149 0.048304394 -0.1456698 0.1324503
0000f0 ed 02 ef 3b 6e 8e 2f 3d 28 49 4e 3d b2 24 51 3e
       0.00729405 0.04286044 0.050362736 0.20424154
000100 8d 85 3b be 4e ce 13 3e 66 13 39 be 3f 68 a3 3d
       -0.18312664 0.14434168 -0.18073806 0.07978868
000110 dc 1b 98 3d 33 f2 84 3d 09 cf 1e 3e 2a c2 b3 bd
       0.07427189 0.06491508 0.15508665 -0.08777268
000120 16 56 fb bd 53 bc 02 be 4f 35 b6 bd ad e6 07 3e
       -0.12272279 -0.12767152 -0.088968866 0.1327159
000130 c6 d4 aa bd 61 48 49 bd 45 e2 0c 3e 11 93 0c 3e
       -0.083413646 -0.04914129 0.1375819 0.13727976
000140 44 6a 19 be fd 3b c1 3c 9e 57 58 3d de 24 d1 3d
       -0.14981943 0.023588175 0.052817933 0.1021211
000150 29 73 09 be ca 9e 15 3e 44 de 06 bd 67 dc 81 3d
       -0.13422836 0.14611354 -0.032926813 0.063408665
000160 93 8f 07 3e fa a7 06 be 67 24 91 3d 10 79 24 be
       0.13238363 -0.13150015 0.07087021 -0.16061807
000170 fd 83 be 3c 1e e4 3e 3e cc 38 c3 3d d9 c3 bc bd
       0.023256296 0.18641707 0.095323175 -0.092170425
000180 54 51 ad 3d e7 7b 1d bd 23 a1 0c 3e d5 65 4d bd
       0.08462778 -0.03844824 0.13733344 -0.050145943
000190 23 41 0d 3d cd 90 1c 3e 36 9e 5b 3d 2b 81 f0 bd
       0.034485947 0.15289612 0.05361768 -0.11743387
0001a0 f7 76 44 bd 36 a3 49 3e d2 3b 0c be 21 fd 41 be
       -0.047965016 0.19691166 -0.13694695 -0.18944217
0001b0 23 63 32 3e bf d8 db bc d9 66 15 3e 69 72 3c 3e
       0.1742063 -0.026836751 0.14590015 0.18403019
0001c0 87 d7 54 bd 65 4d 29 bd 9e 19 8b bd 17 42 7a bc
       -0.051963355 -0.041333575 -0.067919955 -0.015274546
0001d0 e7 ab 9a bc 5b aa 5f bc 76 8b 16 bd 46 95 5b bd
       -0.018880798 -0.013651456 -0.036754094 -0.053609155
0001e0 51 06 32 3e cf c7 13 be e2 a6 47 3c 3c 45 e1 bd
       0.17385222 -0.1443169 0.012185784 -0.109995335
0001f0 99 ab 18 3e 42 75 46 bb 94 54 c4 3d 7b a8 3c bd
       0.1490921 -0.0030282293 0.095864445 -0.046059113

conv.2.weight f4 [16, 128, 1, 1]
000000 bb 3d 59 3b 87 48 19 3a 79 d5 c4 3c d5 50 92 3c
       0.0033148366 0.0005847294 0.024027573 0.01786081
000010 a5 31 4e 3c f7 16 d2 3c 8a 44 9d 3b 31 7c 26 bd
       0.012585078 0.025645716 0.0047994303 -0.040645782
000020 aa fe 20 bd 52 72 6b bc 6d ec b6 3b e2 df 21 3d
       -0.039305367 -0.014370518 0.0055823834 0.039520152
000030 2a ab 68 bc ca f0 ac 3c 2f 76 8d ba e0 d9 b5 bc
       -0.014200965 0.02111091 -0.0010792668 -0.022198617
000040 bc f2 4c 3c e0 ee f4 ba 5e 3c f9 ba 8c b3 a3 3b
       0.012509044 -0.0018686913 -0.0019015183 0.004995769
000050 82 95 84 bb 0b bc e4 3a 2a 62 de bb 7f 9f 54 bc
       -0.004046143 0.0017451061 -0.0067866044 -0.01297748
000060 11 33 d5 3a 33 4c 33 3c ce 7f 27 ba ef e3 a5 3c
       0.0016265829 0.01094346 -0.0006389589 0.020250289
000070 49 8a 57 3c b0 79 ef bc 9e ad 05 bd bf 63 11 3d
       0.013155528 -0.02923283 -0.032636277 0.035495516
000080 06 5e 0e bd e7 9c 51 3c f1 36 a1 3c 20 07 4c 3c
       -0.034757636 0.012793756 0.019679518 0.012452871
000090 ab 07 97 3c 73 b2 02 bc 9b ba 98 bc 67 2f ad 3c
       0.018436274 -0.007977116 -0.018643668 0.021140767
0000a0 62 1e 07 bd 90 6d 26 3d fa 02 2b 3c 9b 1d dd 3b
       -0.03298796 0.04063183 0.010437721 0.006747914
0000b0 71 66 c9 bb b8 24 b0 3c 2b f8 12 3c 86 8e 89 bc
       -0.006146245 0.021501884 0.008970301 -0.016791593
0000c0 8f 32 6c bb 2b 62 db 3c d4 e5 e5 3c ec 22 a8 bb
       -0.0036040877 0.026780209 0.028063692 -0.005131116
0000d0 7d 1d 7e bb 02 59 ef 3c ef 8d a1 3a 55 18 7a bc
       -0.00387749 0.029217247 0.0012325625 -0.01526459
0000e0 00 00 00 00 8f 78 c5 3b c7 8b ba bc ae c4 5a 3c
       0.0 0.0060263346 -0.02277173 0.013352556
0000f0 0c eb b9 bc 0b e5 05 bc 80 8b 7e bb 25 79 a5 3c
       -0.022695087 -0.008172284 -0.0038840473 0.020199368
000100 f7 06 1e 3b b4 cc 0b 3d fe e0 80 bc ca ad 81 3b
       0.0024113038 0.034130767 -0.015732285 0.003957485
000110 47 82 d8 3b 0c 66 e3 39 9d 4e a5 3c 03 ff 7e bc
       0.006607327 0.00043372845 0.020179087 -0.015563729
000120 bc fe 8c 3b e3 f7 3d bc ea 54 c7 3b 44 6c fd ba
       0.0043028276 -0.011594745 0.0060831206 -0.0019334634
000130 9a 67 5b bb 8c df 17 bd fa c5 98 3b fa 60 02 3c
       -0.00334785 -0.037078425 0.0046622725 0.007957691
000140 b8 22 ae bb a8 b2 83 bc ec 54 c1 39 c0 01 03 3d
       -0.0053141974 -0.0160764 0.000368751 0.03198409
000150 4c 74 41 bd 25 58 71 3c 46 70 5d 3c 2a a2 37 3b
       -0.04723005 0.014730488 0.013515538 0.0028020241
000160 3a 58 8c 3c c9 f2 aa bb bc fa fb 3c b2 22 0c 3c
       0.017131913 -0.0052169305 0.030759208 0.008553194
000170 a5 2f 7a 3c bb 87 68 3c 41 98 37 3c bd a5 19 bd
       0.015270148 0.014192517 0.011205734 -0.037511576
000180 8a cb ae 3c 2c ae 0d 3d 11 97 a0 3b e0 c1 21 3a
       0.02133729 0.03458993 0.004900821 0.0006170552
000190 44 83 f9 3b 9c 9f 00 3d c4 0a d3 3c b9 09 29 bc
       0.007614525 0.031402215 0.02576197 -0.0103172595
0001a0 e3 7e 92 bc 2d 52 5e ba 9c 81 77 bb 6b 5d 8b bc
       -0.01788277 -0.0008480873 -0.0037766462 -0.017012319
0001b0 f0 ad e6 3c 8b 85 be ba 9d ca b6 3c 43 cd 78 3c
       0.028159112 -0.0014535649 0.02231341 0.015185657
0001c0 9a a4 b7 bc 4b 8a ab bc d7 36 dc bc 26 e8 6f bc
       -0.022417355 -0.020939967 -0.026881618 -0.014642751
0001d0 8d 1d b5 bb 40 af d9 bb f5 5e 97 3b 8f 2b 60 bc
       -0.0055272044 -0.006643206 0.004619474 -0.01368226
0001e0 37 ac 97 3c f8 77 eb 3b 3e e1 00 bd 12 5b ee bb
       0.018514736 0.0071859322 -0.031464808 -0.00727404
0001f0 f5 19 f0 3a ea ff 05 3a 3c 45 96 3c c9 62 2c bc
       0.0018318283 0.00051116815 0.01834356 -0.010521599
000200 5a 38 4c 3c 7f b0 d1 3a 96 56 bc 3c 58 31 82 3c
       0.012464607 0.0015998035 0.022990506 0.01589267
000210 c4 02 59 3c 88 45 e5 3c ee c2 b8 3c 3f dd 9b bc
       0.013245288 0.027987257 0.022553887 -0.019026397
000220 79 0f de bc 55 ff 4a bc 02 41 f4 3c 1e f3 de 3c
       -0.027106987 -0.012389977 0.029816154 0.027215537
000230 3e 85 6c bc a2 94 0f 3d ee 43 a5 bc 53 dd a0 bc
       -0.014436064 0.035053857 -0.020173993 -0.019636786
000240 e6 03 f4 3b 2d 24 2f bb 5e 05 b0 bb ff 78 00 3c
       0.007446754 -0.0026724443 -0.0053717336 0.007841348
000250 3c 75 41 bc bd 4d ad 3a c5 3b 09 bc 9e ab 70 bc
       -0.011807736 0.001322202 -0.008376067 -0.014689354
000260 67 f5 94 bb cd fc 33 3c 36 f4 2f 3a c0 06 54 3c
       -0.004545856 0.010985565 0.00067121105 0.012941062
000270 03 81 69 3c 40 28 d3 bc b4 a9 03 bd c5 42 b0 3c
       0.01425195 -0.025776029 -0.032144263 0.021516213
000280 2b 36 60 bd 6a 19 44 3c 44 c9 60 3c 0b 1c a1 3c
       -0.05473916 0.01196895 0.01371986 0.019666692
000290 e3 ef 55 3c a3 20 47 bc a2 f1 37 bc b1 fb dc 3c
       0.013057682 -0.012153777 -0.011227043 0.026975485
0002a0 45 b4 2b bc 1a 80 2b 3d db 2d 12 bc 12 95 8c 3c
       -0.010479991 0.041870214 -0.008922066 0.017160926
0002b0 18 1e 34 bc ca 1f 6a 3c e3 f5 aa ba f1 eb 29 bc
       -0.010993503 0.014289806 -0.0013043251 -0.010371194
0002c0 7a 81 8e 3c 95 01 3d 3d 6c 64 83 3b 6a 79 90 bc
       0.017395724 0.046144087 0.004009774 -0.01763602
0002d0 f3 25 89 bb ba 54 b4 3c a1 37 9b bb a9 1f 5e bc
       -0.004185432 0.022013057 -0.004736856 -0.013557353
0002e0 00 00 00 00 b6 a5 8b 3b 67 7f b7 bc 91 d9 d4 3b
       0.0 0.0042616976 -0.022399617 0.0064956625
0002f0 d9 97 06 bd 45 1c 3f 3b 27 64 8a 3b 21 14 9e 3c
       -0.032859657 0.0029161137 0.004223365 0.019296708
000300 e8 a9 46 3b 33 5d 1f 3d b0 76 e8 bc 63 0e 8a bb
       0.0030313674 0.03890724 -0.028376907 -0.004213141
000310 e8 f2 14 3c 4a e8 82 3a c7 e3 92 3c 55 8a 0c bc
       0.0090911165 0.000998744 0.017930878 -0.008577903
000320 9c 06 24 3c aa 08 32 bc 6f 5f c7 3b bc 3a cb 3b
       0.010011341 -0.0108663235 0.0060843746 0.00620207
000330 ed 83 90 bc 0b 8b 56 bc dd b9 bb 3b cf a0 dc 3b
       -0.017641032 -0.013094674 0.0057289437 0.006733037
000340 2a b0 3d 3c 0d 8e 7f bc 57 69 35 bb 00 5b ed 3c
       0.011577645 -0.015597832 -0.0027681196 0.028974056
000350 35 4b 58 bc 98 7b bf 3c bf be 9a 3c f3 c8 29 bc
       -0.0132015245 0.023374364 0.018889783 -0.010362851
000360 84 3c b1 3c 2f df 0d ba c6 49 94 3c 69 55 13 3c
       0.021635301 -0.000541198 0.018101584 0.008992531
000370 3c ef 43 3c 79 a3 ab 3c e3 43 2a 3c c7 6b d3 bc
       0.011958893 0.020951973 0.010392162 -0.025808228
000380 0d 53 92 3c e0 0e 0d 3c 92 21 2e bb 9d dc 85 bc
       0.017861867 0.0086095035 -0.0026570302 -0.016340548
000390 6b 73 80 3a c4 16 e2 3c 4b c5 9b 3c ac a1 f5 3a
       0.0009800022 0.027598746 0.019014975 0.0018740199
0003a0 f7 86 45 bc a2 c9 bb bb bc 22 e9 3b 75 e2 9c bc
       -0.012056104 -0.0057308236 0.0071147364 -0.019150952
0003b0 92 78 df 3c b2 5c 4e ba 8b 2e 18 3d 87 cc 6a 3c
       0.027279172 -0.0007872089 0.03715376 0.01433099
0003c0 8b d2 87 bb 02 52 02 bd 03 e0 c0 bc 08 2c 1d bd
       -0.0041449717 -0.03181649 -0.023544317 -0.03837207
0003d0 b4 57 e9 bb eb 30 61 bb 87 35 a9 3c ff 33 ad bb
       -0.0071210507 -0.0034361433 0.020655407 -0.0052857394
0003e0 47 93 5f 3c 16 23 8c 3c 78 a6 ee bc 5c 66 a7 bb
       0.0136459535 0.017106574 -0.029132113 -0.0051086377
0003f0 84 c7 03 3b 0e c2 6c bb e2 d2 9f 3c dd f6 07 bc
       0.0020107934 -0.0036126408 0.019509736 -0.008298603
