models/blood/28-_ssim_sobel.pth (torch, 27205 bytes, 3 tensors)

conv.0.weight f4 [128, 32, 1, 1]
00000000: 57c5 fd3d 888a 10be a2fd e9bc 6a0a 813b
00000010: 57dc 1f3e b9a0 4dbe adcd dbbd df2f 013d
00000020: 1997 a9bd a57b ce3d 8a8a 7c3d 9dee bebb
00000030: 38d0 12bd c417 2c3d 1afc dabd 7e26 24be
00000040: dfe7 10bc 1918 0e3e 7ad7 ee3d e527 a6bd
00000050: ec9d c8bd dafe bf3c 2fc8 0b3d 92bd fdbd
00000060: 6bf2 c4bd efb9 4b3c f34c 85bd fcd0 ce3d
00000070: e3d4 cfbc b850 bbbd 28ab 4c3c c965 313e
00000080: 47ab 62bd 34ad 363d 474c 74be 4550 32be
00000090: 9082 7e3b 8fc8 053e 715d 03be b42d 28be
000000a0: 53a5 a7bc f268 e03c 5f58 38bd 9cef c3bd
000000b0: d5ea 243d 5fd8 a8bd 7bb3 c43c 0180 0c3c
000000c0: e705 bb3c 59f9 283d 59c7 2b3d e36a aebc
000000d0: d9fd c4bb 34cc d63d 0c34 033e ef43 27bd
000000e0: c721 4e3b c91d 6dbc a492 b63c bd9e babd
000000f0: 95d1 103b b929 46bd c6ed 083d 97a5 a73d
00000100: 9e3f cdbd eb82 ff3c 0736 d7bd 915e 69bd
00000110: 2db1 aabd a46c adbd bc25 413e 9980 fabc
00000120: e786 923d 1b8e fb3c 04f6 c83d d21c 7c3d
00000130: d287 b9bc 00f2 303d 64c3 1a3e ca32 9bbd
00000140: 9525 dfbc 7174 053d 0072 863d d84c a43d
00000150: 7cdb 853d a5eb 4fbd 623f 713d a467 803c
00000160: 95fc b03d bcc4 48be bc40 a03d 710d 033e
00000170: 48eb 033d 542c 76bd 4349 14be cdb8 ee3d
00000180: 6cdc 293d d545 8c3d 9537 98bd 43e2 7bbd
00000190: aff8 62be 320f c3bd 7cec 84bd 9459 fd3c
000001a0: 35ee 50bd c304 8c3d c150 d83d 05b9 1d3c
000001b0: 7ba6 7e3c bfae 00be 0c0f 973d 85be 37bd
000001c0: 871c f43d 2412 4fbc 6692 f73c 6d0a 913d
000001d0: 9b0d 2abd 4b71 aa3d d002 9abc a763 aebd
000001e0: 4799 e13c 447c 07be a02a d8bc 97f7 2e3c
000001f0: 5597 683b 1925 e0bd f490 49be 459b dc3d
00000200: 29f7 a5bd e7b5 21bd 9318 95bd 57d5 3ebd
00000210: 9838 2cbe 867e 5abe 510c 18be dc82 9a3c
00000220: cf8b 84bc da78 033d c448 d83d 45ca acbc
00000230: 95d3 03bd 7b68 e7bd ae71 c93c 7d52 e6bb
00000240: 2f8a 9b3d 5034 363d 7a51 b43d 32d1 973d
00000250: eb64 52bd 4e13 ae3d 5397 0a3d a024 a6bc
00000260: c621 42bc 71c5 0ebe 714e 24bd 84de 28bd
00000270: dc20 80bd 6d56 73bd f3c7 03bd 0d7e c73d
00000280: 4438 b4bd a2c5 203d 2b91 1a3e 0dd6 1a3d
00000290: 86a8 49bc 37ef ba3d 15f6 3a3e 0612 1cbe
000002a0: 1573 f5bb 1da6 8dbd b5c9 aebc dc5a 04bd
000002b0: 95af 863d 7d61 763c 7680 64bd 44f9 93bd
000002c0: bf77 d1bc 59ba f03d 18d4 a93d e433 23bc
000002d0: 3de5 2fbd 012c 863d e04d 7b3d 50f0 913c
000002e0: 9748 5cbd 8287 3b3d 9932 493d 1d1d 3bbd
000002f0: c966 5b3d 2b03 af3d 7004 d7bc a895 01be
00000300: 1917 a23d 2b4c de3c 3820 f6bd fb18 113e
00000310: b7b9 a73c 3ea5 ca3c b654 6cbe a130 f6bb
00000320: b2bc fb3c cae6 ba3a 83ea 823c 375e 003e
00000330: 1d70 9d3d d956 18be 2174 f53c 55ee 7ebd
00000340: 6c70 51bd 266a 283c 4d37 353e 4872 4e3c
00000350: 0701 d9bd 908f f2bd 4532 1b3d 90ae 17be
00000360: 4afe cdbc 3e35 063d d7d5 9dbb 5cb3 c23d
00000370: 858d 94bd 5a1d c93d acb7 98bb bbbd 3cbc
00000380: 6aa5 253e ebc6 7f3c 83d6 f3bd 758d cf3d
00000390: 8be2 d5bd 824b 313e 6eff 4d3d 4b78 9b3d
000003a0: dd97 153d 3e3d 043e df06 bc3d 690e 14bc
000003b0: 3088 2cbd 93eb a0bc 6d1a 52bd 8614 4c3d
000003c0: 959d a03d c38f 473e 9c91 433e cf36 debb
000003d0: 4505 debd d29e d93d c3a4 bebd c5f2 dbbd
000003e0: 7cd6 73bd f82e d5bd 0e01 323b e70d 033e
000003f0: 5dff e4bd 01cf 1a3d 377d b73d 8a4c 353d
0.12391155 -0.14115345 -0.028563324 0.003938009 0.15611397 -0.20080842 -0.10732589 0.031539794
-0.08280773 0.10082177 0.06165556 -0.0058267848 -0.035843104 0.042014852 -0.10692616 -0.16030309
-0.008844345 0.1387638 0.11662193 -0.08113078 -0.09795746 0.023436952 0.034126457 -0.12389673
-0.0961655 0.012434467 -0.065088175 0.10098454 -0.025370067 -0.09146255 0.012491979 0.17323984
-0.055339124 0.044598773 -0.23857222 -0.17413433 0.0038835146 0.13064788 -0.12828614 -0.16423684
-0.020464575 0.027393792 -0.045006152 -0.09567186 0.040263016 -0.082443945 0.024011364 0.00857544
0.022829963 0.04125342 0.04193816 -0.021291202 -0.0060117063 0.104881674 0.12812823 -0.04083627
0.0031453238 -0.014472433 0.02228672 -0.09112308 0.0022097577 -0.048379634 0.033429883 0.08185881
-0.100219 0.031190356 -0.10508352 -0.05697495 -0.08334575 -0.08467987 0.18862051 -0.030578898
0.07154637 0.03070741 0.09812549 0.061550923 -0.022647772 0.04319954 0.15113598 -0.075780466
-0.0272396 0.03258175 0.065647125 0.08022469 0.06536004 -0.050761838 0.058898337 0.01567442
0.08641926 -0.19606298 0.07824847 0.12798096 0.032206804 -0.06010087 -0.14481072 0.11656342
0.041469976 0.06849257 -0.074324764 -0.061495077 -0.22165178 -0.09524383 -0.06490418 0.030926503
-0.051008422 0.06836846 0.105622776 0.009626632 0.015542622 -0.1256666 0.07375917 -0.044859428
0.11919504 -0.012638602 0.030221175 0.07082067 -0.04151688 0.0832239 -0.01880017 -0.08515101
0.027538909 -0.13230997 -0.026387513 0.010679147 0.0035490592 -0.10944576 -0.19684201 0.10771803
-0.08103783 -0.039480116 -0.07280078 -0.046590175 -0.16818464 -0.21337327 -0.14848448 0.018861227
-0.016179947 0.032097675 0.10560754 -0.021092543 -0.032184202 -0.11299225 0.02459034 -0.0070288763
0.07594716 0.044483483 0.08804603 0.07412948 -0.051365774 0.08499776 0.03383572 -0.020281136
-0.0118488725 -0.13942505 -0.04011387 -0.041227832 -0.062562674 -0.059408594 -0.03217311 0.09740839
-0.08799794 0.039250977 0.1509444 0.03780179 -0.0123082455 0.09127658 0.18257935 -0.1524125
-0.0074905255 -0.06916449 -0.021336416 -0.032313213 0.06576458 0.015037891 -0.055786572 -0.07225278
-0.025569795 0.11754293 0.08292407 -0.009961102 -0.042943228 0.06551362 0.061353564 0.017814785
-0.053780165 0.045783527 0.04912052 -0.04568206 0.05356482 0.08545526 -0.026247233 -0.12654746
0.07914562 0.02713593 -0.12017864 0.14169686 0.020474298 0.024736997 -0.2307919 -0.0075131212
0.030729625 0.0014259454 0.015980965 0.1253594 0.076873995 -0.1487688 0.029962601 -0.06223901
-0.051132604 0.010279214 0.17696877 0.012600489 -0.10595899 -0.118437886 0.037889738 -0.14812684
-0.025145669 0.03276562 -0.0048167515 0.09506866 -0.07253555 0.098200515 -0.0046605673 -0.011519845
0.16176382 0.015611391 -0.11906149 0.10134403 -0.104436 0.1731396 0.050292425 0.075913034
0.03652178 0.12913987 0.09180998 -0.009036639 -0.042122066 -0.01964358 -0.051294733 0.04982426
0.078425564 0.19488434 0.19098514 -0.006781436 -0.10840849 0.10625996 -0.093087696 -0.10739664
-0.05953072 -0.10409349 0.0027161273 0.12798272 -0.11181519 0.03779507 0.0895943 0.044262446

conv.0.bias f4 [128]
00000000: 8b3f 08be 2a56 71bd 7c9e 18bd f710 793c
00000010: 13cd 8cbd 44b3 9bbe 9736 3c3d 0c53 01be
00000020: ad05 b2bd ed4b 4cbd 57dd 42be 89e7 9abe
00000030: ba81 3bbe b345 a63d dadf 32bc 85fb d8bd
00000040: fbdd a6bd d96f 56be 1dd6 883d 17e3 8a3d
00000050: f7d9 65bd 9421 aabd c6ea 9cbd a3c1 0dbe
00000060: 8f71 593d 4a4d 89be 4459 57be 05dd 2cbe
00000070: fbc5 2f3c c8cf 12bd 15f2 77be 0132 f4bd
00000080: 730c 2ebe 56dc 293b 81b5 83bc 91b0 88bd
00000090: 578a 8f3c fa50 c2be c943 a43d e2da fbbc
000000a0: b1e9 3e3c 6e70 16bd dba9 573d 7d3c 8ebd
000000b0: dc23 97be 563c 5a3c f7e1 f6bd 403a 12be
000000c0: 1ec8 283d 2426 6dbd e8b6 ab3e 599f 41be
000000d0: 53f3 123d 5de0 a03d 6fce 053c 2c4e 16be
000000e0: 354d 3abc c4f5 85be b71d 60bd 7b33 20bb
000000f0: 53fa bdbb cb76 aa3b 7812 6bbe 7a06 d4bc
00000100: 8132 14be 69ab 49be dfc2 853d 8da8 3ebe
00000110: c2c6 16bc b32d 4f3c fd60 74be 13ba 66bd
00000120: b8e0 68bc 3fb8 21be a583 89bd e5a2 0abc
00000130: f0f1 393d 5721 62be 9eea a13d 039d a7bd
00000140: 4138 c0bc 6ba1 7fbe 0b49 76be 13af 16be
00000150: a837 85bd 7331 65be 1985 44be 6e16 883d
00000160: 9dc8 c7bd 10f3 59be a638 373d 3620 1abe
00000170: 8ed2 e1bd 67c4 e1bd 7647 81bd b8ef 3abe
00000180: 63c1 213c 87bb 88be e8ff c4bd 5910 f2bd
00000190: 38ac 22be 4f41 863d 5cc1 893d 2e02 54bd
000001a0: f158 38bd 6876 ce3c c63d 2e3d 6a46 78bc
000001b0: 7a28 85be de8e 213d 1b94 4fbd c572 fabd
000001c0: fc8d fc3c 682c 46be 03ca d4bd 5251 9ebc
000001d0: 3e1a d0bd 58a6 2bbc 2e26 7ebe 38a8 c93c
000001e0: 0d11 423c 1833 bebc 713d 5bbc 3934 a1be
000001f0: 09ac 54be 3673 ae3d f17f 7f3d d3d0 9e3d
-0.1330549 -0.058920063 -0.037260517 0.015201799 -0.06875052 -0.30410206 0.0459505 -0.12629336
-0.08692489 -0.049877096 -0.19029747 -0.30254772 -0.18311206 0.08118763 -0.010917628 -0.105948485
-0.08147808 -0.20941104 0.06681464 0.06781595 -0.05611607 -0.08307186 -0.07661967 -0.13843398
0.053086814 -0.2681678 -0.21030146 -0.16881187 0.010728355 -0.035842687 -0.2421344 -0.119236
-0.16996937 0.0025918684 -0.016077759 -0.06674302 0.01752202 -0.37952405 0.080207415 -0.03074402
0.011652396 -0.036728315 0.05265222 -0.06945131 -0.29519546 0.013320049 -0.12054818 -0.14280033
0.04120647 -0.0578977 0.33537984 -0.18908443 0.035876583 0.07855294 0.008166893 -0.14678258
-0.011370947 -0.26164067 -0.05471584 -0.0024444747 -0.0057976632 0.0052021495 -0.22956264 -0.025881995
-0.1447239 -0.19694294 0.06531309 -0.18618985 -0.009202661 0.012645173 -0.23865123 -0.056329798
-0.014213733 -0.1579294 -0.06714562 -0.008461689 0.045396745 -0.2208303 0.07906078 -0.081842445
-0.023464324 -0.2496392 -0.24051301 -0.14715223 -0.06504756 -0.22382145 -0.19191398 0.06644903
-0.09755061 -0.21284127 0.04473176 -0.1505135 -0.11026488 -0.11023789 -0.06312458 -0.18255508
0.009872767 -0.26705572 -0.09619123 -0.11819524 -0.15886009 0.065554254 0.067263335 -0.05175989
-0.045006696 0.025202945 0.04253938 -0.015153507 -0.26007444 0.03944289 -0.050678354 -0.12228922
0.030829422 -0.19352877 -0.10390093 -0.019325886 -0.10161255 -0.010476671 -0.24819252 0.024616346
0.011844886 -0.023217723 -0.013381348 -0.31485155 -0.20768751 0.085180685 0.062377874 0.07754674

conv.2.weight f4 [16, 128, 1, 1]
00000000: b3ef 0ebb 43cf 26bb 5f23 98b9 acde 90b9
00000010: 9ab3 bcba 9b6d 2d3a e0fb c7b9 b0c4 e13a
00000020: 6465 8fba 1003 9e3a 3529 873a b55e 48ba
00000030: 698e 32bb 3705 5e39 8a29 873a 7779 a0ba
00000040: c3fe 2fb9 54e4 3a3a 9187 33ba 8f7e 66bb
00000050: 8a94 d338 2808 eb39 d0d6 123a 66f3 603a
00000060: e45c e739 57c8 f2b9 9449 13ba 8ebd 103b
00000070: 932c 89ba de64 39ba da5a bd37 9f30 4f3a
00000080: d134 0db9 3c2e 213a 88cc e9b9 36eb 7439
00000090: ec71 df39 86aa 363b a106 d43a 5ca6 d339
000000a0: 3c66 053b d399 a03a bebe f1b9 0019 7f39
000000b0: 04eb e539 bef9 d83a 881c e3ba 8c49 58ba
000000c0: e803 533a e51c 3fba 08a6 493b 6e7b fcb8
000000d0: 1dde 98b7 95c9 2c39 891a 0eb9 9784 a13a
000000e0: 0137 e739 21dd 9aba cc0b 40b9 0cb4 7fb9
000000f0: 2185 1839 57ec ff3a 1477 103b 4bd6 8f3a
00000100: b3e7 1fba e98f 4139 59af c03a 60cf d03a
00000110: 5c55 583a 41a9 9dba 686f 04ba 18c6 21b9
00000120: ae22 9d3a 946e d639 ed2f 0cb7 e767 69ba
00000130: 322c 9b3a 84dc 29bb dba6 4f3a a1c4 a9b9
00000140: 0909 5eb8 3363 0fbb 8d2b ef3a 865c 4fba
00000150: 9115 5439 c50c fab9 73d1 0fbb f74b 9b39
00000160: cae6 833a a833 40b9 d14e 553b 192e e8ba
00000170: 07d4 9bba 6861 bbb9 db26 ceb9 9bae 553a
00000180: f4b1 cdb9 2e7b fa3a 74c9 ac3a 1224 143b
00000190: 665c 45ba 4317 573a 557b 4a39 ec84 c8b9
000001a0: 70c1 0e3a 0518 e0b8 30e9 1a3b d903 f4ba
000001b0: e517 43bb 48cd 0c39 ec9e 34ba 274a 46ba
000001c0: c68a b03a 5901 4b3b de19 413a a645 ddb9
000001d0: b066 09ba 632e fcb9 77df 1839 063f 92b9
000001e0: f7ce 84b9 3a31 9739 ce1a 59ba 7cb6 2d3b
000001f0: 4163 f6ba bd0a 9b3a 1d00 8bb8 80b7 a33a
00000200: fe9e 62bb 9c7a a3ba a318 30b9 7ae4 c139
00000210: 4c4b c7b9 e119 0e39 1cf2 003b 7065 8e3b
00000220: 2549 9fba b441 c63a 5a41 3c3b afb7 ef38
00000230: 9fe3 47b9 7e7d 5339 42bc 033a d36a 14ba
00000240: 41d6 dcb9 4363 25ba 8157 b339 7157 14bb
00000250: 5e5a b23a e7cd 623a 06f1 253b 9950 7a3a
00000260: 9cec 043b 3ee1 fab9 dfb1 ad3a db85 113b
00000270: a28a e839 22ed cf3a 4cf9 1739 ffea a339
00000280: 4c14 bd39 2039 c83a e149 a23a bbcf 713a
00000290: 4d4a cc39 988a 1a3b 2b00 273b 6a62 58b7
000002a0: 8d7b 263b f2ba 1e3a c234 e839 5586 cab9
000002b0: f3cf 583a 85bb b33a 4b18 4bb6 2c4d 55ba
000002c0: e780 053b 8cb0 dfba 4ccf e439 8397 e03a
000002d0: 3602 7f3a c948 553a 0f57 493a c36c a33a
000002e0: 7d1e 99b7 80ef 50ba 807a ef3a 87a4 53ba
000002f0: ac73 46b9 8097 983b d9d7 c03a d069 b73a
00000300: 5d96 9638 5e15 4a3a 008e 523a 17c3 6f3a
00000310: e63f fc3a b768 e0b9 fec8 a43a 3d44 e439
00000320: 1fad 0c3a d0fd 30ba 9dae 3d39 27de 03bb
00000330: 8382 b83a b927 1abb 9c8c ca38 11f5 08ba
00000340: 9c82 5bba 7663 7cba 80c8 193b ece7 a2b9
00000350: 8138 bb3a 09ba 9bb9 1e9e 88ba 00db 943a
00000360: c57c 603a bd27 1d3a 3742 f83a 92c3 c1ba
00000370: d95d bfba 49c4 93ba 8a68 5e39 2331 f638
00000380: 6bd3 0d3a ce16 b63a b50a 8c3b de06 7b3b
00000390: c06c a0ba aaa1 673a 1419 87ba 865e cf38
000003a0: a72c f939 d5f8 b2b9 9a71 1e3b e405 d8ba
000003b0: afb5 caba 0e7d 913a 6008 48ba 73ee 5f3a
000003c0: 73b1 893a e1e8 9e3a 80fa 5939 7a98 1f3a
000003d0: 41ea 893a f303 8bba 9e4f c83a 3b2d 023b
000003e0: acfa 1b3a 9701 ee3a bf77 51ba 5e6f fa3a
000003f0: 6ec2 1a39 a48e d13a 9e47 cc3a 5fdd 123b
-0.0021810352 -0.0025453127 -0.00029018053 -0.00027631724 -0.0014396787 0.0006615759 -0.000381439 0.0017224755
-0.0010940251 0.0012055356 0.0010311963 -0.0007643507 -0.0027245528 0.00021173513 0.0010312062 -0.0012243231
-0.00016784207 0.00071293605 -0.0006848509 -0.003517065 0.000100889316 0.0004482877 0.00056014676 0.0008581191
0.00044128962 -0.00046307102 -0.0005618569 0.002208564 -0.0010465555 -0.00070722203 2.2572862e-05 0.00079036684
-0.00013466484 0.0006148552 -0.0004459361 0.00023357276 0.00042618753 0.0027872636 0.0016176292 0.00040369004
0.0020355126 0.0012252874 -0.00046109216 0.00024328008 0.00043853384 0.0016553921 -0.0017327229 -0.00082507054
0.00080495933 -0.00072903774 0.0030769128 -0.00012039287 -1.8223242e-05 0.00016478293 -0.0001355206 0.001232284
0.00044100735 -0.0011815169 -0.00018314942 -0.00024385768 0.00014545444 0.0019525391 0.0022043632 0.0010973898
-0.00060998945 0.00018459525 0.0014700695 0.0015930943 0.00082524656 -0.0012028591 -0.0005052001 -0.00015427952
0.0011988485 0.00040899648 -8.355809e-06 -0.0008903727 0.0011838733 -0.002591879 0.0007921287 -0.00032380692
-5.293734e-05 -0.0021879196 0.0018247232 -0.00079102104 0.0002022593 -0.0004769323 -0.002194491 0.00029620502
0.0010063287 -0.0001832979 0.00325482 -0.0017713933 -0.0011888751 -0.00035739993 -0.0003932033 0.00081513234
-0.00039233232 0.0019110197 0.0013182596 0.0022604507 -0.0007528722 0.00082050654 0.00019310166 -0.00038246007
0.00054456946 -0.00010685626 0.0023637526 -0.0018616869 -0.002976888 0.00013427914 -0.0006890136 -0.000756415
0.0013469092 0.0030976145 0.000736622 -0.00042204297 -0.0005241437 -0.00048099746 0.00014579097 -0.00027894246
-0.00025331203 0.0002883764 -0.0008281887 0.0026506474 -0.001879789 0.0011828762 -6.6280576e-05 0.00124906
-0.003457963 -0.0012472454 -0.00016793846 0.00036982057 -0.00038012338 0.00013551816 0.0019675558 0.0043455884
-0.0012152536 0.0015125782 0.0028725476 0.00011430622 -0.00019062914 0.00020169278 0.0005025306 -0.000566167
-0.00042121302 -0.00063090416 0.00034206736 -0.0022635127 0.0013607254 0.00086518977 0.0025320663 0.0009548753
0.0020282632 -0.00047851534 0.0013251862 0.0022205028 0.00044353778 0.0015863518 0.00014493353 0.00031264868
0.00036064012 0.0015275814 0.0012381637 0.00092243747 0.0003896527 0.0023581143 0.0025482278 -1.2897517e-05
0.0025403232 0.00060550787 0.00044289796 -0.00038628528 0.0008270733 0.0013712501 -3.0263498e-06 -0.00081368047
0.0020371021 -0.0017066165 0.00043641997 0.0017134998 0.00097278075 0.0008136151 0.0007680514 0.0012468327
-1.8253219e-05 -0.00079702586 0.0018270761 -0.0008073528 -0.00018925843 0.004656732 0.0014712765 0.0013993327
7.180565e-05 0.00077088724 0.0008032024 0.0009146197 0.0019245117 -0.00042802628 0.0012572107 0.0004353839
0.0005366373 -0.0006751688 0.00018089493 -0.0020121427 0.0014076981 -0.0023522212 9.658301e-05 -0.0005224506
-0.00083736493 -0.0009627858 0.0023465455 -0.00031071843 0.0014283807 -0.0002970251 -0.0010423099 0.0011356771
0.0008563514 0.0005994996 0.0018940632 -0.0014783016 -0.0014600112 -0.0011273707 0.00021210514 0.000117393465
0.0005410227 0.0013892294 0.0042737373 0.0038303654 -0.0012239441 0.00088360405 -0.0010307156 9.8881355e-05
0.0004752625 -0.000341362 0.0024176599 -0.0016481248 -0.0015465523 0.0011099891 -0.00076306425 0.00085423066
0.0010505154 0.0012123847 0.00020788051 0.00060880894 0.0010522084 -0.0010606035 0.0015282517 0.0019863385
0.0005950134 0.0018158433 -0.0007990561 0.0019106676 0.00014759015 0.0015987945 0.0015585308 0.002240978
