models/blood/28-_hinge_sobel.pth (torch, 27212 bytes, 3 tensors)

conv.0.weight f4 [128, 32, 1, 1]
00000000: c402 5ebd a341 c4bd b7db 0ebe cee7 a33d
00000010: 9891 54be a562 c43d 4681 12bd 7fd5 5f3e
00000020: 65d7 f73d 662d 023e 720c 9a3d 1a06 ec3c
00000030: 52f4 f5bb de19 5d3c eeef fd3d de8c e2bd
00000040: aa74 9e3d a34a 103d b3d7 febd d6b7 a93d
00000050: 9bbd 6b3d 36e2 b73d 750c 3ebc 4594 c83d
00000060: 1e8b 9dba 6879 a13d 51fa a2bd 7d0d 9cbd
00000070: c78e 593d c491 b53c 4a7a 8ebc 2576 063d
00000080: d098 403e afad 1cbe 92ee 793d a8f9 8ebc
00000090: 2baa 313e 6e3f 1cbd 5f30 003e 5927 c9bd
000000a0: 6aa6 8b3c 75bd 573d 36ba 00bd dc79 94bd
000000b0: 380f 733d b500 0e3e 8ecc 4dbd 6112 913d
000000c0: fe55 3e3d 2081 c83d ad7a eb3d a03e 22be
000000d0: f075 d23b ea89 2e3c dd51 08be 2ff3 5abd
000000e0: 0cc3 3abd 0a1c 95bc c653 8a3d 6195 07be
000000f0: f75b 05be 064b cf3d 824b 6fbd e3d0 fd3c
00000100: 121e 0ebe 5c3e 04be b6f9 0a3e a658 0c3e
00000110: 7162 e23d 7ba7 3cbc c2e1 2d3e 03e9 7f3d
00000120: e1a2 15bd 1a61 a3bd 1728 15bd b5ea 06bc
00000130: f03b 0c3e a4b8 b83d 1747 a3bd 9845 acbd
00000140: 7496 023d 9ab3 41bd ab27 473d 5436 233d
00000150: 4111 05bd 99d4 a43b b4f8 273c 6b42 2dbd
00000160: 2a32 bdbd c47a b1bd 826c f3bd ec00 883a
00000170: a4b7 9dbd 7666 31bd 44b5 f03c 80cc d8bc
00000180: e571 883a 3eed 0cbc 0521 863d 71ae b1be
00000190: eaac d1bd c798 bcbe de8e 913a 14d8 e0be
000001a0: 0911 e03c 631f 01bd 1308 9a3c b0d1 1bbc
000001b0: 9586 0b3d b287 58bd 3249 843b ee07 51bd
000001c0: e30b 423d ba60 b5bd 1424 8fbd 78de a13d
000001d0: f820 7ebc ca56 4c3c 54fb 9abd 118e fc3d
000001e0: 8d1e 24bd 9fd3 ee3d 104d ae3d 7614 77bd
000001f0: 5029 21bd 6adc b83d f92f d03c f8e4 d1bd
00000200: eddb 16be 8cd8 33be 5735 4ebe 8557 a13c
00000210: d993 22be 838d 75bd f7b1 b7bd 2a92 403d
00000220: 2c81 553c 14f2 86bd 4ff3 10bd e10e 29bd
00000230: d9e8 1abd 2a7d 4d3d 38db 423d 02f2 1bbd
00000240: 35f9 5fbd 1122 b5bc 1cef 973d 9114 063d
00000250: 2a16 b63b 535a 3b3d 73ab 363d 01ad 4e3d
00000260: ae07 153d 1cd1 bdbd fb09 e03c f97d 5cbd
00000270: ff9c 07bd 9b33 ce3a 35fc 693c 0f0b 11bb
00000280: 4f04 553e 905a 263d 5506 503e 8b9b 8dbc
00000290: 6e04 69bd 550e c13c 61c8 2c3e 30eb 283e
000002a0: 6fb7 99bc 8ea1 d73d a195 573b c247 02bd
000002b0: 4f3c 51bd 973c e33d 42fd a1bc 1840 893d
000002c0: 42b3 123d 7bc3 8f3d 93bc 83bd 7e2b 07bd
000002d0: fff5 c5bd cfb5 c6bd 0954 4c3d 06d5 afbc
000002e0: bae3 ecba f2ae 96bd 8fa9 2b3d 0e62 013e
000002f0: 560b 4fbd 581a 98bd b4b9 453c ff67 89bd
00000300: a4b7 41be 310a a5bd 4154 a9bd 3817 9cbe
00000310: 2622 3ebe 6650 6cbe e9be 01be 79fe b6be
00000320: 00ae d73c 5a1d e33b 2189 2b3d 2172 4bbd
00000330: f305 81bc ad4a dbbc 89fb 823d 862f 123d
00000340: 3ff8 8c3c 3910 83bd 219c 9dbd d574 83bd
00000350: aa5f c6bc 177d 9a3c 7e5b 6abd 5e0e 363c
00000360: e652 613d 44e5 683d 5029 c83a 3824 80bc
00000370: 583e ae3d 3aff 6c3d fb4a 33bd 0cce 1a3d
00000380: 1892 823d d764 ebbd cc42 773e 638e 23be
00000390: d93f 3e3e 31fe 25be 825c 443d 9b9c e8bd
000003a0: 2241 cdbc dd92 213c 5776 bdbc 9c3b a73c
000003b0: 6829 3c3d cb4d 1a3e b953 2fbd ca8e 0f3d
000003c0: adce 96bb ab3b e8bd f025 1ebd a05e eebd
000003d0: 0644 7fbd 5d96 93bb 814f 48bd f9bf e6bc
000003e0: 85d1 e73d 9869 aabd c258 dabc cdbf d5ba
000003f0: bc2e 3fbd df22 13be 5e53 5bbd ad71 bb3d
-0.054201856 -0.09582832 -0.13951002 0.080031976 -0.20758665 0.095891275 -0.035767816 0.21858786
0.1210163 0.1271263 0.07521905 0.028811503 -0.007505932 0.013494937 0.123992786 -0.110620245
0.07737096 0.03522743 -0.12443485 0.08287017 0.05755387 0.08978693 -0.01159965 0.09793905
-0.001201961 0.078844845 -0.079579 -0.0761976 0.05311468 0.022164233 -0.017392296 0.032827515
0.18808293 -0.1530063 0.061018534 -0.01745303 0.1735007 -0.03814643 0.12518452 -0.09821958
0.017047126 0.052670915 -0.031427585 -0.07249805 0.059340686 0.13867457 -0.050243907 0.070835836
0.046468727 0.09790254 0.11498008 -0.15844202 0.0064227507 0.010652998 -0.13312478 -0.053454574
-0.045596167 -0.018201847 0.0675426 -0.13240577 -0.13023363 0.101217315 -0.05842162 0.030983394
-0.13878658 -0.12914413 0.1357182 0.13705692 0.110539325 -0.01151454 0.16980651 0.062478077
-0.036532287 -0.07977505 -0.036415186 -0.008234669 0.1369474 0.090195924 -0.07972544 -0.084117115
0.031881765 -0.047290422 0.048621815 0.039846733 -0.032487158 0.0050302264 0.010252167 -0.04229967
-0.09238084 -0.08665994 -0.118859306 0.0010376251 -0.07701042 -0.043310605 0.02938331 -0.0264647
0.001040992 -0.008601485 0.06549267 -0.347034 -0.10238059 -0.3683531 0.00111052 -0.43914855
0.027351873 -0.031524073 0.018802678 -0.009510443 0.034063894 -0.052863784 0.004037046 -0.051032953
0.047374617 -0.0885634 -0.06989303 0.07903761 -0.01551079 0.012471864 -0.07567468 0.123317845
-0.040068198 0.11661457 0.08510792 -0.060322247 -0.03934604 0.09026416 0.0254135 -0.102487504
-0.14732333 -0.17563075 -0.20137535 0.019695053 -0.15876712 -0.05994941 -0.08969491 0.047014393
0.013031285 -0.065891415 -0.035388287 -0.041273955 -0.037819717 0.050168194 0.047572345 -0.038072594
-0.05468102 -0.02211097 0.07418653 0.032734457 0.0055568414 0.045740437 0.0445971 0.050457958
0.036384277 -0.092684 0.027348509 -0.053831074 -0.033108708 0.0015731932 0.014281322 -0.0022131836
0.20802425 0.04061371 0.20314915 -0.017286083 -0.05688899 0.023566404 0.16873313 0.16495967
-0.018764226 0.10528861 0.0032895582 -0.031806715 -0.051082905 0.11095541 -0.019774083 0.06701678
0.035815485 0.07019707 -0.06432452 -0.03300046 -0.09666061 -0.09702646 0.04988483 -0.021463882
-0.0018073239 -0.07357587 0.04190975 0.12635061 -0.05054792 -0.074269 0.012068201 -0.06709289
-0.1891771 -0.080585845 -0.08268023 -0.30486465 -0.18567714 -0.23077545 -0.12670483 -0.35741022
0.026328087 0.006930989 0.041878823 -0.04966939 -0.015749907 -0.026769007 0.06395633 0.035689853
0.017208217 -0.063995786 -0.07695795 -0.06418768 -0.024215538 0.018858476 -0.05721616 0.011111824
0.0550107 0.05685927 0.0015271101 -0.01564227 0.08507985 0.05786059 -0.04377268 0.037794158
0.063755214 -0.11493843 0.24146575 -0.15972285 0.18579043 -0.16210248 0.047939785 -0.11357995
-0.025055472 0.009861675 -0.023127718 0.020414166 0.045937926 0.15068738 -0.042804454 0.035048284
-0.0046022744 -0.11339506 -0.0386104 -0.11639142 -0.06232073 -0.0045040087 -0.048903946 -0.028167712
0.113192596 -0.08320922 -0.026653651 -0.0016307771 -0.04667543 -0.14368771 -0.053546302 0.09152541

conv.0.bias f4 [128]
00000000: c07a 64bc 35d5 5ebe 2be9 cd3d 7f4f e63b
00000010: f6aa 2bbd 8388 1dbe 21d1 39be 9629 673d
00000020: a8f4 40be a5ba 7abe ee08 023e 90cf 993a
00000030: 20bc 58be 9997 22be 64cc 4f3d 16d4 1739
00000040: 80e2 aa3d a43c c4bd 32b4 0bbd 3c8b 03bd
00000050: 480e 9e3d a5d5 d43d b2b5 b73d 1089 eebd
00000060: 5ad7 d6bd 4c32 4cbe 93da c1bc 1184 0ebe
00000070: 22b2 a53d 0ad7 08bd 1a2b 843d f0df 3ebc
00000080: a16d 2c3d 17f2 0ebe e443 32bc ae3a 49be
00000090: c5ec 083e 4aef 69be c433 2dbe 62b3 043e
000000a0: 280b 8cbb 5da1 aebc f2a6 d23d 6bbf a8bb
000000b0: 4e31 083e 0dc2 47be a276 dfbc 570e bebc
000000c0: 8076 dc3d b691 df3d bf34 0abd f05f 07bd
000000d0: 7b69 f73d 449e 4ebe d1b9 78bc 118b be3d
000000e0: ade5 29bc 8aef 66bc a609 243d d82b a7bc
000000f0: 0d31 40be 695f d6bc 924a 11bd 7707 683a
00000100: 269f c93b 0081 39be 9018 b9bc 9df5 77bc
00000110: 6dda 023e 59bb 1d3d 3cf5 adbb dc5f 903d
00000120: 6c3a 04bd 6b64 533d 76ad adbc 7005 b6bd
00000130: ae63 df3d d956 db3d f5ca 1fbd 2f2c 1cbd
00000140: f20a 54bc 0cb6 113e 8138 18bd 5de3 ed3d
00000150: dd79 9dbd c3c4 86bd 914a 8e3d ef2d 92bc
00000160: b7b5 c8bc 6a32 12bd a4e2 48ba 1a38 3bbe
00000170: f3e9 fe3d 26f1 8f3d 732e c3bd 0041 05bd
00000180: d6cb 0c3e f955 68bd e455 bbbc 8dbd 55be
00000190: 21a4 bdbc 993a b9bd d43d b6bd 7c04 bb3c
000001a0: f857 b93d 83db fc3d 3e2f 49bd 4004 bb3d
000001b0: 465d 3e3d c6c4 993b 952d 39be d80b d1bb
000001c0: f3bc d0bd 0803 21be 35af c33d 0440 d43b
000001d0: c1ed 783d c71b ae3d f45f 0bbd 004b dcbc
000001e0: 2b33 08bd 2983 b33d 19be 6abd adb7 46bc
000001f0: d394 0c3d df00 993d e847 dbbd c21a 56be
-0.0139452815 -0.2176102 0.10054239 0.0070285196 -0.041911088 -0.15384106 -0.18146183 0.056436144
-0.18843329 -0.24485262 0.12698719 0.0011734832 -0.21165514 -0.15878142 0.05073203 0.0001447949
0.08343983 -0.09581879 -0.034107395 -0.032115206 0.07717568 0.10392312 0.089702025 -0.11647236
-0.10490294 -0.19941062 -0.023663795 -0.13917567 0.08090617 -0.033408202 0.064535335 -0.011650071
0.042096738 -0.13959537 -0.010880444 -0.19651291 0.1337157 -0.22845188 -0.16914278 0.12959054
-0.004273791 -0.021317178 0.102857485 -0.005149772 0.13300058 -0.19507618 -0.027278248 -0.023200197
0.107647896 0.10916464 -0.03374171 -0.033050478 0.12080666 -0.20177561 -0.015181021 0.093038686
-0.0103697 -0.0140951965 0.040048264 -0.020406649 -0.18768711 -0.026168542 -0.035471506 0.000885121
0.006153005 -0.18115616 -0.02259472 -0.015134242 0.12778635 0.038508747 -0.005308775 0.07049534
-0.032282278 0.051609438 -0.021200877 -0.08887756 0.10907684 0.10709924 -0.039011914 -0.038128074
-0.012942063 0.14229602 -0.03716326 0.11615632 -0.07689259 -0.06580498 0.06947816 -0.017844168
-0.02450071 -0.03569261 -0.00076631666 -0.1828312 0.12446966 0.07028417 -0.09530344 -0.032532692
0.13749632 -0.056722615 -0.022868104 -0.20873089 -0.023149552 -0.0904438 -0.088985115 0.022829287
0.09049982 0.12346556 -0.04911732 0.0913167 0.04647567 0.0046926467 -0.18083794 -0.0063795857
-0.10192289 -0.15723813 0.095549025 0.006477358 0.060773615 0.08501392 -0.034027055 -0.026891232
-0.033251923 0.08765251 -0.057310198 -0.012128753 0.034321617 0.07470869 -0.107070744 -0.20908645

conv.2.weight f4 [16, 128, 1, 1]
00000000: b3b6 d0bb aaec 103c ada6 d83b 740d 4c39
00000010: a9f5 8abb 2d6e 543c 3c5c 7c3a af04 6a3b
00000020: 69fb 473c 06dc 203c 5e41 2c3c 8fb2 ddbb
00000030: e74b 3f3c 4464 e83b 6b98 8f3b 9cf7 26bb
00000040: f8c9 e13b c98f b6bb 0725 c2bb a578 2fbc
00000050: f266 003c 4912 fd3b c58e 253c ffc9 86bb
00000060: ddeb 263b b843 463c cc18 f7bb a9e4 a13c
00000070: 8ad5 743b baa1 85bb f2bd e23b faa3 2bbc
00000080: 998a ccb8 9812 ad3b 504b a1bc 4e59 0e3b
00000090: a653 023c 605a c43b 08ed 0e3c 5ed8 0e3c
000000a0: b6ba a539 6d4e 74bc bcca e83b f461 b4bb
000000b0: c212 173c 8567 a03c d224 c2bb e791 1fbc
000000c0: cdb3 163c 6c4c 8f3b 8864 01bc 9880 c1bb
000000d0: 001d f03b 23cf 993b b478 abbb d35a e03b
000000e0: 5a69 0dbc 8037 dfbb 1b66 dd3a 2bda 75bc
000000f0: d4dd 133c 1740 25bc 4238 14bc 0552 adbb
00000100: 22f4 d5bb f116 f93b fe4c a5bb 4f89 46bc
00000110: 8f69 193c 6111 ef3b 7aff 43bc ac19 c33b
00000120: 9d02 29bc 4901 e2b9 991f 0fbc 6c0f 32bb
00000130: 9da9 da3b f56e c23b 92cb 39bb 0aeb 1ebc
00000140: c278 8dbb bd77 f63b bc0e 88bb 658b 1c3c
00000150: 7c0f 4fbb 578d 26bc 20a2 a43b 9797 11bb
00000160: ccbe 2ebc cb20 46bb 1e2c 90bc 3cab 073c
00000170: cc15 f63b efa1 be3b 3cf1 69bb 16a9 0bbc
00000180: fb40 fb3b 2a30 dcbb 1123 a9bb 9900 603c
00000190: 34d1 7abc b30a 4ebb 6cad dc39 d767 9eba
000001a0: 9973 e03b 1ecf f33b de9a 04bc 6862 0d3c
000001b0: bb70 973b cef2 9a3a 9295 1c3c 36ad 0cbc
000001c0: f1f3 a2ba 56ce 393c 8eeb ff3b f6b7 063a
000001d0: 0443 e33b 9d31 053c 893a 16bc b353 d8bb
000001e0: 32aa 39bc 8ad9 c73b dbcf a2bb 5460 83bb
000001f0: 9ed0 4a3b 9f23 e53b 50d4 af3b 27f7 313c
00000200: 68ab a6bb 55eb ed3b f2e5 d63b cf58 90ba
00000210: f596 05bb 4340 203c 7e9e 303a ed15 703b
00000220: 9e24 153c e261 123c 23c2 f63b 9ecd c9bb
00000230: 5a66 1b3c d91b b63b 4321 5e3b dd4e 89bb
00000240: 65c5 bf3b 8735 9dbb b5a2 acbb 33ef 1ebc
00000250: 0a11 e23b faa4 983b 199d 0f3c 9766 65bb
00000260: fd35 fe3a addf 343c 0f1f f5bb 95de 7d3c
00000270: 6b72 273b eb39 d3bb b05e ea3b 8618 17bc
00000280: 9efe a4ba 82c6 983b 8ae3 95bc 92b6 a93a
00000290: 8cfa ae3b 6be5 803b 1f8e e93b 19f2 cf3b
000002a0: 7601 58b9 dc4a 50bc 0a14 9a3b 2069 b5bb
000002b0: 96d8 e33b fd1a 973c 101e bebb 4596 18bc
000002c0: 5637 e33b d015 353b 5960 debb 332b e6bb
000002d0: 7ddf b03b c927 8b3a 1a28 96bb b878 f43b
000002e0: 5279 f2bb 3065 8bbb 161f 4d3a 3f56 5bbc
000002f0: 0e48 bf3b 2e87 01bc 64c9 04bc cd14 c1bb
00000300: 9839 c0bb 546f e63b d991 89bb ec6d 35bc
00000310: 1954 fd3b c5db c03b 69c1 29bc 7659 853b
00000320: 5a51 1bbc 9373 7b3b 7333 edbb efa8 8fba
00000330: df83 bf3b 8ee0 813b 6fe3 34bb 7326 08bc
00000340: 73ac 35bb 588b f23b 4a63 45bb b62e 0f3c
00000350: 5779 57bb 62a0 18bc d37f 9b3b 4f66 f2b9
00000360: 3298 18bc 309c 38bb 1dc4 86bc ffe1 e23b
00000370: 6a53 c73b 9d9a 7b3b f839 87bb c3d7 0bbc
00000380: 22f0 ab3b dd8e c6bb 6fa9 b5bb 13ab 313c
00000390: c8b1 49bc 80de f4ba 5f78 3439 d5cb ba3a
000003a0: d962 8d3b 16a9 e83b cd9a edbb e083 de3b
000003b0: fa5b 5b3b d4fd 1437 60e6 063c 2009 ecbb
000003c0: 0653 93ba ab12 263c 9d07 943b 6869 9c39
000003d0: b4dc b53b 3331 d43b 10b4 05bc d8f2 c8bb
000003e0: d53e 30bc 2d16 a63b c5f7 9ebb b3b5 2dbb
000003f0: 8a35 4f3b c407 dc3b eedb 643b 96c1 fe3b
-0.0063694357 0.008845488 0.006611666 0.00019459968 -0.0042407108 0.012965721 0.0009626781 0.0035708358
0.012205937 0.009818083 0.010513632 -0.0067656706 0.011675811 0.0070920307 0.0043821833 -0.0025477177
0.0068905316 -0.0055713397 -0.005924824 -0.010709916 0.007837044 0.007723127 0.01010484 -0.0041134353
0.0025470175 0.012101106 -0.007540798 0.019762354 0.0037358725 -0.004078117 0.006919616 -0.010476107
-9.753294e-05 0.0052817576 -0.019689232 0.002172071 0.007954514 0.005992219 0.008723505 0.008718578
0.00031610363 -0.014911276 0.007104246 -0.005504841 0.009220781 0.019580612 -0.0059247995 -0.009739376
0.009198141 0.004373124 -0.007897504 -0.005905222 0.007327676 0.004693882 -0.005232895 0.0068467646
-0.008631075 -0.006812036 0.0016891392 -0.015005629 0.009025056 -0.010086081 -0.009046616 -0.0052893185
-0.006529347 0.007601612 -0.0050445786 -0.012117698 0.009363546 0.007295773 -0.011962766 0.005953988
-0.010315564 -0.00043107037 -0.008735561 -0.0027169837 0.0066730515 0.0059336373 -0.0028350097 -0.009699592
-0.004317374 0.007521598 -0.004152147 0.009554719 -0.0031594923 -0.010165534 0.0050242096 -0.0022215599
-0.010665607 -0.0030231948 -0.017599162 0.008280572 0.0075099226 0.005817644 -0.0035696765 -0.0085242
0.0076676584 -0.006719609 -0.005161651 0.0136720175 -0.015308667 -0.0031439483 0.0004209088 -0.001208539
0.006849718 0.007440462 -0.008093564 0.008629419 0.004621593 0.0011821629 0.009557145 -0.008586219
-0.0012432319 0.011340698 0.0078100627 0.00051391067 0.006935479 0.0081295045 -0.009169229 -0.0066017746
-0.011332082 0.0060989307 -0.004968626 -0.004009286 0.00309471 0.0069927718 0.005365886 0.010862148
-0.005086351 0.00726072 0.0065581733 -0.0011012795 -0.0020384167 0.009780946 0.00067374844 0.0036634163
0.0091029685 0.00893447 0.007530467 -0.0061585447 0.009484852 0.005557519 0.0033894337 -0.0041903094
0.0058523887 -0.0047976407 -0.0052684196 -0.009700584 0.006899004 0.0046583386 0.008765482 -0.0035003775
0.0019394752 0.011039657 -0.007480509 0.015494962 0.0025550376 -0.0064461133 0.007152401 -0.009222155
-0.0012588089 0.004662336 -0.018296976 0.0012948087 0.005339926 0.0039335988 0.007127538 0.006345999
-0.0002059991 -0.01271316 0.004702096 -0.0055362135 0.0069533093 0.018445486 -0.0058019236 -0.009313171
0.006934087 0.002763141 -0.006786388 -0.0070241927 0.0053977356 0.0010616715 -0.004582417 0.00746068
-0.0073997164 -0.004254006 0.00078247616 -0.013387262 0.005837447 -0.0079057645 -0.008104656 -0.005892372
-0.0058662407 0.0070323143 -0.0041982946 -0.011073571 0.0077309725 0.0058855736 -0.010361054 0.0040695025
-0.009479845 0.0038368448 -0.0072387992 -0.001096038 0.0058445777 0.0039635366 -0.0027601381 -0.008309948
-0.0027721196 0.007401865 -0.0030118995 0.008739164 -0.003287872 -0.009315582 0.0047454624 -0.00046234063
-0.00931363 -0.0028169267 -0.016450936 0.0069239135 0.006082942 0.0038391717 -0.0041267835 -0.008535328
0.005247132 -0.006059511 -0.0055438797 0.01084401 -0.012310453 -0.0018682033 0.0001721098 0.001425142
0.004314762 0.0071002347 -0.0072511197 0.006790623 0.003347157 8.880586e-06 0.008233637 -0.007203236
-0.0011239953 0.010136287 0.004517509 0.00029833172 0.0055499915 0.0064755916 -0.008160606 -0.006132465
-0.010757168 0.0050685615 -0.004851314 -0.0026506006 0.0031617605 0.006714793 0.0034921127 0.007774542
