models/blood/28-_mse_gaussian.pth (torch, 19027 bytes, 3 tensors)

conv.0.weight f4 [128, 16, 1, 1]
-0.0028732466 -0.08066196 0.06806853 0.027305614 0.043258987 0.022818195 0.02390799 -0.21073526
-0.07725225 -0.01448046 -0.1488627 -0.15616702 -0.26340622 -0.1755447 0.04936369 0.11071763
0.11316235 0.07210222 0.056615252 -0.06446379 -0.017272763 0.019993342 0.17272013 -0.058757
-0.007472912 0.23704065 -0.16451167 0.19958045 -0.04292865 0.15720497 -0.0059649334 0.051427145
0.082454264 0.045931377 0.1378381 -0.29565492 -0.16297013 -0.30242747 -0.14937651 -0.12813307
-0.019980399 -0.15110566 0.07006019 0.047616024 0.19634858 0.10874316 -0.15308198 -0.07347056
-0.033407126 -0.13176665 0.16898465 -0.25620046 -0.23061456 -0.0645068 -0.19898975 0.042585604
0.22935781 -0.23747833 -0.16018906 0.0909975 0.07018663 -0.04369476 -0.18060696 0.15511383
-0.16189724 0.06485471 0.022645717 -0.098826095 0.23814741 -0.1535646 0.1342976 -0.15479144
0.16215535 0.25253853 0.06287626 -0.12213918 0.23137002 -0.22924112 -0.19055626 0.02176834
-0.037133705 -0.0031635584 -0.19168185 -0.051409677 -0.20989282 -0.06752378 -0.12278723 -0.21944082
-0.12209759 0.13254392 -0.23542666 -0.19196339 -0.10039468 0.024360668 -0.10997625 0.13306394
-0.024128577 -0.056465346 -0.05623762 0.100137934 0.03706491 -0.24887265 0.1761114 -0.015484087
0.067141026 0.22859277 0.16818568 0.11793199 0.13912313 -0.21530744 0.16198103 -0.1319013
-0.17381898 0.048718438 -0.11147012 -0.011931246 0.19401567 -0.12405246 -0.1359097 -0.13336065
-0.22217831 0.012932904 0.19642685 -0.19760513 -0.23845334 0.06622521 0.22224498 0.1649783
0.117057785 0.20927218 -0.19046508 -0.10369308 0.02346824 0.17318968 -0.0055590444 -0.15983902
-0.046585295 0.21296337 0.009148794 -0.023514181 -0.07669859 -0.02396805 0.036190428 -0.03660715
-0.05411857 -0.09147658 0.20462136 -0.008113627 -0.12977408 -0.06292556 -0.034044456 -0.14618418
-0.024075413 -0.09528666 -0.0025917091 0.22820671 -0.018655153 0.0016101652 0.15236706 0.04774972
-0.15069531 -0.022468213 -0.14643049 -0.24562722 0.20427434 -0.055313215 0.15638846 0.17364877
0.21217602 -0.0999463 0.15680428 0.21793255 -0.095988 0.06872524 0.015424377 0.030909145
0.023437588 0.115172915 -0.0009827092 -0.14995532 -0.1964134 0.06405418 0.0177851 -0.14395176
-0.14174902 -0.06952703 0.014155289 0.13962021 0.008598107 0.059781723 0.030014122 0.2892404
0.04916271 -0.009968839 -0.21968624 0.101070344 -0.105725564 0.094692856 0.069492504 0.078178786
-0.039241627 0.14745033 -0.02292187 0.25320444 -0.22464749 -0.1921069 0.080547795 0.19634241
-0.23495536 -0.24204561 -0.12949103 0.20930512 -0.19634372 0.14688288 0.20846888 0.104744785
-0.23354341 0.16465922 -0.23498844 0.1585433 0.12729792 -0.21820779 0.03396906 -0.22897719
-0.06435231 0.05002099 0.023416258 -0.08558662 -0.19236206 0.12289823 -0.06273778 -0.012750903
0.21658407 -0.15006919 -0.017009301 0.13592342 -0.29480514 0.11241004 0.032603014 0.009414391
-0.10161196 0.035248127 -0.2498774 -0.19787584 0.14663486 -0.16276552 0.12665012 -0.026502684
-0.13185304 0.1922135 -0.19930969 -0.15330464 0.15139838 -0.15190189 0.0667345 0.01776287
00000000: 144d 3cbb 1932 a5bd 8367 8b3d 06b0 df3c
00000010: 5630 313d 39ed ba3c b0da c33c fcca 57be
00000020: 6d36 9ebd 743f 6dbc 776f 18be 3fea 1fbe
00000030: 2edd 86be fdc1 33be 9531 4a3d edbf e23d
00000040: aac1 e73d 54aa 933d 65e5 673d 9705 84bd
00000050: 9c7f 8dbc 14c9 a33c 8cdd 303e 2eab 70bd
00000060: 54df f4bb c9ba 723e bf75 28be d15e 4c3e
00000070: f4d5 2fbd 57fa 203e 7d75 c3bb 45a5 523d
00000080: c8dd a83d 8a22 3c3d 6e25 0d3e 1560 97be
00000090: a4e1 26be c6d7 9abe 28f6 18be 5135 03be
000000a0: efad a3bc 71bb 1abe b87b 8f3d 0509 433d
000000b0: 9a0f 493e bcb4 de3d 86c1 1cbe bc77 96bd
000000c0: e9d5 08bd d6ed 06be 500a 2d3e b52c 83be
000000d0: 3926 6cbe 241c 84bd f8c3 4bbe 3e6e 2e3d
000000e0: c6dc 6a3e 852d 73be 9a08 24be e65c ba3d
000000f0: 02be 8f3d 47f9 32bd 08f1 38be 29d6 1e3e
00000100: 64c8 25be 8cd2 843d 8383 b93c 5665 cabd
00000110: eadc 733e 0a40 1dbe 4f85 093e a681 1ebe
00000120: 0d0c 263e bb4c 813e 45c5 803d 1b24 fabd
00000130: 43ec 6c3e 2fbe 6abe 2e21 43be 8553 b23c
00000140: 8319 18bd b453 4fbb 3f48 44be f492 52bd
00000150: 25ee 56be e849 8abd df77 fbbd 18b5 60be
00000160: 4d0e fabd 98b9 073e b013 71be 0d92 44be
00000170: ba9b cdbd 0690 c73c 3a3b e1bd ea41 083e
00000180: 4ba9 c5bc 3548 67bd 6b59 66bd 1e15 cd3d
00000190: 60d1 173d 79d8 7ebe 8c56 343e f8b0 7dbc
000001a0: 3c81 893d 3914 6a3e de38 2c3e 5486 f13d
000001b0: 4b76 0e3e 8e79 5cbe 5bde 253e 2211 07be
000001c0: 9afd 31be fc8c 473d 724a e4bd 467b 43bc
000001d0: 0bac 463e 370f febd ea2b 0bbe b28f 08be
000001e0: b682 63be 88e4 533c 1f24 493e 0059 4abe
000001f0: 1d2d 74be 15a1 873d 3094 633e 12f0 283e
00000200: febb ef3d 724b 563e 4709 43be 0a5d d4bd
00000210: 7740 c03c a358 313e a528 b6bb d7ac 23be
00000220: 39d0 3ebd 1213 5a3e d3e4 153c d0a0 c0bc
00000230: 2614 9dbd a558 c4bc 6a3c 143d 61f1 15bd
00000240: 6fab 5dbd 1358 bbbd 4388 513e 05ef 04bc
00000250: 7fe3 04be 1edf 80bd 3372 0bbd 4eb1 15be
00000260: cd39 c5bc a725 c3bd aad9 29bb 05af 693e
00000270: b1d2 98bc 2e0c d33a 1c06 1c3e 3695 433d
00000280: df4f 1abe 420f b8bc e0f1 15be b485 7bbe
00000290: 4b2d 513e 1c90 62bd 4c24 203e fcd0 313e
000002a0: ac44 593e a5b0 ccbd 4d91 203e b629 5f3e
000002b0: 5b95 c4bd d2bf 8c3d 87b6 7c3c 2d35 fd3c
000002c0: 2f00 c03c c7df eb3d 40ce 80ba e38d 19be
000002d0: 9820 49be d72e 833d 0fb2 913c 1768 13be
000002e0: a826 11be 3064 8ebd 96eb 673c 9af8 0e3e
000002f0: 13df 0c3c aedd 743d 2de0 f53c 5117 943e
00000300: d65e 493d 5754 23bc 6ef5 60be f8fd ce3d
00000310: a586 d8bd 54ee c13d 1652 8e3d 331c a03d
00000320: d4bb 20bd 38fd 163e a5c6 bbbc 03a4 813e
00000330: fe09 66be acb7 44be 3ef6 a43d fc0d 493e
00000340: 2398 70be ceda 77be 4c99 04be 1554 563e
00000350: 540e 49be 7768 163e de78 553e 6f84 d63d
00000360: 0126 6fbe 6d9c 283e cfa0 70be 2d59 223e
00000370: 635a 023e dd71 5fbe 2423 0b3d ff78 6abe
00000380: 25cb 83bd cfe2 4c3d 74d3 bf3c 0a48 afbd
00000390: 8ffa 44be 11b2 fb3d aa7c 80bd 2ae9 50bc
000003a0: 37c8 5d3e bdab 19be 1757 8bbc 822f 0b3e
000003b0: b3f0 96be 3c37 e63d bd8a 053d d13e 1a3c
000003c0: ee19 d0bd 5760 103d dcdf 7fbe f79f 4abe
000003d0: 7327 163e 01ac 26be 92b0 013e 281c d9bc
000003e0: 7c04 07be 9ed3 443e d717 4cbe e4fb 1cbe
000003f0: 2d08 1b3e 2b8c 1bbe 19ac 883d 7083 913c

conv.0.bias f4 [128]
-0.09291253 -0.20189257 -0.23914061 0.17372552 -0.11565016 0.07340487 0.19133595 0.0650983
-0.021985644 0.045354135 0.12013087 -0.115968406 -0.045045555 0.10547434 0.15627202 -0.092347234
0.21032003 0.18358277 0.08703163 0.1960859 -0.25568745 -0.06951012 -0.009912085 0.14931458
0.21336193 -0.21743089 0.08704498 -0.1612777 0.04638253 0.12599356 0.20655473 0.1537392
-0.09882585 -0.08140887 -0.19639075 0.09851448 -0.021468902 0.10459715 -0.18378387 -0.0895873
-0.24111329 -0.11085149 0.036504067 0.16726762 -0.21216851 0.25637683 -0.29360464 -0.057189606
-0.11549738 -0.14805987 0.009724404 -0.055318523 0.23438433 -0.10231345 -0.08997723 0.2480415
0.018941758 0.26130253 0.15476245 0.17849919 -0.12859727 -0.24083227 0.07932523 0.19202615
0.21055692 -0.056760684 -0.19519417 0.14100046 0.12022003 -0.08425826 -0.15369658 0.07266121
0.16886672 0.056497384 -0.03345313 -0.17931947 -0.130035 -0.12907445 -0.095048115 -0.16066663
0.16257656 -0.13070479 -0.14805818 0.23634815 0.24530819 0.073914774 -0.008257709 -0.1796855
0.048503656 -0.216717 0.09329026 0.10851671 0.12902635 0.14596069 0.008658023 -0.24726647
-0.018598549 -0.15249498 0.10613237 0.17143577 -0.027631149 0.14652541 -0.069974646 0.005299046
0.030609341 -0.108947285 0.03480784 0.21722996 -0.19619258 -0.11000694 0.070098445 0.19759884
-0.19160624 -0.21123438 0.123999186 0.0440206 0.19568276 -0.14908896 -0.1382878 0.2661752
0.22066335 0.15323651 -0.3111903 -0.07151801 -0.17354418 0.18742062 0.12613286 -0.18783908
00000000: ed48 bebd edbc 4ebe 47e1 74be 1ae5 313e
00000010: fed9 ecbd 4b55 963d 92ed 433e 4252 853d
00000020: 3d1b b4bc 42c5 393d 2c07 f63d d880 edbd
00000030: b081 38bd ee02 d83d c605 203e 8c20 bdbd
00000040: 225e 573e 1ffd 3b3e a43d b23d beca 483e
00000050: 77e9 82be 525b 8ebd 4c66 22bc ece5 183e
00000060: 8d7b 5a3e 34a6 5ebe a344 b23d fb25 25be
00000070: 9cfb 3d3d 7504 013e 1583 533e cf6d 1d3e
00000080: 3565 cabd b2b9 a6bd a81a 49be f6c1 c93d
00000090: 8ddf afbc 0837 d63d d731 3cbe 8c79 b7bd
000000a0: 67e6 76be 1b06 e3bd 4a85 153d 3448 2b3e
000000b0: b442 59be d343 833e 5953 96be a63f 6abd
000000c0: e489 ecbd 029d 17be 1b53 1f3c ad95 62bd
000000d0: 7202 703e b789 d1bd fb45 b8bd 97fe 7d3e
000000e0: bf2b 9b3c 72c9 853e 0c7a 1e3e 7ec8 363e
000000f0: 01af 03be bc9c 76be 4475 a23d 81a2 443e
00000100: 3c9c 573e e47d 68bd fbe0 47be 6d62 103e
00000110: eb35 f63d 988f acbd a362 1dbe 67cf 943d
00000120: 66eb 2c3e cd69 673d 2606 09bd 869f 37be
00000130: e527 05be 182c 04be 96a8 c2bd cb85 24be
00000140: 787a 263e 7ad7 05be 909c 17be 4005 723e
00000150: 1232 7b3e a160 973d 584b 07bc 7aff 37be
00000160: c5ab 463d 10eb 5dbe f70e bf3d 023e de3d
00000170: 7c1f 043e b876 153e 61da 0d3c 6c33 7dbe
00000180: fc5b 98bc a527 1cbe ee5b d93d dc8c 2f3e
00000190: b85a e2bc c20a 163e de4e 8fbd 9fa3 ad3b
000001a0: 71c0 fa3c c11f dfbd aa92 0e3d 8871 5e3e
000001b0: b5e6 48be 524b e1bd c68f 8f3d 5a57 4a3e
000001c0: 6d34 44be d34d 58be 49f3 fd3d f24e 343d
000001d0: 1061 483e c7aa 18be 519b 0dbe 1e48 883e
000001e0: 93f5 613e 08ea 1c3e 5654 9fbe 0978 92bd
000001f0: 91b5 31be 31eb 3f3e f928 013e e358 40be

conv.2.weight f4 [16, 128, 1, 1]
-0.0014599777 -0.011780242 0.009585446 0.0129917115 -0.0005159992 0.005418205 -0.0027083105 0.008434776
0.001610066 -0.008868449 -0.0032261251 -0.044823386 0.0048119635 0.009645967 0.0011810919 -0.0057258303
-0.0014789052 0.0017201743 -0.0014919869 0.011071382 -0.004983364 0.005605071 -0.0050845565 0.013615424
0.0071819914 -0.008125801 0.0007055345 -0.00034394412 0.004309579 0.008069628 0.0020294613 -0.0032169905
0.0 -0.0042323507 -0.004165694 0.003607874 0.0007697078 0.0013337334 -0.017811436 -0.008945891
0.014787683 -0.0057243286 0.0077149468 0.003987823 -0.013880991 -0.009043308 0.0010279998 0.00912899
-0.01125015 -0.0082007395 -0.0004112182 0.0044732485 0.00042417864 -0.0005168341 0.0036737844 -0.0036858637
-0.010201388 0.010451318 -0.00606644 0.0036306519 0.0117398435 -0.011163228 0.00063618575 0.016294656
0.009555187 0.01771198 -0.0015523671 0.0064328685 0.001951888 -0.0016472356 0.0077759875 0.0072430274
0.014219813 0.0016270932 -0.003432677 -0.011763858 -0.0033308684 -0.011960408 0.015858626 -0.0042975545
-0.005974741 -0.01148245 -9.842157e-05 0.0019809774 0.013290734 -0.0062264195 0.0010056039 -0.0054347864
0.009561408 -0.0043043946 0.0034683268 0.009803955 0.01091148 0.0044209706 0.0011306654 0.0
-0.004213638 -0.005339207 0.012532957 0.0025893925 -0.048784997 0.0029776213 -0.013978001 -0.0007622174
-0.0052938717 0.0 0.009978045 0.00478534 -0.0009166374 -0.008326808 0.0033838595 0.0017653902
-0.0017951279 -0.0050923238 -0.0013407569 0.0076410742 0.010436658 -0.0068535986 -0.0090386 0.013242021
0.01813016 0.0065737464 0.01189622 -0.003283647 -0.0119676795 0.010679434 0.0112720225 -0.0036483335
0.0040405714 -0.0038337223 0.02069462 0.011697296 -0.009088799 -0.0020094544 -0.0027191262 0.005793269
-0.00019054693 -0.00025067513 -0.0043144054 -0.0019702695 0.0052853217 0.009844537 -0.0066378466 0.0030673984
0.00016804776 0.0045344746 -0.0019101159 0.017102687 -0.0030112113 0.0026708003 0.0035827495 0.008970437
0.0024516487 -0.016728552 -0.007550045 -0.001676403 0.008876876 0.003350993 0.0018922503 0.0016602691
0.0 0.003246734 -0.0033057937 0.008367504 -0.010264075 -0.00022879081 -0.022696847 -0.008061749
0.005188738 -0.006314308 0.000151491 0.0036180245 -0.003505781 -0.008848878 -0.0020001542 0.014562308
-0.0046959664 -0.0023906033 0.0031385873 0.00015716697 -0.00038211394 0.003228442 0.0010198955 -0.00021725695
-0.005815962 0.00976329 -0.0051111383 0.00078394386 0.011152992 -0.00045175783 0.00057172007 -0.0020436628
0.013713845 -0.0071348622 -0.008561799 0.0074056266 0.0050277193 -0.00309926 0.004170538 0.0067304242
0.00012620872 0.009860874 -0.0025580437 -0.0074764285 -0.008244153 -0.003646159 -0.0036974426 -0.009070266
0.0020325652 0.0022769265 -0.0004591824 0.0050903778 0.011711882 0.00093184144 -0.00056107435 0.00016925122
0.011069255 0.004233505 0.008486398 0.013640116 0.008852692 0.016936747 0.0042600613 0.0
-0.0022741985 0.0065757222 0.008007206 0.009436475 -0.022898706 0.005754112 0.012271426 -0.010220428
-0.0008788407 0.0 0.011305274 0.0047451835 0.004319801 -0.0064092535 0.00036296985 -0.0060688956
-0.00511303 -0.005391529 0.00032321183 0.0089899665 0.0099144615 -0.0030872712 -0.015604149 0.01731617
0.006948707 0.0040248013 -0.0018992544 -0.006856315 0.0036569883 0.012828116 0.007895666 -0.0015742716
00000000: b95c bfba eb01 41bc 460c 1d3c 30db 543c
00000010: 1f44 07ba 338b b13b e97d 31bb 0432 0a3c
00000020: da08 d33a f94c 11bc 666d 53bb ba98 37bd
00000030: adad 9d3b 1e0a 1e3c dece 9a3a bf9f bbbb
00000040: d3d7 c1ba 7977 e13a c68e c3ba be64 353c
00000050: 7d4b a3bb beaa b73b 5a9c a6bb 3a13 5f3c
00000060: e956 eb3b 1422 05bc 9ef3 383a 6653 b4b9
00000070: 5e37 8d3b 7936 043c b600 053b 25d4 52bb
00000080: 0000 0000 88af 8abb 6080 88bb 1572 6c3b
00000090: 37c6 493a abd0 ae3a 4ae9 91bc c991 12bc
000000a0: 0a48 723c 2693 bbbb aacd fc3b 49ac 823b
000000b0: 196d 63bc 622a 14bc f3bd 863a c291 153c
000000c0: 8d52 38bc 655c 06bc c698 d7b9 5494 923b
000000d0: 4b64 de39 267c 07ba e0c3 703b 888e 71bb
000000e0: b923 27bc 013c 2b3c fdc8 c6bb 3bf0 6d3b
000000f0: 7958 403c f9e5 36bc b4c5 263a 5f7c 853c
00000100: 5c8d 1c3c b718 913c cc78 cbba d0ca d23b
00000110: 7ed6 ff3a 0ee8 d7ba b6cd fe3b eb56 ed3b
00000120: 38fa 683c 3044 d53a c3f6 60bb 32bd 40bc
00000130: b34a 5abb 96f5 43bc f3e9 813c 80d2 8cbb
00000140: c3c7 c3bb e320 3cbc ae67 ceb8 49d3 013b
00000150: 61c1 593c fe06 ccbb 78ce 833a 4b16 b2bb
00000160: 74a7 1c3c e10b 8dbb de4c 633b c5a0 203c
00000170: 10c6 323c cadd 903b d632 943a 0000 0000
00000180: 8f12 8abb 84f4 aebb 0857 4d3c ccb2 293b
00000190: c7d2 47bd 3224 433b fc03 65bc 8bcf 47ba
000001a0: 3778 adbb 0000 0000 f47a 233c 57ce 9c3b
000001b0: 7f4a 70ba 2a6d 08bc bec3 5d3b aa64 e73a
000001c0: 7f4a ebba 82dd a6bb 56bc afba fa61 fa3b
000001d0: 84fe 2a3c 2794 e0bb a316 14bc 10f5 583c
000001e0: b485 943c 9568 d73b 5de8 423c 7432 57bb
000001f0: 1614 44bc cbf8 2e3c 4aae 383c e118 6fbb
00000200: c566 843b 303f 7bbb c487 a93c 04a6 3f3c
00000210: 30e9 14bc 0db1 03bb 5e33 32bb 76d5 bd3b
00000220: 8dcd 47b9 0c6d 83b9 db5f 8dbb a31f 01bb
00000230: 7e30 ad3b fb4a 213c 4b82 d9bb 6806 493b
00000240: fa35 3039 ee95 943b db5c faba ef1a 8c3c
00000250: be57 45bb 9808 2f3b 90cc 6a3b bdf8 123c
00000260: d7ab 203b 510a 89bc 5e66 f7bb c0ba dbba
00000270: 5170 113c 559c 5b3b 6205 f83a 639d d93a
00000280: 0000 0000 28c7 543b 04a6 58bb db17 093c
00000290: a72a 28bc 91e7 6fb9 bdee b9bc 6d15 04bc
000002a0: 4a06 aa3b 41e8 cebb 8ed9 1e39 611c 6d3b
000002b0: 3fc1 65bb e2fa 10bc 0515 03bb bf96 6e3c
000002c0: 9fe0 99bb abab 1cbb c2b0 4d3b 30cd 2439
000002d0: 7756 c8b9 4594 533b 04ae 853a 78cf 63b9
000002e0: d393 bebb 35f6 1f3c 567b a7bb 9581 4d3a
000002f0: 0abb 363c e9d9 ecb9 7cdf 153a f9ee 05bb
00000300: 09b0 603c 90cb e9bb ca46 0cbc e6aa f23b
00000310: 91bf a43b f41c 4bbb 02a9 883b e48a dc3b
00000320: e556 0439 818f 213c daa4 27bb d4fc f4bb
00000330: 7c12 07bc 66f4 6ebb cb50 72bb 749b 14bc
00000340: c934 053b 7d38 153b 6bbe f0b9 2fcd a63b
00000350: 32e3 3f3c d246 743a 1015 13ba 0779 3139
00000360: d25b 353c 37b9 8a3b 880a 0b3c cb7a 5f3c
00000370: e20a 113c efbe 8a3c fc97 8b3b 0000 0000
00000380: b80a 15bb 2879 d73b a830 033c 729b 1a3c
00000390: 1196 bbbc fd8c bc3b 170e 493c 9573 27bc
000003a0: 0062 66ba 0000 0000 c239 393c 7c7d 9b3b
000003b0: 1e8d 8d3b b704 d2bb fd4c be39 96dd c6bb
000003c0: 348b a7bb 6cab b0bb c274 a939 a74a 133c
000003d0: 4470 223c d153 4abb 8ba8 7fbc a4da 8d3c
000003e0: fbb1 e33b 7be2 833b 67f0 f8ba f0aa e0bb
000003f0: 15aa 6f3b 052d 523c d35c 013c ca57 ceba
