models/blood/28-_ssim_identity.pth (torch, 19034 bytes, 3 tensors)

conv.0.weight f4 [128, 16, 1, 1]
0.15336224 0.08528678 -0.18556194 -0.21526739 0.06774089 0.18626736 -0.05063693 -0.057817813
0.15614845 0.17453796 0.10307736 -0.082247406 -0.102700606 0.07743384 0.093400724 0.22750993
0.13077651 0.21644099 -0.017606288 0.023218883 0.13069092 0.15039627 -0.17675711 0.06464334
0.095041335 -0.15379992 -0.14400966 0.14086546 0.06656571 -0.18590494 -0.21760161 -0.13492657
0.20862494 0.15697089 0.08045188 -0.18875374 -0.1959287 0.045684956 0.20866714 -0.023758989
0.12705629 0.21518455 -0.0684706 -0.105250575 -0.004802309 0.122123726 -0.21988498 0.039473213
0.0072355997 0.032060366 -0.03211534 0.11109044 0.21167463 0.094057515 -0.14131536 0.101715304
-0.035368234 0.14864041 0.09346436 0.21318962 -0.08415956 -0.040177964 -0.17381427 -0.05110143
0.18223625 0.1783983 -0.24853577 0.08444026 0.16029319 -0.034521364 0.12804148 -0.13371088
0.17259935 0.20353161 -0.21450102 -0.05309118 0.0046149883 0.05362765 0.1839227 0.23249748
0.10426957 0.095326595 0.06727791 0.08629625 0.05689651 0.21548457 -0.17901985 0.052221242
0.21110669 -0.015857093 -0.097629696 0.06915682 0.16943625 -0.05770988 0.017307723 0.22596468
0.1200626 -0.122494325 0.13510619 0.16639051 0.04890462 0.1843334 -0.23115335 -0.15430713
-0.10189184 -0.20408306 0.07592512 -0.22545186 -0.048317377 -0.17742981 0.054544177 -0.17989057
-0.25110263 -0.20109732 0.21557708 0.08920998 0.17807409 0.23477168 -0.24498911 -0.18162812
0.12375592 0.07806094 -0.050438993 0.18806264 -0.049272463 0.23324847 0.12132588 -0.060647115
-0.034226935 -0.19437294 0.2004747 0.10371176 -0.2188386 0.030828424 -0.14523964 -0.15633851
0.22927573 -0.15932336 0.19360766 0.050774638 0.21258748 -0.07334857 0.1496688 0.1840731
0.0037100364 -0.17509262 0.18615387 0.15201515 -0.09583178 -0.11421625 0.21920893 -0.24407277
-0.014794476 -0.15966521 -0.22154349 0.076675914 -0.065190345 -0.053876963 -0.19983289 0.0114634875
0.011566061 0.09583733 -0.030372093 0.0603078 0.119837284 0.19890171 -0.0029598111 0.17862368
-0.19610131 -0.042047016 -0.02990198 0.11130369 -0.16018744 -0.14096929 0.13111521 -0.05562986
-0.064176254 0.10697827 0.021376042 0.21767336 -0.1170777 -0.054837488 0.017834196 0.0069746003
0.046507705 -0.15594977 -0.13517109 -0.12573242 -0.07827051 -0.24046163 -0.18392253 -0.1291044
0.11140379 0.13438784 -0.17560999 0.22331494 -0.049300596 -0.07776871 0.1835031 -0.05271373
-0.08216884 -0.2314544 0.049663737 -0.088711165 0.07444875 0.07384686 0.07573936 -0.11792769
-0.20277146 0.19729897 0.20563778 0.19740978 -0.25188744 0.124379225 0.0053443736 0.18741883
0.030198792 -0.24708848 0.047179956 0.13212253 -0.14599136 -0.13193288 0.13752 -0.026220545
0.18178263 -0.14309373 -0.20459785 -0.0053473916 -0.13620389 0.1945916 0.13470446 0.23145732
-0.15282631 -0.079110995 0.1985405 0.051934894 -0.059456717 -0.087445736 -0.19046418 0.22991306
0.09546921 -0.12398541 -0.17871223 0.1777158 -0.059501022 -0.027495157 0.10938254 -0.064968795
-0.14029133 -0.06312742 -0.14034143 0.099402726 0.08347195 0.060235176 -0.13230619 -0.16874781
00000000: fe0a 1d3e d6aa ae3d f303 3ebe 0e6f 5cbe
00000010: bcbb 8a3d dfbc 3e3e ab68 4fbd 5fd2 6cbd
00000020: 61e5 1f3e 14ba 323e 391a d33d 5471 a8bd
00000030: b254 d2bd a295 9e3d e148 bf3d 5df8 683e
00000040: 47ea 053e b5a2 5d3e 103b 90bc 8735 be3c
00000050: d7d3 053e 7b01 1a3e d1ff 34be ba63 843d
00000060: 08a5 c23d ba7d 1dbe 4577 13be 093f 103e
00000070: 9a53 883d dd5d 3ebe f5d2 5ebe 312a 0abe
00000080: c7a1 553e fabc 203e f5c3 a43d a948 41be
00000090: 88a1 48be 2620 3b3d d7ac 553e 36a2 c2bc
000000a0: 0b1b 023e 5759 5c3e 503a 8cbd 9d8d d7bd
000000b0: b05c 9dbb 011c fa3d 8729 61be aaae 213d
000000c0: 9c18 ed3b bb51 033d 608b 03bd 6283 e33d
000000d0: 3cc1 583e 3aa1 c03d f9b4 10be 1d50 d03d
000000e0: 48de 10bd 3135 183e 3e6a bf3d 614e 5a3e
000000f0: d95b acbd a691 24bd 5efc 31be bc4f 51bd
00000100: 249c 3a3e 0bae 363e 2980 7ebe 04ef ac3d
00000110: e623 243e 4666 0dbd 4e1d 033e 81eb 08be
00000120: e2bd 303e 976a 503e 28a6 5bbe 2376 59bd
00000130: 5439 973b aba8 5b3d 3b56 3c3e d213 6e3e
00000140: 498b d53d 973a c33d 00c9 893d 17bc b03d
00000150: 510c 693d fda7 5c3e fb50 37be f1e5 553d
00000160: 5a2c 583e bce6 81bc 14f2 c7bd 17a2 8d3d
00000170: b280 2d3e 3261 6cbd edc8 8d3c 4963 673e
00000180: 61e3 f53d 4ede fabd 4759 0a3e 4662 2a3e
00000190: 3650 483d e5c1 3c3e 77b3 6cbe b002 1ebe
000001a0: abac d0bd 26fb 50be a17e 9b3d dadc 66be
000001b0: 71e8 45bd 29b0 35be b769 5f3d 3c35 38be
000001c0: 8690 80be 75ec 4dbe 3dc0 5c3e b9b3 b63d
000001d0: 0e59 363e fd67 703e 6dde 7abe b9fc 39be
000001e0: be73 fd3d 6ade 9f3d 1e99 4ebd 7e93 403e
000001f0: ecd1 49bd b0d8 6e3e b479 f83d 1c69 78bd
00000200: 8b31 0cbd b309 47be 3d49 4d3e d566 d43d
00000210: 3a17 60be e48b fc3c b3b9 14be 3417 20be
00000220: 42c7 6a3e aa25 23be 1641 463e 11f9 4f3d
00000230: 88b0 593e c637 96bd c742 193e a97d 3c3e
00000240: 1524 733b 7b4b 33be 1f9f 3e3e dca9 1b3e
00000250: 7443 c4bd 36ea e9bd 4e78 603e 36ee 79be
00000260: 8864 72bc 477f 23be 4cdc 62be 4308 9d3d
00000270: 8482 85bd 17ae 5cbd fea0 4cbe 5ad1 3b3c
00000280: 937f 3d3c 5d46 c43d e5ce f8bc 5005 773d
00000290: 406d f53d e4ac 4b3e 64f9 41bb 20e9 363e
000002a0: c8ce 48be 7e39 2cbd fff4 f4bc 30f3 e33d
000002b0: 2d08 24be 415a 10be 1143 063e 23dc 63bd
000002c0: d76e 83bd 6c17 db3d cf1c af3c c4e5 5e3e
000002d0: 6fc6 efbd 469d 60bd 0519 923c 308b e43b
000002e0: dd7e 3e3d 4cb1 1fbe 4a6a 0abe 00c0 00be
000002f0: 4a4c a0bd 933b 76be 3056 3cbe f233 04be
00000300: ac27 e43d f79c 093e 1bd3 33be acac 643e
00000310: 6cef 49bd 3445 9fbd 3de8 3b3e 5aea 57bd
00000320: 2348 a8bd 6202 6dbe 346c 4b3d 33ae b5bd
00000330: 9678 983d 063d 973d 3d1d 9b3d 1384 f1bd
00000340: 52a3 4fbe be08 4a3e b692 523e ca25 4a3e
00000350: 64f7 80be 89ba fe3d db1f af3b b9ea 3f3e
00000360: 7563 f73c c304 7dbe c53f 413d 214b 073e
00000370: c27e 15be 6a19 07be 0bd2 0c3e 78cc d6bc
00000380: 3a25 3a3e 2a87 12be 1982 51be 2c39 afbb
00000390: 0879 0bbe 0543 473e f7ef 093e 2603 6d3e
000003a0: 807e 1cbe f204 a2bd 334e 4b3e afb9 543d
000003b0: e388 73bd c016 b3bd 0b09 43be 546e 6b3e
000003c0: 5c85 c33d 10ec fdbd 5700 37be 21fb 353e
000003d0: 58b7 73bd 863d e1bc f403 e03d 5c0e 85bd
000003e0: 88a8 0fbe f348 81bd aab5 0fbe a893 cb3d
000003f0: 57f3 aa3d 29b9 763d 467b 07be 3acc 2cbe

conv.0.bias f4 [128]
0.04697132 0.060616866 -0.1273097 -0.22563706 0.19575793 0.017916054 0.069224074 0.22296941
0.039280463 -0.078425355 -0.17686431 0.12280376 0.15391846 0.13514374 0.0200173 -0.2400396
0.14239846 0.1726865 0.19386901 0.10782023 -0.13319477 0.18550974 0.086756736 0.23602724
0.082275935 0.0031756668 -0.1537849 -0.04792011 0.05781407 0.054047327 0.03916684 0.047181662
0.17590941 -0.030666566 0.023593301 -0.23419544 0.1380622 0.03037412 -0.24356541 0.17362507
0.14333639 -0.19397438 -0.038218 -0.121777184 -0.040509548 0.006406299 0.100987755 0.063379936
0.11484293 0.15845038 -0.04467504 -0.22820161 -0.029112566 -0.23177734 0.08775832 -0.22260363
-0.22141138 -0.027304191 -0.02775499 0.11643519 0.031797823 0.14116801 -0.18461964 0.13600697
0.024390802 0.16132396 0.14352864 0.19157536 0.168213 -0.08729943 0.10441143 0.1977384
0.18689649 0.03038362 -0.062210876 0.23838164 -0.19054009 -0.048644535 -0.0024092637 -0.09130391
0.19454509 0.098268256 0.16615985 -0.14966124 0.21256238 -0.10416371 0.14118436 0.12452316
0.013105253 0.057967883 0.16100338 -0.1345472 -0.0049987943 -0.053863272 0.15653306 0.05161413
0.072546996 0.145794 -0.22433844 -0.18204246 0.18294196 0.16276418 -0.038887452 0.21616185
-0.066754244 -0.120586924 -0.13503197 -0.20659877 0.12521328 0.04716392 -0.19123785 0.08948646
0.04103813 -0.18538868 0.11347098 -0.05487557 -0.067938335 0.23734936 0.11917712 -0.018163858
0.15429243 0.116025485 -0.21766078 0.057803325 -0.15918094 0.060342874 -0.17307685 0.12847203
00000000: 0065 403d 6449 783d 795d 02be 670d 67be
00000010: c474 483e b0c4 923c 5ac5 8d3d 1852 643e
00000020: 8de4 203d 799d a0bd eb1b 35be 8a80 fb3d
00000030: cd9c 1d3e 1f63 0a3e 52fb a33c f1cc 75be
00000040: e7d0 113e bbd4 303e 9985 463e dad0 dc3d
00000050: 3664 08be 44f6 3d3e 84ad b13d 20b1 713e
00000060: 4980 a83d d91e 503b ca79 1dbe e147 44bd
00000070: 72ce 6c3d bb60 5d3d 696d 203d 8f41 413d
00000080: 9921 343e 7338 fbbc bd46 c13c eed0 6fbe
00000090: 2d60 0d3e 26d3 f83c 3669 79be c5ca 313e
000000a0: c6c6 123e 38a1 46be 7a8a 1cbd 5166 f9bd
000000b0: 57ed 25bd eeeb d13b abd2 ce3d 57cd 813d
000000c0: c532 eb3d d140 223e 2dfd 36bd afad 69be
000000d0: 7a7d eebc 0a57 6dbe a2ba b33d 35f2 63be
000000e0: aab9 62be 0aad dfbc 6f5e e3bc 9375 ee3d
000000f0: 6f3e 023d 598e 103e ee0c 3dbe 6945 0b3e
00000100: 38cf c73c 1c32 253e 2cf9 123e 552c 443e
00000110: 0740 2c3e 0bca b2bd a9d5 d53d ef7b 4a3e
00000120: cb61 3f3e 12e7 f83c d5d0 7ebd 511a 743e
00000130: f11c 43be 7e3f 47bd bde4 1dbb 8bfd babd
00000140: d436 473e de40 c93d cf25 2a3e cc40 19be
00000150: f4a9 593e c853 d5bd a292 103e 0006 ff3d
00000160: 6ab7 563c bb6f 6d3d 12de 243e bec6 09be
00000170: edcc a3bb bc9f 5cbd 344a 203e 5769 533d
00000180: 8593 943d 064b 153e fab8 65be 5769 3abe
00000190: 2355 3b3e a7ab 263e 7348 1fbd 8859 5d3e
000001a0: 73b6 88bd 47f6 f6bd d245 0abe a18e 53be
000001b0: e937 003e f42e 413d dbd3 43be ad44 b73d
000001c0: 9917 283d 88d6 3dbe 7963 e83d 35c5 60bd
000001d0: 4123 8bbd b60b 733e 2213 f43d 5fcc 94bc
000001e0: d6fe 1d3e c59e ed3d 78e2 5ebe 2ec3 6c3d
000001f0: 5400 23be 172a 773d 0f3b 31be 2c8e 033e

conv.2.weight f4 [16, 128, 1, 1]
-0.003711739 -0.00023853013 -0.008257585 -0.00342342 -0.0031852312 -0.0038508447 -8.908611e-05 -0.0016362211
-0.0011828634 0.0061840396 -0.005504067 -0.00021684574 -0.0017171171 -0.001639105 -0.0020926914 0.0
-0.0009765803 -0.00024997746 -0.001220082 -0.00067616295 -0.005371048 -0.0007742193 7.187663e-05 0.00042581337
-0.002697506 0.0045761 -0.005784995 0.0077606207 0.0012942795 -0.0023301532 -0.004891293 -0.004698113
-0.0017000297 0.0054356055 0.00025166984 0.0 0.00097465503 -0.0053047985 -0.0018169492 -0.000101461934
-0.0012518957 0.0 0.0 -0.0011520797 -0.0055039534 -0.0032136547 -8.514832e-05 0.0005732626
-2.499719e-05 0.00057630707 -0.008184934 -0.005487318 -0.0032667266 -0.0051639886 -0.0040507982 -0.0031871106
0.0 -0.0026886514 0.0074381237 -0.0026682257 0.0027905132 0.00010654164 0.0 -0.0009528493
0.0018990784 -0.00031648093 0.00016458308 -0.0004722156 -0.0028864534 0.0 -0.0016108452 -0.0021255529
0.00010181241 -0.005200097 0.0 -0.0008464206 -0.0051654847 0.00060855993 -0.00040447133 0.0
0.000119599106 -0.0009808356 -0.0011605396 -0.0072373343 0.0008846689 -0.0047472967 0.00019574723 0.00083694793
-0.0021640367 6.6186417e-06 0.00063205254 0.007630577 -0.0021010286 0.0054815942 0.0001369452 -0.0004082443
0.0017471297 -0.00061494566 -0.008167138 0.0 -0.0015009332 0.00061183394 0.00529198 -0.00038171228
-0.0074441032 -0.005173604 0.0 -0.0053695804 -0.0008588869 -0.00033686962 -0.005403253 -0.0035613694
6.680959e-05 0.0 -0.0015938176 -0.0055274796 -0.007003578 -0.00011317576 0.0003878892 -0.0042976635
-0.0026349367 -0.00082115375 -0.008936983 -0.0009034268 0.0011168439 0.00052994624 -0.005175439 -0.00030970704
-0.00013568628 -0.0007978649 -0.008292724 0.0008076238 -0.00083650823 -0.00020402286 -0.0005693018 0.00033641446
0.0017425087 0.0069904947 -0.0055040503 -0.00041898235 -0.00067135534 -0.00042029642 0.001757497 0.0
-0.0005686922 0.00010063719 -1.7111419e-05 -0.001021679 -0.0012300761 0.00035994875 -7.353071e-05 0.0011833843
0.00030171135 0.0048158662 -0.0019104976 0.0039075976 0.0018826668 0.0004863446 -0.0015779007 -0.002072169
-0.00026597152 0.0054147574 0.002961456 0.0 0.0014389164 -0.0030325872 0.002123106 0.00012517704
0.00011129542 0.0 0.0 0.0027048844 -0.005503899 0.0010841126 0.00086677814 0.0011810233
9.519119e-05 0.00091619923 -0.008078693 -0.0054866066 0.0011518946 -0.0022023134 -0.0010099681 0.0009460876
0.0 0.0017817204 0.0075852643 -0.00027385136 0.0032579103 0.0006061586 0.0 0.0004992145
0.0025764452 0.00048136996 6.075477e-05 0.00083122385 -0.0009309813 0.0 7.0810597e-06 -0.0002754503
0.0001976724 -0.0042116633 0.0 -0.00038008147 -0.00092096307 0.00373934 -7.089773e-05 0.0
0.00037142902 -0.00038770336 -0.00051914074 -0.006218808 0.0015237755 -0.0006307164 0.00042100402 0.0012512369
0.0018073405 0.00055276934 0.0012945018 0.0077594845 0.0018349658 0.0054742177 0.0001391109 -0.0005083225
0.0022780797 -0.00068675674 -0.008544 0.0 -0.00048720796 0.000801264 0.005291425 0.00077026593
-0.0063501108 -0.0051680715 0.0 -0.0011745706 5.174506e-05 0.0010094102 -0.0014288925 -0.0023196067
0.002945079 0.0 -0.0002959306 -0.0020378723 -0.0046217274 0.00019473219 0.0006316864 8.8489636e-05
0.00029271693 -0.00048943155 -0.00933607 0.0020052125 0.003979766 0.000809598 -0.005171908 0.0004999351
00000000: a640 73bb f21d 7ab9 d24a 07bc 755b 60bb
00000010: 50bf 50bb 745e 7cbb bed3 bab8 7876 d6ba
00000020: 4f0a 9bba 7ca3 ca3b 765b b4bb 1661 63b9
00000030: e410 e1ba 3dd7 d6ba 8925 09bb 0000 0000
00000040: 9900 80ba 680f 83b9 29eb 9fba 8740 31ba
00000050: 9eff afbb faf4 4aba 79bc 9638 b43f df39
00000060: a4c8 30bb 1cf3 953b 0e90 bdbb ce4c fe3b
00000070: d0a4 a93a 7cb5 18bb 2447 a0bb a1f2 99bb
00000080: 88d3 deba 2a1d b23b 8ef2 8339 0000 0000
00000090: fe7f 7f3a e0d3 adbb b326 eeba f6c7 d4b8
000000a0: a616 a4ba 0000 0000 0000 0000 6101 97ba
000000b0: 825a b4bb 2e9c 52bb a891 b2b8 0047 163a
000000c0: 0fb1 d1b7 5013 173a 1a1a 06bc f6ce b3bb
000000d0: 9416 56bb ad36 a9bb 8fbc 84bb d8de 50bb
000000e0: 0000 0000 1634 30bb 81bb f33b 66dd 2ebb
000000f0: 0be1 363b 1c6f df38 0000 0000 a2c8 79ba
00000100: 7fea f83a 5aed a5b9 ef93 2c39 b493 f7b9
00000110: a72a 3dbb 0000 0000 ff22 d3ba dc4c 0bbb
00000120: 1f84 d538 9365 aabb 0000 0000 53e2 5dba
00000130: 3a43 a9bb c487 1f3a 390f d4b9 0000 0000
00000140: 48d1 fa38 628f 80ba 3f1d 98ba 2927 edbb
00000150: 20e9 673a 368f 9bbb 7f41 4d39 a066 5b3a
00000160: 83d2 0dbb b315 de36 54b0 253a eb09 fa3b
00000170: 69b1 09bb f29e b33b f298 0f39 9f09 d6b9
00000180: f2ff e43a 4e34 21ba 76cf 05bc 0000 0000
00000190: f6ba c4ba 7b63 203a 5968 ad3b 8e20 c8b9
000001a0: aaed f3bb 5687 a9bb 0000 0000 4ef3 afbb
000001b0: ed26 61ba e09d b0b9 c50d b1bb dd65 69bb
000001c0: 201c 8c38 0000 0000 a5e7 d0ba dc1f b5bb
000001d0: 457e e5bb c658 edb8 9b5d cb39 6ad3 8cbb
000001e0: e7ae 2cbb b242 57ba 6c6c 12bc f2d3 6cba
000001f0: 1063 923a 17ec 0a3a bb96 a9bb 2d60 a2b9
00000200: 0247 0eb9 cf27 51ba 35de 07bc b7b6 533a
00000210: 1e49 5bba f8ee 55b9 323d 15ba c960 b039
00000220: e464 e43a 8510 e53b 525b b4bb dcaa dbb9
00000230: e5fd 2fba 3b5b dcb9 d05b e63a 0000 0000
00000240: 4a14 15ba 2e0d d338 7e8a 8fb7 dce9 85ba
00000250: 813a a1ba 81b7 bc39 8034 9ab8 ca1b 9b3a
00000260: 032f 9e39 6ace 9d3b a969 faba 4e0b 803b
00000270: d1c3 f63a 11fc fe39 90d1 ceba 3acd 07bb
00000280: 1872 8bb9 476e b13b fd14 423b 0000 0000
00000290: 069a bc3a 5fbe 46bb cf23 0b3b f541 0339
000002a0: 4667 e938 0000 0000 0000 0000 6e44 313b
000002b0: 0d5a b4bb c818 8e3a 7f38 633a 91cc 9a3a
000002c0: 62a1 c738 172d 703a 7f5c 04bc fec8 b3bb
000002d0: 2bfb 963a b054 10bb e860 84ba dd02 783a
000002e0: 0000 0000 9e88 e93a cf8d f83b b593 8fb9
000002f0: aa82 553b 9de6 1e3a 0000 0000 b8dd 023a
00000300: 94d9 283b 6260 fc39 f0d2 7e38 7de6 593a
00000310: 190d 74ba 0000 0000 d799 ed36 506a 90b9
00000320: 4846 4f39 fe01 8abb 0000 0000 ac45 c7b9
00000330: c96c 71ba b70f 753b eeae 94b8 0000 0000
00000340: 5cbc c239 aa44 cbb9 f216 08ba 24c7 cbbb
00000350: 6cb9 c73a a956 25ba 34ba dc39 8b00 a43a
00000360: 49e4 ec3a b9e7 103a 46ac a93a 4643 fe3b
00000370: 3c83 f03a 1161 b33b 4cde 1139 f240 05ba
00000380: d64b 153b 7707 34ba 22fc 0bbc 0000 0000
00000390: f26f ffb9 eb0b 523a b163 ad3b aceb 493a
000003a0: 9714 d0bb ed58 a9bb 0000 0000 0df4 99ba
000003b0: d608 5938 304e 843a ad49 bbba 8b04 18bb
000003c0: 3a02 413b 0000 0000 2227 9bb9 d38d 05bb
000003d0: dc71 97bb 0631 4c39 c297 253a 8393 b938
000003e0: cd77 9939 324d 00ba 51f6 18bc e269 033b
000003f0: b268 823b 343b 543a 1c79 a9bb 140e 033a
