models/blood/28-_manhattan_sobel.pth (torch, 27240 bytes, 3 tensors)

conv.0.weight f4 [128, 32, 1, 1]
0	0xbe22aae5	-0.15885504
1	0xbe04e8e1	-0.12979461
2	0xbdf365f7	-0.118846826
3	0x3e2ae037	0.16687094
4	0xbd168284	-0.036745563
5	0xbe029a3b	-0.12754147
6	0x3d5bc28c	0.05365233
7	0xbc368d16	-0.011142036
8	0x3ce55134	0.027992822
9	0x3d333765	0.043754
10	0x3dcae204	0.0990639
11	0xbc312ecd	-0.010814381
12	0xbc85abc0	-0.016317248
13	0x3e1c2f15	0.15252335
14	0xbd9075cc	-0.07053718
15	0x3d2ecf7c	0.04267834
16	0x3d8ca95d	0.06868241
17	0x3dd42305	0.10358242
18	0x3d1bc0bd	0.038025606
19	0xbbb67b1b	-0.0055688745
20	0x3db43d3f	0.08800744
21	0x3dab1826	0.08354215
22	0x3e384ef8	0.17998874
23	0x3e1a096d	0.15042658
24	0x3e23e07f	0.16003607
25	0x3dc347b3	0.0953516
26	0xbdab8e1c	-0.083767146
27	0x3d676201	0.05648995
28	0x3e16fd43	0.14745049
29	0xbe12297c	-0.14273638
30	0x3dd9101a	0.10598774
31	0x3d415b41	0.047206167
32	0x3e008270	0.12549758
33	0xbe40ba4d	-0.18821068
34	0xbe10b372	-0.14130953
35	0x39fb6b6c	0.00047954486
36	0xbe451074	-0.19244558
37	0xbe224065	-0.15844877
38	0xbaa76f05	-0.0012774175
39	0xbe913d9c	-0.28367317
40	0xbdca99e4	-0.098926336
41	0x3ce4e06f	0.02793905
42	0xbd6f5184	-0.05842735
43	0xbe33c60b	-0.17556016
44	0x3d0a4cab	0.033764523
45	0xbdd3ce88	-0.10342127
46	0xbdda895f	-0.10670733
47	0xbe0c81a0	-0.13721323
48	0x3cb9e889	0.02269389
49	0xbe000637	-0.12502371
50	0xbe003df7	-0.12523638
51	0xbd9b7cc6	-0.07592158
52	0x3d651205	0.055925388
53	0x3de53298	0.111912906
54	0x3d24057a	0.040044285
55	0x3df83391	0.121192105
56	0xbd0a6f27	-0.03379741
57	0x3d3da818	0.046302885
58	0x3dadb325	0.08481435
59	0x3e1aff81	0.1513653
60	0xbcae318b	-0.021263858
61	0xbd8b533c	-0.06802985
62	0xbdc8ebc8	-0.09810597
63	0xbdc005a1	-0.09376074
64	0xbe1b27fa	-0.15151969
65	0x3e4c2739	0.19936837
66	0xbe4f51d0	-0.20246053
67	0x3e090592	0.13381031
68	0x3d4ed61a	0.050497152
69	0x3d9bfd14	0.0761663
70	0xbe58126c	-0.21100777
71	0x3eaab663	0.33342275
72	0x3b4b6df8	0.0031040888
73	0xbd42f61b	-0.047597986
74	0x3d3c4ee7	0.045973685
75	0xbd61bed1	-0.055113617
76	0xbd281d1f	-0.041043397
77	0x3e007629	0.12545075
78	0xbda4f85e	-0.08055185
79	0x3dc6fc8b	0.097161375
80	0xbd65d86c	-0.0561146
81	0x3c6592c9	0.014012047
82	0xbb543e65	-0.0032385823
83	0x3e027169	0.12738575
84	0xbb933c43	-0.0044932677
85	0x3dd17da1	0.1022904
86	0x3de6697e	0.1125059
87	0x3e236303	0.15955739
88	0x3c1e96a6	0.009679472
89	0x3daeb299	0.085301585
90	0x3c1b0037	0.0094605
91	0x3d2a492f	0.0415737
92	0xbd68f5b3	-0.056874942
93	0x3dabf992	0.08397211
94	0xbdcbde14	-0.099544674
95	0xbddf4b17	-0.10902994
96	0x3d1c505d	0.038162578
97	0x3d9bd845	0.076096095
98	0x3d82fc7d	0.063958146
99	0x3e199c8d	0.15001126
100	0xbe3b7579	-0.18306531
101	0xbdc5ebbc	-0.096641034
102	0xbe171d39	-0.14757241
103	0x3dbab456	0.091164276
104	0x3ca1ca62	0.019749824
105	0x3de8df72	0.11370744
106	0xbcd9960f	-0.026560811
107	0xbdcdff81	-0.10058499
108	0xbd867973	-0.06566133
109	0x3e12e54a	0.1434528
110	0x3cb77745	0.02239574
111	0xbdaa1539	-0.08304829
112	0x3c987347	0.018609656
113	0xbdea524a	-0.11441477
114	0x3e076ca6	0.1322504
115	0x3d8cafa2	0.06869437
116	0x3c8d49dd	0.017247135
117	0x3db9c9dd	0.090717055
118	0x3c9fc65b	0.019503763
119	0x3d762cec	0.060101435
120	0xbd75e56f	-0.060033258
121	0x3cfc3310	0.030786067
122	0x3d38a75d	0.045081485
123	0xbc92075a	-0.017825771
124	0xbb9777de	-0.0046224436
125	0xbdc8fb00	-0.098134995
126	0x3d31f448	0.043445855
127	0xbd97ad91	-0.07406152
128	0x3e79152c	0.24324483
129	0x3cc3f436	0.02392016
130	0x3d607014	0.054794386
131	0x3c0dbde0	0.008651227
132	0x3db330c4	0.08749536
133	0xbdb9fb8a	-0.090811804
134	0x3e9099c3	0.2824231
135	0x3d695e47	0.056974676
136	0x3e63e0f1	0.22253777
137	0x3e216a86	0.15763292
138	0xbe0d71a8	-0.13812888
139	0xbe3d2233	-0.18470077
140	0x3dc9788f	0.09837448
141	0xbd87abe6	-0.06624584
142	0x3ca2604b	0.019821307
143	0x3dc32db8	0.095302045
144	0x3dc241fc	0.09485242
145	0x3b7bad9c	0.003840304
146	0xbcd57c40	-0.026060224
147	0x3d6e83bd	0.058231104
148	0xbdfe19bc	-0.12407252
149	0x3db17def	0.08666598
150	0xbd8ae499	-0.06781883
151	0x3de4bcc2	0.11168815
152	0xbd17149c	-0.03688489
153	0xbd9ff4f3	-0.07810392
154	0xbdef5b49	-0.11687333
155	0x3d675baf	0.05648392
156	0x3ca7c928	0.020481661
157	0xbd9e3989	-0.07725818
158	0x3dff7abe	0.12474583
159	0xbcc84a52	-0.024449501
160	0xbe071d72	-0.13194826
161	0xbd318990	-0.04334408
162	0x3d065815	0.032798845
163	0xbdc2f078	-0.09518522
164	0x3cbd341b	0.023096135
165	0x3d12ef95	0.035873014
166	0xbe6e2ae6	-0.23258552
167	0xbde212c0	-0.110387325
168	0xbdf0aaf9	-0.117513604
169	0x3b66859c	0.0035174852
170	0x3d92e9d7	0.07173508
171	0xbdd93b7a	-0.106070474
172	0xbdc0157d	-0.093790986
173	0x3c86b874	0.016445376
174	0xbdd6374b	-0.10459765
175	0x3cf2ccc9	0.029638665
176	0x3dc2fa23	0.09520366
177	0x3d82672a	0.06367333
178	0xbc075453	-0.008259851
179	0x3dede50e	0.11615954
180	0x3d2a8032	0.041626163
181	0x3d8b81fb	0.06811901
182	0x3c9d052b	0.019167503
183	0x3db1126b	0.08646091
184	0x3ac1cb40	0.0014785305
185	0x3d858354	0.065191895
186	0x3c64bb35	0.013960649
187	0x3d6f490a	0.058419265
188	0x3dc7aed4	0.09750143
189	0x3e059b4b	0.13047521
190	0xbdf6f68d	-0.120587446
191	0xbd36df87	-0.044646766
192	0xbe0f8bb5	-0.14018138
193	0x3d81b35c	0.06333038
194	0x3e328218	0.1743244
195	0xbe3e2de4	-0.18572193
196	0xbe029e75	-0.12755759
197	0xbcaf0d83	-0.021368748
198	0x3c353d7c	0.011062022
199	0xbe254d1d	-0.16142698
200	0x3dbfe752	0.09370293
201	0xbd8f0384	-0.069830924
202	0x3d4c80f9	0.049927685
203	0xbe2ead84	-0.17058378
204	0x3d36ca2c	0.0446264
205	0x3d58b026	0.052902363
206	0xbcb9e2a0	-0.022691071
207	0xbe0b24e0	-0.13588285
208	0xbdb58c66	-0.088646695
209	0xbd93ff9f	-0.0722649
210	0xbcf47734	-0.029841997
211	0xbd07c8d1	-0.033150498
212	0xbdcc73b2	-0.09983005
213	0x3d644f92	0.055739947
214	0x3db12df2	0.086513415
215	0xbc0e942e	-0.008702321
216	0x3d821fbc	0.06353709
217	0x3e2b6faa	0.16741815
218	0xbd3548ce	-0.044258885
219	0x3cea9898	0.028637215
220	0xbd53766d	-0.05162661
221	0xbd0bd5cb	-0.034139436
222	0x3b5f9cf1	0.0034120644
223	0x3dc1f051	0.09469665
224	0xbe2ad8c5	-0.16684254
225	0xbc235a53	-0.009970265
226	0xbcd2effa	-0.025749195
227	0xbdb3f4ab	-0.08786901
228	0xbeb53d50	-0.3539834
229	0xbe728473	-0.23683338
230	0xbeba2fe8	-0.36364675
231	0xbe737d83	-0.23778348
232	0xbccdef68	-0.025138572
233	0xbc63fdb5	-0.013915469
234	0xbc64111f	-0.013920098
235	0xbd4111f5	-0.047136266
236	0xbd6bb325	-0.057543892
237	0xbca3ccee	-0.019995179
238	0xbdfb1e8f	-0.12261688
239	0xbdcb2ed3	-0.099210404
240	0xbe06fab7	-0.13181578
241	0xbd14c617	-0.036321726
242	0x3c33a39e	0.010964302
243	0x3bc31f81	0.0059546833
244	0xbcc59615	-0.024119416
245	0x3d86fd53	0.065912865
246	0x3d5857c4	0.052818075
247	0x3c58a2ec	0.013222437
248	0xbb52ed97	-0.0032185072
249	0x3b531308	0.0032207388
250	0xbd01d215	-0.03169449
251	0xbb6ec4bf	-0.0036433188
252	0xbc8df8d3	-0.017330563
253	0xbd93ba70	-0.072132945
254	0xbc172c9f	-0.009226947
255	0x3d2a092d	0.041512657

conv.0.bias f4 [128]
0	0xbc20d3c8	-0.009816118
1	0x3ddcf061	0.10788036
2	0xbd8e7f16	-0.069578335
3	0x3dcb4199	0.09924621
4	0xbc51b202	-0.012798788
5	0x3e0cf879	0.1376666
6	0x3ca3c555	0.019991556
7	0xbda4ce51	-0.08047164
8	0xbac31cd0	-0.0014885906
9	0xbe5b9e35	-0.2144707
10	0x3e2efeec	0.17089432
11	0x3e047256	0.1293424
12	0x3d5b1699	0.053488348
13	0x3e17a044	0.1480723
14	0xba7652d7	-0.00093964994
15	0xbd1e18a0	-0.038597703
16	0xbe48d22f	-0.19611429
17	0xbccd6323	-0.025071686
18	0xbb9aaa36	-0.0047199978
19	0xbe23f0b4	-0.1600979
20	0xbc5994cd	-0.013280106
21	0xbb0c3b49	-0.0021397641
22	0x3c95736f	0.01824352
23	0xbe1d8f00	-0.15386581
24	0xbcae4b1c	-0.02127605
25	0x3dbfc004	0.09362796
26	0xbe62ac65	-0.22136076
27	0xbd3edb18	-0.046595663
28	0xbd317298	-0.043322176
29	0x3db5db6a	0.088797405
30	0xbe7b401f	-0.24536179
31	0x3e18be1e	0.14916274
32	0x3d989579	0.07450385
33	0xbc77f76d	-0.0151346745
34	0xb9f03e5b	-0.00045822826
35	0xbb32e997	-0.0027299875
36	0x3e15bfc9	0.14623941
37	0xb99b7b76	-0.0002965589
38	0xbc389093	-0.011264938
39	0x3d83a854	0.064285904
40	0xbe443cff	-0.19163893
41	0xbc18021c	-0.009277847
42	0xbd764f6e	-0.060134344
43	0xbe6659a6	-0.22495136
44	0x3d9dc0c0	0.0770278
45	0x3dea8fd3	0.114532135
46	0x3bb9aef5	0.0056666085
47	0xbcbad93d	-0.022808665
48	0x3e0961db	0.13416235
49	0x3e2d930e	0.16950628
50	0x3d1b835d	0.037967075
51	0x3d335116	0.0437785
52	0xbb199722	-0.002343603
53	0xbd8da6d5	-0.06916586
54	0x3c59183b	0.013250406
55	0xbd8eaa9c	-0.06966135
56	0xbb873d1a	-0.004127157
57	0x3da7ef28	0.08199912
58	0x3bcbb589	0.006216709
59	0xbc337e0e	-0.010955347
60	0xbc89d020	-0.016822875
61	0xbc244c12	-0.010027902
62	0x3d32715f	0.04356515
63	0x3df5ee96	0.12008397
64	0xbe19ead5	-0.15030988
65	0xbd12a51f	-0.035802003
66	0xbd14410f	-0.036194857
67	0xbd0a811f	-0.033814546
68	0xbdf317f9	-0.11869807
69	0x3b894dbf	0.0041901763
70	0x3db7fe8e	0.08984099
71	0xbc53fa69	-0.01293812
72	0x3d9d8b1a	0.07692547
73	0xbc683f20	-0.014175206
74	0xbd898c65	-0.06716231
75	0xbcf7e2bc	-0.030259483
76	0x3ded09a9	0.11574108
77	0xbddb17a4	-0.106978685
78	0x3d99c9fa	0.07509227
79	0x3c203ac1	0.009779633
80	0x3d8617a3	0.06547477
81	0x3db7f156	0.08981578
82	0x3e2a0f9d	0.16607518
83	0xbd4664fe	-0.048436157
84	0xbc91b9c6	-0.017788779
85	0xbdf6780a	-0.120346144
86	0xba4c746d	-0.0007799331
87	0x3da6a803	0.081375144
88	0xbc1f7d72	-0.009734498
89	0xbdf67ace	-0.12035142
90	0xbe6bd0fe	-0.23028943
91	0x3b621927	0.0034499855
92	0xbc3117ac	-0.0108088665
93	0xbe1e7452	-0.1547406
94	0xbca0d7e9	-0.019634204
95	0xbc37546b	-0.01118956
96	0x3db872fe	0.09006308
97	0x3bdff6b7	0.0068348306
98	0x3e18364c	0.14864463
99	0xbe0f1e75	-0.13976462
100	0x3d515ccf	0.0511139
101	0xbd3529f6	-0.04422947
102	0xbe15e815	-0.14639314
103	0xbe63df81	-0.22253229
104	0xbe5312c9	-0.20612635
105	0xbc893b14	-0.016751803
106	0xbe284fa2	-0.16436628
107	0x38ece2b3	0.00011295583
108	0xbc63a890	-0.013895169
109	0xbb9f63ef	-0.004864208
110	0x3d8d89c5	0.06911043
111	0x3dccb843	0.09996083
112	0x3de9ae80	0.11410236
113	0xbc9ea26c	-0.019364558
114	0xbd0d94c0	-0.034565687
115	0xbe224b2b	-0.15848987
116	0xbc842db6	-0.016135078
117	0xbdf5f548	-0.12009674
118	0x3c227f9b	0.009918119
119	0xbd7145b1	-0.058904354
120	0x3d0527f7	0.032508817
121	0xbe3b3984	-0.18283659
122	0xbcd8384a	-0.026394028
123	0xbb88bb48	-0.0041727163
124	0xbd876254	-0.066105515
125	0xbc838200	-0.0160532
126	0xbd94282d	-0.072342254
127	0xbe1deedb	-0.15423147

conv.2.weight f4 [16, 128, 1, 1]
0	0xbbbf1cac	-0.0058322754
1	0x3b629612	0.0034574312
2	0xbb6a377a	-0.0035738633
3	0x3bb533a5	0.005529838
4	0xbbaee04c	-0.005336797
5	0x3bc610f6	0.0060445024
6	0x3afac0df	0.0019130966
7	0x3b131826	0.0022444814
8	0xbc260994	-0.01013412
9	0x3c223015	0.009899159
10	0x3c058029	0.008148232
11	0x3badb339	0.005300906
12	0x3be4833e	0.006973653
13	0x3c2db6e4	0.010602687
14	0xbb91df49	-0.0044516665
15	0xba925e31	-0.0011166987
16	0x3bd64943	0.006539495
17	0xba236606	-0.0006233159
18	0xbc1b034a	-0.009461233
19	0x3c2f366e	0.010694129
20	0xbc474f9c	-0.012164976
21	0xb9ec092b	-0.00045020258
22	0x3b1325ca	0.0022452944
23	0x3bb9a2b1	0.0056651463
24	0xbc061600	-0.008183956
25	0x3c215cdc	0.0098488
26	0x3c23b43d	0.009991703
27	0x3a492441	0.0007672944
28	0xbc583d9b	-0.013198282
29	0x3c00386a	0.00782595
30	0x3c85e1f6	0.016343098
31	0x3bb076c3	0.0053852513
32	0x3aaad8b7	0.0013034557
33	0xbbe79b40	-0.007068068
34	0xbc6a4cbf	-0.014300524
35	0xbb2c2a91	-0.0026270489
36	0x3bad7ce7	0.0052944305
37	0xbc97ccdd	-0.018530304
38	0xbba5fd25	-0.0050655776
39	0x3c00bc17	0.007857344
40	0x3be362be	0.006939261
41	0xbc186bf6	-0.009303084
42	0xbb2137a4	-0.0024599815
43	0x3bb29b49	0.0054506403
44	0x3c287647	0.010282106
45	0x3b97a263	0.0046275123
46	0x3b23e2d1	0.002500702
47	0xbb86165f	-0.0040920223
48	0x3bd4d80c	0.0064954814
49	0x3c5bd9ff	0.013418674
50	0x3aa34afd	0.0012458261
51	0x3c198407	0.009369857
52	0xbb591a33	-0.0033127188
53	0xbb193ba8	-0.0023381505
54	0x3a062071	0.00051165285
55	0xb9181f53	-0.00014507519
56	0xbc1caf5c	-0.009563293
57	0x3bd96ecd	0.006635523
58	0xbc0f0cfb	-0.008731122
59	0xbc1b4f34	-0.009479333
60	0xbbee0567	-0.0072638276
61	0xbbaf6af9	-0.0053533283
62	0x3bf077ec	0.0073385146
63	0x3bd0e26d	0.0063746483
64	0x3b57f7fb	0.0032954204
65	0xbbe61ed8	-0.00702272
66	0xbb42f7fa	-0.0029749856
67	0xbb4f5bfa	-0.0031640516
68	0xbaecf960	-0.0018079691
69	0xbb9290e2	-0.004472838
70	0x3c2b9c60	0.010474294
71	0xbbe5f822	-0.007018105
72	0x3c008dc1	0.007846297
73	0xbb6cb887	-0.003612073
74	0xbb04d0d5	-0.0020266075
75	0xbc029470	-0.007969961
76	0x3b451a09	0.0030075333
77	0xbb364302	-0.0027810936
78	0x3a571fcb	0.00082063366
79	0x3aceba91	0.0015772154
80	0x3b1ce638	0.0023940932
81	0x3bc0c6ae	0.0058830595
82	0x3c345097	0.011005542
83	0xba52db77	-0.0008043567
84	0xbc2e8b8b	-0.010653387
85	0xbbb2ae53	-0.00545291
86	0xbb275f38	-0.0025538933
87	0x3c31fb8f	0.010863199
88	0xbab747d1	-0.0013983195
89	0x3aa55448	0.0012613619
90	0x3c723796	0.0147837605
91	0x3ad24fc2	0.0016045498
92	0xbbcd31a7	-0.0062620225
93	0x3b1bfded	0.0023802475
94	0xbc70f99b	-0.014707948
95	0xbb84a2a9	-0.004047711
96	0x3b0c9299	0.0021449684
97	0xbb41e080	-0.0029583275
98	0x3c024add	0.007952419
99	0x3c11327f	0.008862137
100	0x3b8e7487	0.0043473872
101	0xbbacdec8	-0.005275581
102	0xbb66a69c	-0.0035194522
103	0x3c8e9312	0.017404113
104	0x3c2b3032	0.010448502
105	0xbc1033fd	-0.0088014575
106	0x3b447d72	0.0029981998
107	0xbc4ea48c	-0.012612473
108	0xbc6cf30d	-0.014462245
109	0xbc95d507	-0.018290056
110	0x3b683bb5	0.0035435979
111	0x3c12aabd	0.00895184
112	0x3b8f455f	0.0043722834
113	0x3bb46f5a	0.005506438
114	0xbb91b706	-0.004446867
115	0x387ec2eb	6.073985e-05
116	0xbc4fad02	-0.012675526
117	0xbac5b0ed	-0.0015082635
118	0x3a36eb52	0.00069778145
119	0x3ae5cdac	0.0017532608
120	0x3a45d7eb	0.0007547128
121	0x3c9e93ab	0.019357523
122	0xbbb0cad3	-0.0053952723
123	0xba49fe2a	-0.0007705415
124	0xbada76c1	-0.0016667472
125	0xbb9c1da8	-0.0047642775
126	0xbb2dfbe9	-0.0026547855
127	0x3c3a4f74	0.011371482
128	0xbbbe9880	-0.0058165193
129	0x3b33f6a9	0.0027460253
130	0xbb23fe5d	-0.0025023439
131	0x3b9c7966	0.004775214
132	0xbb8890b9	-0.004167643
133	0x3b9d481f	0.0047998573
134	0x3b20adad	0.0024517581
135	0x3b798543	0.0038073815
136	0xbbe05994	-0.006846616
137	0x3c07415f	0.008255332
138	0x3bc21bef	0.00592374
139	0x3b34535b	0.0027515504
140	0x3baa0195	0.005188177
141	0x3c1b6c68	0.009486295
142	0xbb66a3a9	-0.0035192764
143	0x399162fc	0.00027730304
144	0x3bce3a01	0.0062935357
145	0xba071a56	-0.00051537657
146	0xbc03599e	-0.008016972
147	0x3c34773b	0.011014755
148	0xbc2af3fd	-0.010434148
149	0xb814bbbf	-3.5460802e-05
150	0x3b0b144c	0.0021221815
151	0x3afd078d	0.0019304618
152	0xbbe98102	-0.0071259746
153	0x3c1e1cfe	0.009650467
154	0x3c15f7ea	0.009153346
155	0x391a116b	0.00014693073
156	0xbc308cd5	-0.0107757645
157	0x3be0557d	0.0068461285
158	0x3c7f99fa	0.015600676
159	0x3b8fa78f	0.004383988
160	0x38fcbbd7	0.00012051284
161	0xbbad028f	-0.005279846
162	0xbc5be785	-0.013421898
163	0xbb4db494	-0.003138815
164	0x3ba2488a	0.004952495
165	0xbc866319	-0.016404675
166	0xbb9bc779	-0.0047540036
167	0x3bd19bb5	0.0063967356
168	0x3bdc5e6f	0.0067251245
169	0xbc08e886	-0.008356219
170	0xbac6f3ca	-0.0015178856
171	0x3bb022b8	0.0053752325
172	0x3c099245	0.00839669
173	0x3b3ace2e	0.002850424
174	0x3b42ec10	0.0029742755
175	0xbb833b31	-0.004004859
176	0x3bba4d75	0.005685503
177	0x3c41228b	0.011788021
178	0xb9ffec96	-0.0004881366
179	0x3c08f2f3	0.008358705
180	0xbb444112	-0.0029946011
181	0xbafbb818	-0.0019204644
182	0x3a3e65f7	0.0007263119
183	0xba29aa76	-0.0006472239
184	0xbc0b2a80	-0.0084940195
185	0x3bd0983b	0.0063658035
186	0xbbe91dfa	-0.007114169
187	0xbc1019f7	-0.008795253
188	0xbbcdd8ea	-0.0062819617
189	0xbb9c3e47	-0.004768166
190	0x3bcd0509	0.0062567038
191	0x3b9be16f	0.0047570984
192	0x3b4873d1	0.003058661
193	0xbbf4aa95	-0.007466624
194	0xba8bad69	-0.0010656539
195	0xbb3c9de6	-0.0028780638
196	0xbb170fc0	-0.002305016
197	0xbb8a14bd	-0.004213898
198	0x3c245433	0.01002984
199	0xbbc01446	-0.005861792
200	0x3bf2e8e2	0.0074130157
201	0xbabd3188	-0.0014434317
202	0xb990b227	-0.00027598554
203	0xbbe1dd6f	-0.006892852
204	0x3b11079c	0.002212978
205	0xbb489797	-0.0030607933
206	0x3a412260	0.0007367488
207	0x3a981464	0.0011602757
208	0x3aa687b4	0.0012705238
209	0x3b864a6a	0.0040982263
210	0x3c133500	0.008984804
211	0x38ae7ec6	8.32058e-05
212	0xbc165ace	-0.009176923
213	0xbbb13f69	-0.0054091704
214	0xbb4d3f39	-0.0031318201
215	0x3c107fb0	0.008819506
216	0xbaacd7cf	-0.0013186875
217	0x3ac783c4	0.0015221764
218	0x3c3abe60	0.011397928
219	0x3b2610ee	0.002533968
220	0xbbb766c2	-0.0055969665
221	0xba913af4	-0.0011080191
222	0xbc5488ba	-0.012972051
223	0xbb56ac45	-0.003275649
224	0x3abfbdb1	0.0014628676
225	0xbb31f528	-0.002715418
226	0x3bed98be	0.0072508743
227	0x3c059fb9	0.008155757
228	0x3b91fccd	0.004455185
229	0xbb855859	-0.0040693698
230	0xbb745560	-0.0037282333
231	0x3c745d84	0.014914874
232	0x3c186fc8	0.0093039945
233	0xbc01995e	-0.007910101
234	0x3b4f6279	0.0031644388
235	0xbc4ce454	-0.01250561
236	0xbc56eeb4	-0.013118435
237	0xbc7f5443	-0.015584054
238	0x3aa9b09b	0.0012946309
239	0x3c050b98	0.00812044
240	0x3b6d1baf	0.003617983
241	0x3bf2d62d	0.0074107856
242	0xbb868fa5	-0.004106479
243	0xba79b2cc	-0.0009525239
244	0xbc2783d1	-0.010224299
245	0xba823453	-0.0009933807
246	0x3a8a58d3	0.0010555036
247	0x3aa846ad	0.0012838446
248	0xb872ea0f	-5.791528e-05
249	0x3c91ee53	0.017813837
250	0xbba29377	-0.004961427
251	0xb866cb02	-5.502534e-05
252	0xbb25c726	-0.0025295704
253	0xbba0c6bf	-0.004906505
254	0xbad56a0b	-0.0016282214
255	0x3c38b0a5	0.011272584
