models/blood/28-_manhattan_gaussian.pth (torch, 19133 bytes, 3 tensors)

conv.0.weight f4 [128, 16, 1, 1]
00000000: 454f 553d a000 933d c982 d1bd 0f14 b8bd
00000010: 1c8f 263e da9d f53d 182f 093e 0432 3fbe
00000020: a3f4 d7bd 0cad b4bd 3d1d 2b3e e1a9 07be
00000030: 801f 06bc 67e6 283e bd5d 2cbd 4269 f9bd
00000040: 2021 2c3d 5f52 a8bd dbd8 e9bd 8bcb 0abe
00000050: cb10 dc3d 5db9 3f3e e409 ccbd 1c23 4fbe
00000060: 3109 4b3e 92cc 783e 4b34 d9bc c862 1d3c
00000070: 43c8 31be 07a5 14be ccb4 10be e9d9 2a3e
00000080: 9d30 153e c569 76bb 0d0e 3dbd cd6d 693c
00000090: 5e2c 343e 4ef2 e3bc 8024 bebd a4b8 2ebe
000000a0: 4761 403d 1325 d0bd e9ae 86be 5519 f03d
000000b0: 4f46 2cbe 7b64 f1bd 4653 25be 3b50 80be
000000c0: 6fd2 d2bd 32d2 07be c503 a53c b2c5 2e3e
000000d0: 02d5 663d 60f4 85be 150c 82be 78d5 1ebc
000000e0: 1ceb 0c3e 8e09 663d edd8 05bd ac1c bd3d
000000f0: 30ac 393e f0d1 683d 866c a13d f890 74bd
00000100: 12f0 c13b 771c 44be caaf 4abe 8b8e 37be
00000110: 71df adbd d106 2d3d d4a5 5fbe 6b0a 38be
00000120: 7a98 4dbe 9a44 1a3e 2c26 dd3d 25a4 0c3e
00000130: 7295 ae3d 2d22 e93c 5862 023e 0810 e53b
00000140: 7b7f 1b3e 621c 39be ca7b bbbd 3062 60be
00000150: 1eaf d8bc a567 dbbd 3b43 5c3d c4b0 afbd
00000160: 19d1 863d ab2c d43d 97b3 44be 8b64 46bd
00000170: 9958 29be f38b 3a3d b632 703d c423 1d3e
00000180: e2f9 41be 4b8e a9bb 90d3 f13c 467c 1ebe
00000190: ca74 a43d 789c bd3c de2b 11be d670 3bbe
000001a0: 337f 553e 0697 84bc 8f24 93bd fb36 37be
000001b0: 7007 443e 8365 e63d 8324 a03d 69eb 513c
000001c0: 001e 8e3d 1215 55bd c14d 23be fd50 0ebe
000001d0: f45c 5a3e f505 4b3e 56f0 b8bc e755 93bc
000001e0: 8032 c53d 6e54 0cbe 84a9 20be 945b 3fbe
000001f0: a3f7 1a3e 5a2a cdbd 5d91 133e 509f 67be
00000200: eb5b f3bd a1c0 873c 46d4 64bd fa49 a03d
00000210: b1ff 953d 8b4d c93c 8259 593d 5aa9 e93c
00000220: 2e23 b43d 8f38 eabd c9a7 863d cafe 00be
00000230: 89d8 98bd b0da 6abc 4f02 75bd 8b2f 533e
00000240: 37af a53d 19dd 17be 1d3f 88bd 3481 483e
00000250: 34e3 5b3e a440 40bd 450f ddbc 5d54 8d3c
00000260: 5529 9abd 8514 5b3e d280 79be ab49 c13d
00000270: 16d3 593e b817 5ebd 0a33 41bc e30b 323e
00000280: 2cef 0e3d be44 ce3d 7b5d 1abb f773 7bbe
00000290: 5efd 0fbd fdbb 103e de55 f93d 9abd aa3d
000002a0: a360 68b8 3d01 8bbe 1ee3 53be 55c8 213e
000002b0: 8028 d4bd db1d 22be 3f15 213e f9be 08be
000002c0: 3cd2 98bd 1ef7 2b3d f12a 4f3e 2883 93be
000002d0: 26c5 a83d 0606 0bbd 802d 713e 4a30 65bc
000002e0: 3e10 8e3d c696 51bd 1c71 85be ef01 2b3e
000002f0: a760 27be c253 d0bd e589 1c3e 0dae 84bd
00000300: 4c1a 813d 7a8d 513e 6979 f53d b3ea 473e
00000310: c694 b1bd d609 99bd 0382 21be a1e0 8cbd
00000320: 5de4 fd3d 52a1 24be e489 b33d ca0e 2bbc
00000330: 53ba 1ebb 290d c4bd 00c9 12be 2497 18be
00000340: 3f1a 81be fe28 0dba 21b2 5b3e 2b3b 25be
00000350: cc47 923d 95e7 6d3e d273 b13c c132 13be
00000360: f022 583e 18b9 533e 3348 53bd c27b e5bc
00000370: 5d93 1bbe d111 823c 45a2 81be a8ba 46bc
00000380: 0b95 a63c 3f49 5cbc 08c6 133e eae6 79be
00000390: 6f53 333e e55f 523e 617b 0e3e 442f 2fbc
000003a0: 060b 2abe 9576 68be 1a12 59be 0689 053e
000003b0: fcda 5abd 796a 7fbe 84e0 5d3e ffe7 dfbd
000003c0: 2b70 80be 5aa7 003e df95 f23d 814f 56be
000003d0: abb1 053e fb2a 5fbe b8a7 4d3e 0ac8 333e
000003e0: 0b21 2e3e 2c10 81be 4143 79be 0b51 4d3e
000003f0: d098 b63d a2ac 6cbe a339 1dbd 78b5 133e
0.05207755 0.071778536 -0.102300234 -0.08988201 0.1626553 0.119929984 0.13396871 -0.18671423
-0.105447076 -0.088220686 0.16710372 -0.13248397 -0.008186221 0.16494142 -0.042081583 -0.121782795
0.042023778 -0.08218836 -0.11418315 -0.13554208 0.107453905 0.18723054 -0.09962824 -0.20228237
0.19827725 0.24296787 -0.026514193 0.009606071 -0.1736155 -0.14516078 -0.14131469 0.16684689
0.14569326 -0.0037599665 -0.046155978 0.01424737 0.1759505 -0.0278255 -0.092843056 -0.17062622
0.04696777 -0.10163321 -0.2630532 0.11723582 -0.16823696 -0.11786743 -0.16145048 -0.2506121
-0.10294043 -0.13263777 0.020143399 0.17067602 0.056355484 -0.26163006 -0.25399843 -0.00969445
0.13761562 0.056161456 -0.03267758 0.09233984 0.1813209 0.056840837 0.07882027 -0.059708565
0.005918511 -0.19151483 -0.1979362 -0.1792547 -0.08489884 0.04224283 -0.21840602 -0.17972724
-0.20077696 0.15065232 0.10798296 0.13734491 0.08524598 0.02845868 0.12732828 0.0069904365
0.15185349 -0.18077233 -0.0915447 -0.21912456 -0.02645069 -0.10713128 0.053775053 -0.08578637
0.06582851 0.10360082 -0.19209133 -0.04843573 -0.16537704 0.045543622 0.05864211 0.15345675
-0.18942979 -0.0051744333 0.029519826 -0.15477094 0.08030088 0.0231459 -0.1417689 -0.18304762
0.20849304 -0.016185295 -0.071847074 -0.17892067 0.19143462 0.112498306 0.07819464 0.012812474
0.06939316 -0.052022047 -0.1594763 -0.13898082 0.21324521 0.19826491 -0.022575539 -0.017985297
0.09628773 -0.13704082 -0.15689665 -0.18687278 0.15133528 -0.100178435 0.1441092 -0.22619367
-0.11882766 0.016571345 -0.055866502 0.0782661 0.0732416 0.024573108 0.053063877 0.028523136
0.087957725 -0.11436569 0.06574971 -0.12597194 -0.07463176 -0.014334366 -0.059816655 0.20623605
0.0809006 -0.14830436 -0.06652663 0.19580537 0.2147339 -0.046936646 -0.02698482 0.017252142
-0.07527415 0.21394546 -0.24365547 0.09437879 0.21271929 -0.05422184 -0.011791954 0.17387347
0.03489606 0.10071705 -0.0023554254 -0.24555956 -0.03515374 0.14134212 0.12174581 0.08336945
-5.540311e-05 -0.27149382 -0.20692107 0.15799077 -0.10359287 -0.15831701 0.15730761 -0.133541
-0.07461974 0.041983716 0.20231225 -0.28811002 0.08240728 -0.03394129 0.23552513 -0.013988564
0.06936692 -0.05116918 -0.26062858 0.16699956 -0.16345464 -0.101722255 0.15286978 -0.0647851
0.06303844 0.20464125 0.11986048 0.19523124 -0.086709544 -0.07472579 -0.15772252 -0.06878782
0.123970725 -0.16077164 0.08766535 -0.010440538 -0.0024219945 -0.095728226 -0.14334488 -0.14901406
-0.25215337 -0.00053848315 0.2145467 -0.16135852 0.071426004 0.23232873 0.021661673 -0.1437483
0.21107078 0.20676076 -0.051582526 -0.028013114 -0.15192933 0.015877636 -0.25319114 -0.012129463
0.020334741 -0.013445198 0.14431012 -0.24404493 0.17512296 0.20544393 0.13914253 -0.010692421
-0.16605768 -0.22701485 -0.21198311 0.13040552 -0.053431496 -0.2494296 0.21667677 -0.109329216
-0.25085577 0.1256384 0.11844992 -0.20928766 0.13056056 -0.2179374 0.20083511 0.17556778
0.17004792 -0.2520765 -0.24342062 0.20050447 0.089158654 -0.23112729 -0.038385045 0.14424694

conv.0.bias f4 [128]
00000000: 6b9d c4bd 1ceb 223d 3b9f 033e 0539 adbc
00000010: 1192 553e 6660 16be 7714 253e 8cb8 423e
00000020: ba96 a13d 14d7 a53d 90f8 d33c ea54 4a3a
00000030: 1164 b9bd 7acd 683e 9fc3 fc3c a5ae 19bd
00000040: a009 5e3e 0d28 863e 16db 2c3d 103b af3d
00000050: eacc 8e3d b95e 76be fcf9 3abe 734e cebd
00000060: 1fcd 4f3d e3d8 62be 6daf 58be 8679 8b3e
00000070: 4ce2 093e 0813 55be 7d54 38be 5738 213e
00000080: 31f6 3dbe 1360 dfbc 21b1 113e 6de4 e13d
00000090: f304 a0be 2c5f c0bd 3ad1 473e ad02 b13d
000000a0: b99b e63d ec20 3c3d 6349 52be 92ac 9e3d
000000b0: 5c6e cebd 7371 e73d 487c 583e bbbc 77be
000000c0: f0c9 55bd d879 47be d9d6 30bd f85f c2bd
000000d0: 178e 64be 9994 913c 4121 433e 10a4 60be
000000e0: c28f 0fbd b707 e23b 66d4 c1bd c164 bfbd
000000f0: 22ab 053d 596d 393e 3046 0dbe d01c 973c
00000100: c5c0 123e 9acf 5bbe 52fd 993d 9d1a 37bc
00000110: 2917 813d ad64 043e 8dda 2dbe 45e6 b03d
00000120: 5c65 243e 14f9 40bb 3c76 5f3c 1155 493e
00000130: 1a3c f4bd f40c 54be 9c51 46be 3d17 6cbe
00000140: d826 ca3d f989 3b3e 6534 403e 4423 18bd
00000150: 3fa6 8abe 2489 bd3d a46a 64be 6583 e1bc
00000160: d284 db3d 3416 17be b026 27be c525 d4bd
00000170: 43e2 163e 8f2c c03d 4864 43be e10b e2bd
00000180: 7af8 27be b4f4 9dbc 53db 56bd 9329 f0bb
00000190: 5b2f 10be 0fd2 78bd 4e25 33be 54c3 30be
000001a0: 4792 78be 11f3 3f3e 639a 843d ea89 95be
000001b0: 7ac9 74be 9a92 2dbe e937 323e f51f 693e
000001c0: af42 fbbd 03ba ec3d 3655 64bd 5bb2 fa3d
000001d0: acfe b23d 4ef3 a5bd 4fd5 c6bd 5e01 86be
000001e0: 1582 14bd 2e3f 8c3e 5178 4abe 33a4 7e3d
000001f0: 1c41 493d 1b8b 7d3e 5133 e43c b9b1 e5bd
-0.096003376 0.039775 0.1285371 -0.021145353 0.20856501 -0.1468521 0.16121088 0.19015712
0.07890077 0.080976635 0.02587536 0.00077183417 -0.09052289 0.22734633 0.030854998 -0.03752007
0.21683359 0.2620243 0.042201124 0.08556187 0.06972678 -0.24059571 -0.18259424 -0.10073557
0.050732728 -0.22153048 -0.2116067 0.27241153 0.13465232 -0.20808041 -0.1800098 0.15744148
-0.18550946 -0.027267491 0.14227726 0.11029897 -0.31253776 -0.093931526 0.19513407 0.086430885
0.112601705 0.045929834 -0.20535807 0.07747759 -0.10079643 0.113009356 0.2114116 -0.24193089
-0.052194536 -0.19480073 -0.043173645 -0.09490961 -0.22319828 0.017771052 0.19055654 -0.21937585
-0.035049208 0.0068978923 -0.0946434 -0.09345389 0.032633908 0.18108119 -0.13796306 0.018446356
0.14331348 -0.21465912 0.0751902 -0.011175779 0.063032456 0.1292903 -0.16977902 0.086376704
0.1605429 -0.0029445337 0.013639029 0.19661357 -0.11925526 -0.20708066 -0.19367069 -0.2305574
0.0987069 0.18314351 0.18769987 -0.037143007 -0.2707996 0.09254673 -0.22306305 -0.027528474
0.10718693 -0.14754564 -0.16323352 -0.103587665 0.1473475 0.09383499 -0.19081223 -0.11037422
-0.1640338 -0.019281723 -0.052455258 -0.007329175 -0.14080565 -0.060747202 -0.174947 -0.17262012
-0.2427455 0.18745066 0.064747594 -0.29206783 -0.23904982 -0.16950455 0.1740414 0.22766097
-0.12268578 0.115589164 -0.055745326 0.1224105 0.08739981 -0.08103047 -0.09708654 -0.26172918
-0.03625687 0.27391952 -0.1977246 0.06216831 0.04913436 0.24760096 0.0278565 -0.112155385

conv.2.weight f4 [16, 128, 1, 1]
00000000: ec94 02bc 15f8 28bb dcef 00bb f974 74bc
00000010: 456b 42bc 8c4f 54bc 6f17 4d3c 0b4c a83c
00000020: 8fdf 933c 98ef 99bb 532e f03b 73ef 2b3c
00000030: f149 8ebb 8434 f6b9 f70a 953c a90a 2d3b
00000040: 1e76 203c fdc8 ba3c 9426 063c 6c65 0e3c
00000050: fb1d 843b f79a a63b 1238 463c 6e10 28bc
00000060: a488 43bc 807b 8c3b 75c4 6c3c b105 343c
00000070: 59cd b33b 541c 3c3b 7774 b3bb 2fa3 553c
00000080: 0000 0000 f7c5 2cbc 1c78 783c ce9f 623c
00000090: d606 953c 1815 c6bb ba34 823c 9cad 093c
000000a0: e6fe a33b 4134 4bbb 9499 da3b b3c2 d13b
000000b0: a62f 3bbc 7e6a 733c 5ca1 5b3c 01e1 b63b
000000c0: 594b a1bb 8162 f5bb 5c72 753b fde9 193c
000000d0: e2a0 80bc e244 17bc e6e3 fcba 7b75 67bb
000000e0: cfd3 3fbb 5e70 3bbb 48be 81bc 8870 28bd
000000f0: fe54 733c e804 ca3a b510 c03b 4dce 5dbc
00000100: 82d0 c0ba 4f92 e63c 22cd 543c 090e a5ba
00000110: 4d49 6f3c 5f15 32bb 21b9 19bc 9123 813b
00000120: aa48 233c becd d2ba 0ff5 f2bb 7ee4 8a3b
00000130: d3a5 d8bc db4d 88bb e715 163b a476 b43a
00000140: 3f26 b13c dca3 0b3c 0d5f 293c eb98 a2ba
00000150: ee5a 2b3c 4aa6 753c 49f9 1ebc 61fa 173c
00000160: 9d22 f8ba 7f78 263b 496f 47bc 5778 4ebb
00000170: 8545 4c3c 2bb2 abba fafc dc39 0000 0000
00000180: 07e2 5fbc f7ce b13b 151d dfbb 7809 0abc
00000190: a2d8 b73b 6718 37bc 429c b0bb 5f72 e8bb
000001a0: 0000 0000 df72 e03b 81ff 753b 8e50 ae3c
000001b0: 992c 16bb 1a6d 403c 6716 92bb 4811 823c
000001c0: 8b29 36bc abb4 a23b 3f1e b6bc 2d12 5a3a
000001d0: dea1 b33b 9a36 4c3c 399a 8ebc 0d16 0f3a
000001e0: 0bb9 3b3a 56e7 f13c 8f56 d43a 0d99 83bb
000001f0: 5122 8a3b 08b6 193c 7336 04bc 3f66 6c3c
00000200: bb83 20bb 8c0e 90bb 48b8 d73b 1a9f 8ebc
00000210: aef4 0f3a c0cb 34bc e33a 273c e402 9c3c
00000220: 164d 253c fbe3 53bb 544c e23b 866a 063c
00000230: 84f9 3fbb 2d0f 43bb 0b39 8d3c f2cd 153b
00000240: e25d 323c 8673 993c 0622 8fbb 6d80 353c
00000250: 3ed7 0fba 8fdc b639 e639 2d3c 4929 9bbc
00000260: c858 a03b 5327 953b ca9c d93c ce60 233c
00000270: 1277 ea3b 604a 033c 7711 403c 9c3c e43a
00000280: 0000 0000 4269 15bc 20c9 723c 248b ae3b
00000290: f2c7 dd3c 7395 37bc a2d5 2dbb 1585 023c
000002a0: 2471 de3b a23a 5fbb cea8 c7b9 fbad bb3b
000002b0: 8738 19bb 4160 023c be5b 5b3c ed53 ba3b
000002c0: a68c 0fbc df64 08bc 6aa7 7b3c 34df 0e3c
000002d0: c693 cdbc a5ac e3bb 1ceb 94bb 2cd5 48bc
000002e0: d466 783a 5097 b73a 7322 81bb cf56 cdbc
000002f0: 398e 833c e4ed 4a3b c845 2a3c 6ecf 6ebc
00000300: 8725 243c 67e2 72bc 21df 3e3b f13f 00bc
00000310: 2cd3 a53c 6c18 33bb 220f 38b9 d574 cc3b
00000320: fb23 8d3b 2abc 953c 0d7e b9bb 3987 b1bb
00000330: 7d41 cbbc e649 313b 8109 df3b b73d 193c
00000340: 2b1b 8b3c c403 4e3c f936 7c3b ba1e 95bb
00000350: 9a8f 753b 823d 723c 945e 5bbc 3981 b3ba
00000360: 5a43 19bc 7f70 d33b 5232 6ebc e3b9 06bc
00000370: c2c9 ad3b c432 e9ba 837a 9dbb 0000 0000
00000380: cda8 b2bc d9c5 5f3c 4991 91b6 2feb 503c
00000390: 1b1a 11bc de42 08bc 6e80 c7bb 1701 063c
000003a0: 0000 0000 2730 5c3b 1d95 ad3b 3eec 023c
000003b0: 2412 893b 54ee 813b 546b 9a3b 0f40 603c
000003c0: 3b71 01bc 491c 043c 270d 8abc aefe aabb
000003d0: c51f 033c a395 603c 0276 abbb 14cc 013a
000003e0: 1f49 bbbb db2c aa3c 02c1 b73a f1cd acbb
000003f0: 5d9a 633c e52f 7b3c 1b30 45ba 819f 183c
-0.007970076 -0.0025782634 -0.0019674217 -0.014920467 -0.011866395 -0.012958419 0.012517794 0.020544073
0.018050937 -0.0046977513 0.007329741 0.010494101 -0.0043423106 -0.00046959904 0.018193705 0.002640406
0.009793786 0.022800917 0.008187909 0.008691173 0.0040318943 0.005084391 0.012098329 -0.010257823
-0.011934433 0.0042871833 0.014451136 0.010987685 0.005487126 0.0028703408 -0.00547653 0.013039394
0.0 -0.010545245 0.015165355 0.013832046 0.018191736 -0.006044995 0.015894283 0.008403208
0.0050047515 -0.0031006488 0.00667114 0.006401384 -0.0114249345 0.014856933 0.01340517 0.005581022
-0.004922312 -0.007488549 0.0037452197 0.009394166 -0.015701715 -0.009232732 -0.0019293993 -0.0035317827
-0.0029270535 -0.0028600912 -0.015837803 -0.041122943 0.014851807 0.0015412839 0.0058613666 -0.0135379555
-0.0014710578 0.028145937 0.012988361 -0.0012592684 0.014604879 -0.0027173383 -0.009382517 0.0039410074
0.009966055 -0.0016083044 -0.007414467 0.004238664 -0.026446259 -0.0041596717 0.0022901238 0.0013768268
0.021624682 0.008522954 0.010337603 -0.0012405192 0.010458691 0.01499326 -0.009702989 0.009276004
-0.0018931214 0.002540141 -0.012172529 -0.0031504834 0.012467747 -0.0013099363 0.00042150152 0.0
-0.013664729 0.0054262835 -0.006808887 -0.008425109 0.0056105414 -0.011175252 -0.005389721 -0.007093712
0.0 0.006849631 0.0037536325 0.021278646 -0.0022914766 0.011744762 -0.004458237 0.015877381
-0.011118303 0.004965385 -0.02223122 0.00083187484 0.0054819426 0.01246419 -0.017407523 0.0005458303
0.00071610574 0.029529255 0.0016200113 -0.004016048 0.0042155166 0.009381779 -0.008069622 0.014428674
-0.002449258 -0.0043962654 0.0065832473 -0.01740985 0.0005491477 -0.011034906 0.010206911 0.019044347
0.0100891795 -0.0032331932 0.0069060717 0.008204108 -0.002929301 -0.0029763684 0.017239114 0.0022858349
0.010886641 0.018731844 -0.0043680696 0.011077982 -0.00054870907 0.00034878074 0.010572886 -0.018940585
0.004893396 0.004551807 0.02656402 0.0099718105 0.0071553076 0.008013338 0.011722914 0.0017413083
0.0 -0.009119334 0.01481846 0.0053266454 0.02707288 -0.011205065 -0.002652504 0.0079663
0.0067883898 -0.0034062047 -0.00038082007 0.005727527 -0.002337964 0.007957519 0.013388572 0.0056862743
-0.008761561 -0.008324831 0.015359739 0.008720208 -0.025094878 -0.006948071 -0.004544629 -0.012257855
0.0009475772 0.0014006887 -0.0039408742 -0.025065808 0.016059028 0.0030964548 0.010392614 -0.014575822
0.010018713 -0.014824486 0.0029124694 -0.007827745 0.020242296 -0.002732779 -0.00017553245 0.0062395134
0.0043072677 0.0182782 -0.0056607784 -0.005417731 -0.0248115 0.0027052104 0.006806553 0.009353093
0.016980728 0.01257414 0.0038484915 -0.004550782 0.0037469626 0.014785172 -0.013389248 -0.0013695128
-0.009354437 0.0064526196 -0.0145383645 -0.00822303 0.0053035924 -0.0017791619 -0.0048058643 0.0
-0.021809006 0.01365801 -4.33825e-06 0.012751385 -0.008856322 -0.008316724 -0.006088308 0.008178971
0.0 0.0033598037 0.0052973167 0.007990895 0.0041830707 0.0039651785 0.0047125015 0.013687148
-0.007900531 0.008063384 -0.016851975 -0.0052183485 0.00800318 0.013707551 -0.0052325735 0.00049513695
-0.005715504 0.020773342 0.0014019313 -0.0052735736 0.013891784 0.015331243 -0.0007522122 0.009315372
