models/blood/28-_mse_sobel.pth (torch, 27198 bytes, 3 tensors)

conv.0.weight f4 [128, 32, 1, 1]
0	0xbd066154	-0.032807663
1	0xbe6d36ae	-0.2316539
2	0x3e2cb701	0.16866685
3	0x3ccafab7	0.024777753
4	0xbd26dc0e	-0.040737204
5	0xbe90f72c	-0.28313577
6	0x3e02bd6e	0.12767574
7	0xbe4e1d29	-0.20128311
8	0x3cc5d255	0.024148146
9	0x3d35ff43	0.04443289
10	0xbd14e26d	-0.03634875
11	0xbd036759	-0.032080982
12	0xbdaed864	-0.08537367
13	0xbd30366d	-0.043020654
14	0xbd06ba7a	-0.03289268
15	0x3d1ea9a7	0.03873601
16	0xbd55e456	-0.05221971
17	0x3c5170cf	0.012783243
18	0x3d86bdb7	0.06579154
19	0xbd1ae18f	-0.037812766
20	0xbdd8628c	-0.10565671
21	0x3d7c6dc3	0.061628114
22	0x3d36f2d2	0.044665165
23	0xbd04155f	-0.032246944
24	0x3d881d28	0.06646186
25	0x3d1e8880	0.038704395
26	0xbd32f445	-0.043689985
27	0x3c9008f9	0.017582403
28	0xb94bcfe1	-0.0001943703
29	0xbd9dc75b	-0.0770404
30	0xbdef2ab8	-0.1167807
31	0x3cad0b7f	0.021123646
32	0xbd801c3f	-0.062553875
33	0xbddc355a	-0.107523635
34	0xbb53913c	-0.0032282611
35	0x3e0a052e	0.13478538
36	0xbd289af4	-0.0411634
37	0xbd2ac989	-0.041696105
38	0x3e67ea97	0.22648083
39	0xbda2d778	-0.07951254
40	0xbe0c17f7	-0.13681017
41	0xbc312369	-0.010811665
42	0x3d19480d	0.03742223
43	0xbd15c897	-0.03656825
44	0xbd46ef33	-0.048567962
45	0xbde54ba0	-0.11196065
46	0x3dbcf210	0.09225857
47	0xbd9d5825	-0.07682828
48	0x3c762352	0.015023069
49	0xbd8263f0	-0.06366718
50	0xbe1dbe20	-0.15404558
51	0x3df3a386	0.11896424
52	0xbcf1113e	-0.029427167
53	0xbdbe82f6	-0.093023226
54	0xbdc6168d	-0.0967227
55	0x3cf3a149	0.029739993
56	0xbd0cc1cd	-0.03436451
57	0x3e185035	0.14874347
58	0x3d09c0b9	0.03363106
59	0x3dcad563	0.099039815
60	0xbde1ac4b	-0.110191904
61	0xbda5827f	-0.08081531
62	0x3e41fc7c	0.18943971
63	0x3c8a547b	0.016885987
64	0x3e2e4b7f	0.17020987
65	0xbe0fe0e1	-0.14050628
66	0xbaeae663	-0.0017921444
67	0xbd94d19d	-0.07266543
68	0xbcf69281	-0.030099155
69	0x3d7452ea	0.059649386
70	0x3e2fbe7b	0.17162506
71	0xbe069810	-0.13143945
72	0x3db7d345	0.08975843
73	0xbd812cee	-0.06307398
74	0xbdb1c73e	-0.086805806
75	0xbd24183f	-0.040062185
76	0x3d5fd9c5	0.05465104
77	0x3c1afc02	0.009459497
78	0xbd8942e6	-0.06702213
79	0x3e1b8877	0.15188776
80	0x3da08344	0.07837537
81	0xbcc32901	-0.023823263
82	0x3daf678d	0.085646726
83	0xbe0e95c0	-0.13924313
84	0xbcd50c4b	-0.026006838
85	0x3e21b618	0.1579212
86	0x3c6c3091	0.014415876
87	0x3da049b5	0.078265585
88	0xbcb1cb56	-0.021703403
89	0xbcb9bc7f	-0.02267289
90	0xbc38c480	-0.011277318
91	0xbd82e13b	-0.063906156
92	0xbdc49aa0	-0.09599805
93	0xbd6c84d6	-0.05774387
94	0xbda157d8	-0.07878083
95	0xbd6dee5a	-0.058088638
96	0xbdcd33a6	-0.10019617
97	0xbe6f4867	-0.23367463
98	0xbca43af6	-0.020047646
99	0x3d19e617	0.037572946
100	0x3c97c74d	0.018527651
101	0xbe53a42e	-0.20668098
102	0x3dd3313d	0.10312126
103	0x3c008d80	0.007846236
104	0x3ce923f4	0.028459527
105	0xbda46c95	-0.08028523
106	0xbdc905c8	-0.09815556
107	0xbd0262f7	-0.03183266
108	0xbd119687	-0.035543945
109	0xbd9d14a6	-0.07669954
110	0x3c8db69e	0.017298993
111	0x3c2cef96	0.010555169
112	0x3ce3dd93	0.027815616
113	0xbd634955	-0.055489857
114	0xbdcfcb9e	-0.10146259
115	0xbe11a465	-0.14222868
116	0x3bfd4cba	0.007730094
117	0x3dd58905	0.10426525
118	0xbd1127c2	-0.035438307
119	0x3cab8e44	0.020941861
120	0xbba57da8	-0.00505038
121	0x3db5c5d8	0.08875626
122	0x3cc2818c	0.023743413
123	0x3b25dad0	0.0025307424
124	0x3d10aad2	0.035319157
125	0xbd766c1c	-0.060161695
126	0xbd239dcd	-0.039945412
127	0xbae19e6b	-0.001721335
128	0x3d477fec	0.04870598
129	0xbdb019a6	-0.08598642
130	0xbe1aaac0	-0.15104198
131	0xbd33d9f6	-0.043909036
132	0xbd45f105	-0.048325557
133	0xbdcfc310	-0.10144627
134	0x3d19a031	0.037506286
135	0x3d75e04c	0.06002836
136	0xbdfe7034	-0.12423745
137	0xbd366b6e	-0.044536047
138	0x3c3e4eeb	0.011615495
139	0x3d0dfc4e	0.034664445
140	0x3d28d9c2	0.041223295
141	0xbdc7404d	-0.09729061
142	0x3b46cb1c	0.0030333465
143	0xbdd057b8	-0.10172981
144	0x3e18b22d	0.14911719
145	0x3d6f8add	0.05848204
146	0xbd5f0dc3	-0.054456484
147	0xbd4048b3	-0.04694433
148	0x3ccd712e	0.025078382
149	0xbe0504af	-0.12990068
150	0x3d87acb5	0.06624738
151	0xbcb62050	-0.022232205
152	0xbdf7d9d3	-0.121020935
153	0x3cd5f8f7	0.026119692
154	0x3cc16904	0.023609646
155	0x3ddaa383	0.10675719
156	0x3da1d2cb	0.07901534
157	0xbdb33ce6	-0.0875185
158	0x3c27ae17	0.010234377
159	0xbdb86fc4	-0.090056926
160	0xbd466872	-0.04843945
161	0x3d90fefb	0.07079884
162	0xbdcff9aa	-0.101550415
163	0x3d77e943	0.06052519
164	0xbc6e91fe	-0.014561174
165	0x3e3a6691	0.18203188
166	0xbdc40ee6	-0.09573154
167	0x3e312cfa	0.17302313
168	0x3e53cab2	0.20682791
169	0x3e2cf591	0.16890551
170	0x3dd2681c	0.102737635
171	0x3c71855d	0.014741269
172	0xbd98a18f	-0.0745269
173	0x3d324e4e	0.04353171
174	0x3cef0334	0.029176332
175	0x3e1af948	0.15134156
176	0xbe0b6197	-0.13611446
177	0xbe1d65a4	-0.15370804
178	0x3df95441	0.12174273
179	0xbd6f9f00	-0.058501244
180	0xbdaa8574	-0.083262354
181	0x3e109c3a	0.14122096
182	0xbca3b633	-0.01998434
183	0x3a1876da	0.000581605
184	0xbd98de6c	-0.074642986
185	0xbba27a61	-0.0049584364
186	0x3dd2e2be	0.10297154
187	0xbcc4c2bb	-0.024018636
188	0xbd824b5b	-0.06362029
189	0xbe1a9f33	-0.15099792
190	0xbdd969ed	-0.10615907
191	0xbddc56a2	-0.107587114
192	0xbc89a5bf	-0.016802667
193	0x3df1cd83	0.118067764
194	0x3c334d2d	0.010943693
195	0xbc4d9dcf	-0.0125498315
196	0xbe2919e4	-0.16513783
197	0x3dbdebaa	0.09273465
198	0xbe2c5653	-0.16829805
199	0xb8a8ca89	-8.0485894e-05
200	0x3d66a44b	0.056309026
201	0xbd2c87b8	-0.04212162
202	0xbc5e21cd	-0.013557863
203	0x3cda38b2	0.026638363
204	0xbb59571a	-0.003316349
205	0x3c691157	0.014225326
206	0xbdf9b567	-0.12192803
207	0xbd302355	-0.043002445
208	0x3ddf8d8f	0.10915672
209	0xbd881f50	-0.066465974
210	0xbd3c35e6	-0.04594984
211	0x3e1031cc	0.14081496
212	0xbc735033	-0.014850664
213	0x3b8d85b3	0.0043189167
214	0xbd87a85f	-0.06623911
215	0x3dd6bb2f	0.10484921
216	0xbdf3b488	-0.11899668
217	0x3dcdd20a	0.100498274
218	0x3d71ffa7	0.0590817
219	0xbdd13350	-0.10214865
220	0xbd32d1ac	-0.04365699
221	0xbc31a162	-0.010841699
222	0x3d0ef8a8	0.034905106
223	0x3b02da4f	0.0019966548
224	0xbe0652c5	-0.13117512
225	0x3dd04d3a	0.1017098
226	0x3d8d5bf6	0.06902306
227	0xbd07b419	-0.03313074
228	0x3d5cc56e	0.05389922
229	0xbe090dd9	-0.13384189
230	0x3cfe08fd	0.031010145
231	0xbe20f581	-0.15718652
232	0xbe12639c	-0.1429581
233	0xbadec74d	-0.0016996652
234	0x3cf62356	0.030046146
235	0xbd231be8	-0.039821535
236	0xbd6d23fb	-0.05789564
237	0x3da1c0b6	0.07898085
238	0x3c71a709	0.014749297
239	0xbce9b59d	-0.028528983
240	0x3e194989	0.14969458
241	0xbd91ecaf	-0.07125222
242	0xbd9b704a	-0.07589777
243	0x3cb42972	0.021992419
244	0xbcd7c43b	-0.026338687
245	0xbd17b89a	-0.037041284
246	0xbd86936a	-0.06571086
247	0xbd879c12	-0.06621565
248	0x3e242ba9	0.1603228
249	0xbe02d2e2	-0.12775758
250	0xbda9240f	-0.08258831
251	0xbcdc7e2a	-0.026915628
252	0xbd50e5cb	-0.051000398
253	0xbdfb87dd	-0.12281773
254	0xbd93ac2e	-0.07210575
255	0x3c8e680e	0.017383602

conv.0.bias f4 [128]
0	0xbafb168b	-0.0019156499
1	0xbe1398f7	-0.1441382
2	0x3d749ed8	0.059721798
3	0xbe1401fe	-0.14453885
4	0xbb5a2292	-0.0033284766
5	0x3de5b452	0.11216034
6	0xbe259462	-0.16169885
7	0xbe7ef479	-0.24897946
8	0xbcfa2063	-0.030533021
9	0x3cc0a124	0.023514338
10	0x3dafeb28	0.08589774
11	0x3d8880bd	0.0666518
12	0xbcf4ad04	-0.029867657
13	0xbd0a6349	-0.033786092
14	0x3e07f28e	0.13276121
15	0x3d2fd66d	0.0429291
16	0x3daea628	0.085277855
17	0x3dda32bb	0.10654207
18	0x3b9763e2	0.0046200613
19	0x3d5979de	0.053094737
20	0xbdb968f3	-0.090532206
21	0x3a02f6b3	0.00049958675
22	0xbe193932	-0.14963225
23	0xbe0ddb15	-0.13853104
24	0x3d21de64	0.03951873
25	0xbc783cba	-0.015151197
26	0xbe1ea116	-0.15491137
27	0x3da86f32	0.08224334
28	0xbd3465f6	-0.04404255
29	0x3d81144c	0.063026994
30	0xbd1e3c16	-0.03863152
31	0xbe3600cd	-0.17773743
32	0x3ce4d2a9	0.027932482
33	0xbb7a4b12	-0.0038191718
34	0xbb463bc0	-0.0030248016
35	0xbdb3b1f9	-0.0877418
36	0xbd288c22	-0.041149266
37	0xbb8e4e06	-0.004342797
38	0xbc898265	-0.01678581
39	0xbdc916de	-0.09818815
40	0xbc87681a	-0.016529132
41	0xbd6ba43a	-0.057529666
42	0xbd3d5a37	-0.046228614
43	0xbd01ac2b	-0.031658333
44	0xbe262240	-0.16224003
45	0x3de1abc6	0.11019091
46	0xbc9f203b	-0.019424548
47	0xbd155e84	-0.03646709
48	0x3e01291b	0.12613337
49	0x3bb8e88c	0.005642956
50	0xbc3b0a4c	-0.011416029
51	0xbd238273	-0.039919328
52	0x3de40d88	0.111353934
53	0xbe6d86f6	-0.23196015
54	0xbda6f7f1	-0.0815276
55	0xbe7e7196	-0.24848017
56	0xbc749976	-0.014929166
57	0x3b3a29ac	0.0028406186
58	0xbcb05132	-0.021523092
59	0x3db6f0a4	0.08932617
60	0x3e0b48a8	0.13601935
61	0xbc96d026	-0.0184098
62	0x3ccbb8a5	0.024868319
63	0xbd89015f	-0.06689715
64	0xbc5818c4	-0.013189498
65	0xbce4eba4	-0.027944393
66	0xbc9387a1	-0.018009009
67	0x3d547fce	0.051879697
68	0xbd303c36	-0.04302617
69	0x3e298a20	0.16556597
70	0x3c845feb	0.016159019
71	0x3db52b3c	0.08846137
72	0x3d878dca	0.06618841
73	0x3dc7c8b7	0.0975508
74	0x3d3da3e2	0.04629887
75	0xbd4219ff	-0.047388073
76	0x3d953e50	0.07287276
77	0xbc91a1f5	-0.017777422
78	0x3e068d69	0.13139881
79	0x3d7bc587	0.061467674
80	0xbc290ded	-0.010318262
81	0xbcdc7b3a	-0.026914228
82	0xbd3ce337	-0.046115126
83	0xbc3fbb9f	-0.011702447
84	0xbcc72748	-0.024310723
85	0xbcba42ca	-0.022736926
86	0xbe340e39	-0.1758355
87	0x3de43c0b	0.11144265
88	0x3dcfacd5	0.10140387
89	0xbd7f55f6	-0.062337838
90	0xbc9c6ff1	-0.019096347
91	0x3e042153	0.12903337
92	0xb95143b4	-0.00019957015
93	0x3d13599b	0.035974126
94	0x3ddfbc00	0.1092453
95	0xbb2364ce	-0.002493191
96	0x3d7cfd42	0.061764963
97	0xbba385f8	-0.0049903356
98	0x3d4f8df9	0.050672505
99	0xbd5e6778	-0.054297894
100	0x3cfb550a	0.030680198
101	0xbccd5b4e	-0.025067952
102	0xbe73579a	-0.23763886
103	0xbe11575b	-0.1419348
104	0x3dcdcd4c	0.10048923
105	0x3d894128	0.06701881
106	0x3dd7c2e2	0.10535218
107	0x3bafa45c	0.0053601693
108	0xbc7bd033	-0.015369463
109	0x3da15e1b	0.07879277
110	0x3dea570f	0.11442386
111	0x3dfc2199	0.12311096
112	0xbe1e4251	-0.15454985
113	0x3e060a7e	0.1308994
114	0xbccef819	-0.025264787
115	0xbbed637d	-0.007244526
116	0xbe0bac8f	-0.13640045
117	0x3d352c9c	0.044231996
118	0x3de0db84	0.10979369
119	0xbdfa5227	-0.122227006
120	0x3d89d0d8	0.06729287
121	0xbc4df574	-0.012570728
122	0x3bf9d0eb	0.007623782
123	0x3d08dfcc	0.033416554
124	0x3c160918	0.009157442
125	0x3dfa8cf2	0.122339144
126	0xbd499c7a	-0.049221493
127	0xbc2282a3	-0.0099188415

conv.2.weight f4 [16, 128, 1, 1]
0	0xba3379e2	-0.000684647
1	0x3c3d0506	0.011536842
2	0x3b6f0c75	0.003647593
3	0x3be83622	0.0070865313
4	0xbc01cb4f	-0.007922008
5	0x3bc71c5f	0.00607638
6	0x3c3e26f0	0.011605963
7	0x3c48fecc	0.01226778
8	0xbc08c400	-0.008347511
9	0x3a9427cc	0.0011303364
10	0x3b960197	0.0045778262
11	0x3bbb4043	0.0057144477
12	0xba5e7061	-0.00084853737
13	0xbc124953	-0.008928615
14	0x3bd3032f	0.0064395885
15	0x3b6a37b3	0.0035738766
16	0x3bb904a1	0.0056463038
17	0x3b498e5a	0.0030755014
18	0xb9abb0c2	-0.00032747356
19	0x39632189	0.000216609
20	0xbb20b609	-0.0024522564
21	0xbc51d430	-0.012806937
22	0x3c5fcd44	0.013659779
23	0x3bcdc79d	0.0062798993
24	0x3ba4d579	0.0050303307
25	0xbbecf05b	-0.007230801
26	0x3b78e138	0.0037976038
27	0x3b8da705	0.004322889
28	0xbc1f565a	-0.009725178
29	0x3abe6eb4	0.0014528842
30	0xbb18123d	-0.002320423
31	0x3bf6409e	0.007515027
32	0x3ad658f8	0.0016353419
33	0xbc45cc69	-0.012072661
34	0xbc5e310d	-0.013561499
35	0xbbc0dd5a	-0.005885762
36	0xbc0d3646	-0.008618897
37	0xbc1ad9fe	-0.009451387
38	0xbbda11ef	-0.00665497
39	0xb9ad5f74	-0.0003306825
40	0xbc1ecbe0	-0.009692162
41	0xbb9817fa	-0.00464153
42	0xbba83c8e	-0.005134172
43	0xb83d8b2c	-4.5190725e-05
44	0x3bc0e02d	0.005886099
45	0x3b548419	0.003242737
46	0xbbfcff65	-0.007720875
47	0xbb90d7ad	-0.004420242
48	0x3bf1848d	0.0073705376
49	0x36420815	2.8912957e-06
50	0xbc007b43	-0.007841888
51	0xbbe13940	-0.00687328
52	0x3bbcb66a	0.00575905
53	0x3c99c7a8	0.018771961
54	0x3a9810ad	0.001160165
55	0x3c8cfd22	0.017210547
56	0xbb6da714	-0.0036262916
57	0x3b833659	0.0040042815
58	0xb786dcbc	-1.6076832e-05
59	0x3bb1a8cd	0.005421734
60	0x3c092d0f	0.008372559
61	0xbb21b34f	-0.0024673527
62	0x3ae395eb	0.0017363405
63	0x3ab99088	0.0014157454
64	0xbc007d2f	-0.007842346
65	0xbc4d7be3	-0.012541744
66	0xbbd6f859	-0.006560367
67	0x3a8ef02a	0.0010905315
68	0xbb7b7004	-0.0038366327
69	0x3c202f5e	0.009776918
70	0x3aff098c	0.0019457801
71	0x3b79a1d4	0.0038090842
72	0x3b7826bc	0.0037864884
73	0x3b9d78a4	0.0048056412
74	0x3baf6bb8	0.0053534172
75	0xbb1f3dd4	-0.0024298327
76	0x3bb79a68	0.0056031235
77	0xbb7ba5ba	-0.0038398341
78	0x3c23d302	0.009999039
79	0x3a487d6a	0.00076480827
80	0xbbfdf858	-0.007750552
81	0xbbc78418	-0.006088745
82	0xbbecdc5c	-0.0072284173
83	0xbb88e07d	-0.0041771517
84	0xbbb7dede	-0.0056112846
85	0xbc231c38	-0.009955458
86	0x3c38a9bc	0.011270937
87	0x3b96ccf9	0.0046020714
88	0x3bd5c364	0.0065235365
89	0xbb0dea5a	-0.0021654577
90	0xbbddac47	-0.006764922
91	0x3c034c4b	0.008013795
92	0xbb3966dc	-0.0028290069
93	0x3aa29658	0.0012404425
94	0x3bc195c0	0.005907744
95	0xbc5a3ae4	-0.013319705
96	0x3b611f9a	0.0034351111
97	0xbb9d3e89	-0.0047987145
98	0x3b93e917	0.0045138705
99	0xbb511368	-0.0031902436
100	0x3b7d954b	0.0038693722
101	0xbbfc0862	-0.007691429
102	0x3c43bbcf	0.0119466325
103	0xb9a92a98	-0.00032265927
104	0x3bc6fc49	0.006072555
105	0x3ba56db7	0.0050484794
106	0x3b510ad6	0.0031897328
107	0x3b48dd77	0.0030649581
108	0xbbe5ac2d	-0.0070090503
109	0x3b942d19	0.0045219776
110	0x3b891ff5	0.004184718
111	0x3ba7376e	0.0051030433
112	0x39f05807	0.00045841953
113	0x3bde0432	0.0067754025
114	0xbbc0a996	-0.005879591
115	0xbc8c333c	-0.017114274
116	0x3bd92f3b	0.0066279448
117	0x3b212ead	0.0024594471
118	0x3c04c923	0.008104595
119	0xbb8017ef	-0.003909103
120	0x3b503fd5	0.0031776328
121	0xbbfde9ab	-0.0077488027
122	0xbc326f2f	-0.010890766
123	0xb9030a64	-0.00012497004
124	0x3b67152a	0.0035260417
125	0x3bda5e69	0.0066640866
126	0x3b74a8ca	0.0037332051
127	0xbc3b6bd1	-0.01143928
128	0x39f4619a	0.00046612025
129	0x3c3a7b63	0.011381957
130	0x3b34a524	0.0027564252
131	0x3bdfa714	0.006825337
132	0xbbd1308e	-0.006383962
133	0x3ba0aa58	0.004903119
134	0x3c35aef3	0.011089074
135	0x3c343a2e	0.011000199
136	0xbbe3f950	-0.0069572106
137	0x39d568b9	0.0004070455
138	0x3b8ab5f7	0.0042331177
139	0x3b9f39c3	0.0048591807
140	0x396f70a3	0.00022834777
141	0xbbdc9364	-0.0067314375
142	0x3bc14ad3	0.0058988123
143	0x3b4d78a1	0.0031352418
144	0x3b9a8488	0.004715506
145	0x3b0478df	0.0020213646
146	0x3adf34d8	0.0017029298
147	0x3abe0e16	0.0014500048
148	0xbb25724e	-0.0025245133
149	0xbc34154a	-0.010991404
150	0x3c47d8f9	0.012197726
151	0x3bbe2308	0.005802516
152	0x3b9865bf	0.004650801
153	0xbba285ee	-0.0049598133
154	0x3b746fda	0.0037298114
155	0x3b7af854	0.0038294988
156	0xbc20f5ad	-0.009824199
157	0x3a99daa4	0.0011738134
158	0xbb3bd15e	-0.0028658728
159	0x3bfa152c	0.0076319184
160	0x3a8a0f2e	0.0010533088
161	0xbc2b6d81	-0.0104631195
162	0xbc41b250	-0.011822298
163	0xbbc49c01	-0.0060000424
164	0xbbf6e741	-0.007534892
165	0xbbfaa09d	-0.007648541
166	0xbbbe7a61	-0.0058129285
167	0xb8283b56	-4.0109582e-05
168	0xbc075bac	-0.008261602
169	0xbb6a8521	-0.0035784917
170	0xbb97b7a5	-0.0046300464
171	0x391687f4	0.00014355761
172	0x3bbdea1e	0.005795731
173	0x3b5f2471	0.003404882
174	0xbbd99bd0	-0.0066408888
175	0xbb79ea7a	-0.0038134144
176	0x3be8ea1a	0.007107985
177	0x3994768a	0.00028317078
178	0xbc03ab2d	-0.008036417
179	0xbbbca907	-0.0057574543
180	0x3b946a3d	0.004529266
181	0x3c8a565c	0.016886882
182	0x396f6be4	0.00022833009
183	0x3c67f580	0.014157653
184	0xbb51ea3b	-0.0032030481
185	0x3b5001dd	0.0031739392
186	0x3a021df0	0.00049635675
187	0x3ba04db2	0.0048920745
188	0x3c06999c	0.008215334
189	0xbb1b5230	-0.002370011
190	0x3aac13dd	0.0013128478
191	0x3b042c17	0.002016788
192	0xbbfae0b5	-0.0076561817
193	0xbc24e41b	-0.01006415
194	0xbb9a4248	-0.0047076084
195	0x3b676381	0.0035307112
196	0xbb6ac104	-0.0035820613
197	0x3c075975	0.008261074
198	0x3b23f55c	0.0025018072
199	0x3b619b81	0.0034424963
200	0x3b2c9d1a	0.0026338757
201	0x3b61f48d	0.003447804
202	0x3bb53c19	0.005530846
203	0xbb1471f5	-0.0022650931
204	0x3ba09859	0.0049009738
205	0xbb0698bf	-0.002053782
206	0x3c072dbf	0.008250653
207	0x3996b2e1	0.00028743505
208	0xbbd1c0a1	-0.006401137
209	0xbba42da5	-0.005010324
210	0xbbcce584	-0.0062529463
211	0xbb9e81b0	-0.0048372373
212	0xbbad5449	-0.0052895886
213	0xbc0eafe3	-0.008708927
214	0x3c40d3ad	0.011769217
215	0x3b80bc46	0.003928694
216	0x3bd1cf87	0.006402913
217	0xbb18ae83	-0.0023297376
218	0xbba8e0ad	-0.0051537366
219	0x3bdf5a2f	0.0068161706
220	0xbb0ae960	-0.0021196231
221	0x3b33384e	0.0027346793
222	0x3bade41c	0.005306734
223	0xbc422afa	-0.011851067
224	0x3b6a1d69	0.0035723096
225	0xbb7593a6	-0.0037472039
226	0x3b9f8cd0	0.004869081
227	0xbb6c355f	-0.0036042554
228	0x3b681253	0.0035411313
229	0xbbd4c68e	-0.006493396
230	0x3c30a224	0.010780845
231	0x3842c7fa	4.6439447e-05
232	0x3bb6b16f	0.005575351
233	0x3b948484	0.0045323987
234	0x3b0616a9	0.0020460284
235	0x3b5b6072	0.0033474234
236	0xbbdc5fd0	-0.006725289
237	0x3b6b1267	0.0035869123
238	0x3b73df0a	0.00372118
239	0x3ba86d0d	0.005139953
240	0x3a70e7f7	0.0009189839
241	0x3ba488bb	0.0050211824
242	0xbbacb005	-0.0052700066
243	0xbc5f346b	-0.013623337
244	0x3be42213	0.00696207
245	0x3b0327ae	0.0020012665
246	0x3bd8b88e	0.0066137975
247	0xbb9742a2	-0.0046160975
248	0x3b2bada9	0.0026196039
249	0xbbce8185	-0.006302061
250	0xbc1c1f92	-0.009529011
251	0x3abbdb50	0.0014332328
252	0x3b37c1d8	0.0028039124
253	0x3bb37178	0.005476173
254	0x3b61462f	0.0034374108
255	0xbc26b5e4	-0.010175202
