models/blood/28-_hinge_gaussian.pth (torch, 19041 bytes, 3 tensors)

conv.0.weight f4 [128, 16, 1, 1]
00000000: 5f6f 0f3e da30 343e 51c1 b5bd 5d59 5e3d
00000010: 2bf5 46be af3d 643e 7a11 2d3d fafa e83b
00000020: 0af7 273d 3ccb 033e 88d6 973d 05c3 5fbe
00000030: af83 393e 9f5c fe3d ecb5 593e c11b 71be
00000040: c129 bc3d 92b3 543e f3c5 51bd 691d e2bd
00000050: 7947 40bd a4cd 1ebd 9db7 b2bd 9445 72be
00000060: 03d3 b1bd e032 283e c3c7 76bd 708b 1abe
00000070: 5acd 91be 640f 443e 1418 73be 46d5 1b3e
00000080: b3d9 93bd 7910 063e 94d8 57be 6df4 7ebe
00000090: 2a7a d53d 8fe3 a4bd 1fe2 39be 327a d43d
000000a0: ab14 2ebd b362 1c3e 5f41 7ebd 6a53 a33d
000000b0: 3092 4bbd e8ad 753e 963e ae3c d4e2 d0bd
000000c0: 0eda ef3c a67a 813e 24fe 92bc 69ef 7cbd
000000d0: 917f f13d c29c 6dbd 43f4 ccbc d6a8 80be
000000e0: 9c73 0fbd d5ef 243e 170f 65be 409b 7b3e
000000f0: b0bf af3c e854 003e 2493 bc3d 06f1 913d
00000100: 67b6 6438 044f 3a3e 8aff 2cbd 1970 e43c
00000110: cadc ab3d 05b9 36be 5a05 063d 2e98 82bd
00000120: 0155 e13d 3fbe 393e f286 91bd 78a5 033e
00000130: 7e3a 2c3e 7249 543c 6a55 22be ea21 813e
00000140: 9b40 53be a963 11bd 17f4 c6bd dac0 af3d
00000150: 5055 a3bd b972 323d 1680 383d 2ad1 9f3d
00000160: 7e53 653c 76af 1abd c6d4 07bc 8518 efbd
00000170: 636d f1bc 230c 0abe 470a 333e b533 e6bd
00000180: d20a 2cbc 8030 343e 189e 553d b2c6 f9bc
00000190: dcda 74be 7a7d c93d 9d69 213e e427 36be
000001a0: 9a9d 06be c689 e63d d45a 733e 462d 263e
000001b0: 79b4 ea3d 8a1a cabd 4bc5 863e 4405 02be
000001c0: fcd8 1fbe c88f 75bd 3422 51be 25f2 4bbc
000001d0: 7721 36be 8125 67be fd7e d6bc a2c6 b8bc
000001e0: 33cf 203e 887f 7e3e c40e 0ebe ade2 b53d
000001f0: 0bbf 753e 907a b3bc 964d 4abe 9320 f83c
00000200: b8bc 4e3d 6ccd d33d fc7c c9bc bb5f 9a3d
00000210: 6d8b 9b3d 8dbd 9ebc 967a 1abe 9095 d43d
00000220: c359 b73d c6bf 93bc 2b7a 47be 785d 45be
00000230: 4475 26be fad5 0ebe ab86 85ba 32a6 433e
00000240: a346 ac3c 4e97 233e 3673 4bbe a1cc 3c3e
00000250: 4079 4c3d 9032 833d acad 54be 1a71 01be
00000260: 9813 bd3d 8097 bb3d f9b8 52be 5fb8 853d
00000270: 5e8a 4e3d 4a1f 2f3e 9ea8 ebbd 395f 953c
00000280: 88ef 773c ab21 6e3e 8ce4 283e 0eae 413e
00000290: 3654 8b3c 1e3d 7ebd 7540 4e3e 93dc 653e
000002a0: 0e3f 3dbe f79b 753e 5a85 433e 6260 4dbe
000002b0: 664f f03d 7b8a 9739 97dd 203d f22f 3d3c
000002c0: 91ce d9bd e67b 1f3e 90e5 10be df09 6dbc
000002d0: 3ea5 ac3c 3eed a73d c62c 2bbe 5815 05bd
000002e0: 08c7 b0bd 1475 4a3d bf77 c1bd ffbb 553e
000002f0: 5a37 dabd 573a a73d 1cf7 b5bd 9d37 853d
00000300: 2182 cdbd 07e0 4ebe 18bc 70be b091 383e
00000310: dd90 3c3e 43e3 8ebd d6a3 343e 2aff 24be
00000320: 6dd5 9dbc 5f0a d5bb 6251 eb3d db8f 61bd
00000330: 93b3 4cbe 4a8a 46be 0585 a03d ff46 623e
00000340: d5c7 e3bd 04d2 7f3d 7dc2 26bc 145e 69bc
00000350: 13c5 133e ba64 4cbd 8471 a9bd 3348 80be
00000360: 012c 58bc 023f 7f3e 124a 14bd f74e 14bc
00000370: 5335 853d 498c 8abc 4dcc 093e 52d1 14be
00000380: 6c0d 993b 399c dabd 4537 4d3e 1dac 62be
00000390: 37cf cbbd 1b13 593e 2139 56be 34bf d5bd
000003a0: 0fcc cdbd b7ef 563d 1d0b 4fbe 9c5a 7abe
000003b0: b08f eb3d 0a47 69be 3e9b 293d 1e3b c4bd
000003c0: 04d5 1a3d 41a3 6e3e a640 ef3d d651 7dbd
000003d0: 08bf eebc bcff 123e a777 7c3e 17e6 bc3d
000003e0: 7e1b 42be 75f6 6fbe f17b 4a3e a211 0cbe
000003f0: f115 90bd 9aa2 20be 93a8 e23d 4e99 713e
0.14007328 0.1759676 -0.08874763 0.054284442 -0.19429462 0.22289155 0.042252995 0.007109997
0.04100708 0.12870497 0.074139655 -0.21851738 0.1811664 0.1242001 0.21260804 -0.23545744
0.091876514 0.20771626 -0.05121417 -0.11040766 -0.04694316 -0.038770333 -0.08726428 -0.23659354
-0.086828254 0.16425657 -0.0602491 -0.15092254 -0.28476983 0.19146496 -0.23739654 0.15218076
-0.07219257 0.13092221 -0.21078712 -0.24897929 0.104236916 -0.08051216 -0.18152665 0.103748694
-0.04250018 0.15272026 -0.06207406 0.07974894 -0.049699962 0.23992121 0.021270078 -0.10199514
0.029278781 0.25288886 -0.01794345 -0.061751757 0.117919095 -0.058010824 -0.025018817 -0.25128812
-0.035022363 0.16107114 -0.22369038 0.24570942 0.021453708 0.12532389 0.09207752 0.0712605
5.452931e-05 0.18194205 -0.04223589 0.027885484 0.083917215 -0.17844017 0.032719947 -0.06376682
0.11002541 0.1813898 -0.07105817 0.1285609 0.16819188 0.012956964 -0.15852895 0.25221187
-0.20630114 -0.035495434 -0.09714525 0.085817054 -0.079752564 0.04356644 0.045044027 0.07803567
0.013996957 -0.03776499 -0.008290475 -0.116745986 -0.029471105 -0.13481192 0.17484389 -0.11240331
-0.010500627 0.17596626 0.052152723 -0.030490253 -0.23911613 0.09838386 0.15762945 -0.17788655
-0.13146058 0.11256747 0.23765117 0.16228208 0.11460204 -0.09868343 0.26322398 -0.12697321
-0.15610117 -0.059951574 -0.20423204 -0.0124478685 -0.17786203 -0.225729 -0.0261836 -0.022555653
0.1570404 0.24853337 -0.1387282 0.088811256 0.23998658 -0.021909028 -0.19756159 0.03028897
0.050472945 0.103419155 -0.02459573 0.075377904 0.07594953 -0.019377494 -0.15085825 0.10380089
0.089526676 -0.01803578 -0.19480197 -0.19273937 -0.16255671 -0.13948813 -0.0010187229 0.19106367
0.021029776 0.15975687 -0.19868168 0.18437435 0.04992032 0.064061284 -0.20769376 -0.12640801
0.09232253 0.09159756 -0.20578374 0.065293066 0.050424926 0.1710178 -0.115067706 0.018233882
0.015132792 0.23255031 0.16493434 0.18914053 0.017007928 -0.062070005 0.20141776 0.22447424
-0.18481085 0.23985277 0.19093838 -0.20056298 0.11733894 0.0002890414 0.039273825 0.011547076
-0.106351025 0.15574607 -0.14150071 -0.0144676855 0.021074887 0.08199547 -0.16716298 -0.032491058
-0.08631712 0.04942806 -0.09446668 0.20872496 -0.10655089 0.08165424 -0.08885023 0.06504748
-0.10034586 -0.20202647 -0.23509252 0.18024325 0.18414636 -0.069769405 0.17640623 -0.16112962
-0.019266808 -0.0065014805 0.11490132 -0.055068832 -0.19990377 -0.1938869 0.078378715 0.22097395
-0.11122099 0.062456146 -0.010178206 -0.014243621 0.14430647 -0.049900748 -0.082736045 -0.25055084
-0.013194085 0.2492638 -0.03620345 -0.00905203 0.065043114 -0.016912596 0.13456841 -0.14532974
0.0046707895 -0.10674328 0.20040615 -0.22135969 -0.099516325 0.21198694 -0.2092023 -0.1043686
-0.10048687 0.052474704 -0.20219083 -0.24448627 0.115020156 -0.22781006 0.041407816 -0.09581588
0.037800804 0.23304464 0.116822526 -0.061845623 -0.029143825 0.14355367 0.24655019 0.09223574
-0.189558 -0.2343386 0.19773842 -0.13678601 -0.07035435 -0.15687028 0.11067309 0.23593637

conv.0.bias f4 [128]
00000000: 9527 41be d15e 7bbc 99df 28bd 9d45 90bd
00000010: 8e53 6d3e c499 f0bd f528 dfbc d29f 8abd
00000020: 6c09 61be a37f c43d b5cb 5c3e 8619 adbe
00000030: ec16 86bc a128 49be 792e d7bd aa9a 4dbe
00000040: 12fe b03d a6fa 6cbd e35d 26bd 6708 f8bd
00000050: 3e6b 4e3c 2808 113e 267f 473e c4d9 f2bc
00000060: 4d0a 0bbe fe47 653e 9cce 693e fa3b 4cbe
00000070: 957b 2dbe 3533 74be eef2 72be 0dcf 023e
00000080: 60b5 b43d 687d 46be af0a 2c3e ac1d 8fbd
00000090: bb00 6fbc d361 4b3c d0d5 3b3e d210 683e
000000a0: e807 8ebd aff7 2cbe 586e 0bbe 4935 d4bc
000000b0: 2dd6 5d3e 8fb2 c33c 089b 3cbe b906 4fbe
000000c0: d43a 6e3e b301 9f3d 1a0a 71bd 2e3b 593e
000000d0: 9eb2 b33d a91f fd3d 0266 533e 126a 533e
000000e0: 7135 5e3e 73b4 723d 8a80 bbbc 1369 2d3e
000000f0: f94d 403d 53d4 dd3d 9f52 62be 608b e53c
00000100: 5099 1f3e d328 1b3e b966 58be 1bc3 963d
00000110: 752b e73d e6c6 783d 1312 b9bd 941d 643e
00000120: ea65 edbc 2fef a7bd 64ca 72be 344b 61be
00000130: a2b4 05be 91e6 a83d 9657 543d 9e61 853c
00000140: 196d fd3d 8cea 383e 1553 cf3c 0f3d efbd
00000150: c8ff 3e3e 35cb 62be b426 28be 6539 943d
00000160: f707 47be 2f54 803d 5a77 d4bd 3b99 83bd
00000170: 4acc 4bbe 6db6 e33d 6f4f 7abd d89a d9bd
00000180: 4610 d73d 3ddc ac3d 912e 033e ed08 9f3d
00000190: 0a39 34bd 4f41 4bbe d52c 5a3e d50e 9fbe
000001a0: 86e6 52be 34b7 493e 7977 b43d aa01 6cbe
000001b0: 7b9b d5bd e68d fc3c 5319 86bd 9bbd 14be
000001c0: 1afa 3b3e 0528 00be 6730 f13d bb28 59be
000001d0: 7aa0 05be eec8 24bc 610f d23d cba7 0c3e
000001e0: f9dc 5e3e cc9c 2cbe d926 58be e518 21be
000001f0: dbba 0dbe 5a4c 94be 800d 773d 0a74 27be
-0.18862756 -0.01534243 -0.041228864 -0.07044528 0.23176405 -0.117480785 -0.02724121 -0.067687646
-0.2197625 0.09594657 0.21562083 -0.33808535 -0.016368352 -0.19644405 -0.10506911 -0.20078531
0.0864221 -0.057856224 -0.04061688 -0.121109776 0.012598811 0.14163268 0.19482097 -0.029644854
-0.13578148 0.22390744 0.22832721 -0.19944754 -0.16941674 -0.23847659 -0.23725483 0.12774296
0.08823657 -0.19383776 0.1680095 -0.06988081 -0.0145875765 0.01241346 0.18343282 0.22662666
-0.06935102 -0.16891359 -0.13616312 -0.025904315 0.21663733 0.023888854 -0.18418515 -0.20217408
0.23264629 0.07763996 -0.058847524 0.21213982 0.08774303 0.12359554 0.20644382 0.20645931
0.21700074 0.05925412 -0.02288844 0.16934614 0.04694936 0.10831513 -0.2210183 0.02802056
0.15585828 0.15152292 -0.21132936 0.07361432 0.11287586 0.06073656 -0.090366505 0.22276908
-0.02897926 -0.081999175 -0.23710018 -0.22001344 -0.13057187 0.08247102 0.05184134 0.016281899
0.12374324 0.18058223 0.025308171 -0.11681568 0.1865226 -0.2214783 -0.16421014 0.0723751
-0.19436632 0.06266057 -0.10374327 -0.06425711 -0.19902149 0.11118779 -0.06111091 -0.10625237
0.10501151 0.084404446 0.12810732 0.07765374 -0.04399971 -0.19849132 0.21306165 -0.31066003
-0.2059575 0.19698793 0.0881185 -0.2304751 -0.10430046 0.030829381 -0.06547799 -0.14525454
0.18357125 -0.12515266 0.1177681 -0.21206944 -0.13049498 -0.010057671 0.102568395 0.13735883
0.21763982 -0.16856688 -0.21108569 -0.15732153 -0.13840811 -0.28964502 0.06031561 -0.16352859

conv.2.weight f4 [16, 128, 1, 1]
00000000: 44a2 45bc b460 e7bb 24aa f0bb b701 e0bb
00000010: f316 013b 834b 28b9 c227 a0bb 23c0 5e3c
00000020: f8a4 113b c927 28bb fe95 ba3a db4c 783d
00000030: 0778 12bb 9bf4 32ba 4b71 38bc 8064 693b
00000040: 0307 9d3a fc1f 30bc 60c2 d63b 0f1d 9e3c
00000050: 3edb 66bb 2280 1b3c 1ce8 e83b a317 bbbb
00000060: 6708 c2bb 9736 913c 995c bd3b f358 0ebc
00000070: 462c 1abc 597d 18bb 0f8a 85bb 5a43 abba
00000080: ebc8 c73b 0000 0000 eadb ba3b 80b2 3abc
00000090: 92f7 29bb c7ef d7b8 90c7 803c e735 0e3b
000000a0: 1e93 843b ce7e aabc 92ad 9cbb 0b80 933b
000000b0: 9649 c33b 17ca e9ba 0a0f 9fbb e559 a6bb
000000c0: 773d 883b bad9 453c 2f3b 8cbc d0b5 e83c
000000d0: ac26 be3b aa10 153c e2c4 5d3b b687 aa3b
000000e0: ffec df3b fc88 5c3c 6559 23bc dd8b 753b
000000f0: bfb3 e03b 4628 68bb 33e7 a9bb 7a3e ab3c
00000100: fe62 b63b 895a ad3b 374d c4bb 7ddc 3f3c
00000110: b85d e13b a3c6 b1b9 becb e1bc d470 bd3c
00000120: 8cae 91ba c7a2 c23a edbe dfbb 599d 23bc
00000130: d387 48bb 5e02 4b3b 09d2 323b 3da2 8ebb
00000140: fc31 9fbb bc65 90b9 8c7a 603c 2404 1cbc
00000150: 7697 aabb 6480 373b e5f1 efbb b4a4 44bb
00000160: 94be 053b a303 94bc 6911 c5bb 6670 95bb
00000170: f375 cdbb b48b 503c 6953 1dbc d6e3 173b
00000180: 8e53 71bb 2ca4 c83b 917c 16bb 2a9a e83c
00000190: eb7d f1bb 0000 0000 453b 683b 261c ac3b
000001a0: a1dd 19bb 99d4 603c af46 44ba bb46 0c3c
000001b0: a841 37bc 781f fcbb eefa c7b9 072b 41bc
000001c0: dcf1 8abb 53b7 a7ba 1082 783c e8c7 c93c
000001d0: 6ee8 d43b 31d9 74bb a033 3c3b 78bf 103c
000001e0: 59ce 2bbb 15e3 49bc 0000 0000 62f9 cdbb
000001f0: b3fd b3bb 76dc 523c ed84 08bc 5cbb 1e3a
00000200: 99a4 34bc e8b1 ebbb f7c2 80bc 7154 3cbc
00000210: 065a b13a 3a5b f23a 7826 04bc ac6d 2d3c
00000220: 3e0c 70bb 4469 9abb 3157 11ba bfe9 263d
00000230: 5534 b9bb 3146 813b 4639 66bb ca29 a1bb
00000240: dde9 09bb f27c c739 48c6 053b de53 223c
00000250: 26c6 4fbb 5a15 773b 5643 943a 39d2 86bb
00000260: b356 44bb 454b 7f3c f3ab d53b bf07 4ebc
00000270: 3e48 6dbb 0051 87bb d610 8ebc fcfa b7ba
00000280: 641e 0b3c 0000 0000 8f0b 923b 4e6d 3abb
00000290: 740e cebb d074 0dbc 81de 203c 19de 113b
000002a0: 8dce ad3b e0e5 97bc e7b3 8dbb 50f2 293c
000002b0: bc6e 643b 21ec 01bb 5cd4 3fba 0fba 64bb
000002c0: 525e feb9 6def 873c c53a 76bc 066e b13c
000002d0: a934 213b ee6b a83b 5585 2a3a 982d 843a
000002e0: 1a9b a93b 3095 8b3c 2c55 2fb9 5d98 43bb
000002f0: 63e9 1a3c 0a4f b73b f908 aa3b 3f2a 0c3c
00000300: 0765 0c3b 71aa ea3a c750 b2ba 161b 8fba
00000310: 7841 a6ba 1af2 06bb a2c3 babc 9ee3 773c
00000320: 6e13 f9ba 21cc 2dbc 76ff d3bb 1c34 18bc
00000330: 4e6f 87bb b061 3d3b 759c 493b c601 823b
00000340: 3d37 89bb 092e 9cbb a5c8 143c f741 25bc
00000350: 86ba 803b 45d5 493c a510 e6bb 8fa9 b5ba
00000360: e382 b03b 738f 833c 041b 483b 2c5b c0bb
00000370: 1ded a9bb 315b 2e3c f7e4 8eb9 b596 7d3b
00000380: 9746 95bb c354 b33c d8b9 23bc 0635 0c3d
00000390: 2934 b3b8 0000 0000 0096 023c bfb9 8a3c
000003a0: dc1e f7bb 2ce1 613c 7eaf de3b ff6d 073c
000003b0: 136b e8bb 8af7 aeb9 11af 4439 a802 ebbb
000003c0: 3387 d63a 2988 1c3b f131 cf3b decb 833c
000003d0: 320a 0dbc 3486 7fbb 1ea3 04bb 3149 813c
000003e0: d9f7 90b9 1a5c 5dbc 0000 0000 18f8 4f3b
000003f0: 0d42 dfb9 8a0a eb3b ac9a 80bb a6da 5eb9
-0.012062613 -0.0070610885 -0.007344501 -0.006836142 0.0019697517 -0.00016049859 -0.004887552 0.013595614
0.0022223573 -0.002565848 0.0014235375 0.06062017 -0.0022349374 -0.000682661 -0.01125748 0.0035612881
0.0011980239 -0.010749813 0.006553933 0.019300966 -0.0035225893 0.009490998 0.0071077477 -0.005709605
-0.005921412 0.017726226 0.0057788608 -0.008688199 -0.00940997 -0.0023268072 -0.0040752958 -0.0013066337
0.0060969493 0.0 0.0057024853 -0.011395097 -0.0025934917 -0.00010296661 0.015720159 0.0021699609
0.004045858 -0.020812418 -0.0047814334 0.004501348 0.0059597 -0.0017836717 -0.0048540877 -0.005076634
0.004157718 0.012075836 -0.017118065 0.028407007 0.00580295 0.009098211 0.0033839275 0.0052041663
0.006833672 0.013460394 -0.009970044 0.0037467398 0.006857365 -0.0035424395 -0.005185032 0.020903815
0.005566 0.0052903336 -0.00599065 0.011710283 0.006877627 -0.00033908067 -0.027562972 0.02312509
-0.0011114641 0.0014849537 -0.00682818 -0.009986245 -0.0030598536 0.0030976753 0.0027285835 -0.0043528364
-0.0048582535 -0.00027541618 0.013701092 -0.009522472 -0.005206044 0.002800011 -0.0073225372 -0.0030005397
0.0020407783 -0.01806814 -0.0060140383 -0.004560518 -0.006270164 0.01272862 -0.009602406 0.0023176572
-0.0036823484 0.0061230864 -0.002296243 0.028393824 -0.007369747 0.0 0.0035435718 0.005252379
-0.0023478048 0.013722562 -0.00074873393 0.008561785 -0.011185087 -0.007694181 -0.00038143195 -0.011790044
-0.0042402577 -0.0012795724 0.015167728 0.024631456 0.0064974343 -0.0037360901 0.0028717294 0.008834712
-0.0026215522 -0.012322207 0.0 -0.0062858323 -0.00549289 0.012869945 -0.008332473 0.00060551404
-0.011025571 -0.007192839 -0.015717966 -0.011494742 0.0013530857 0.0018490322 -0.008065812 0.01058523
-0.003662839 -0.0047122557 -0.00055443036 0.04075026 -0.0056519904 0.003945135 -0.0035129352 -0.0049183117
-0.0021043934 0.0003804933 0.0020412374 0.009907691 -0.00317038 0.0037701936 0.0011311572 -0.004114416
-0.0029958903 0.0155819105 0.006520742 -0.012575089 -0.003620639 -0.004129529 -0.017342012 -0.0014036591
0.008491132 0.0 0.0044569443 -0.0028446498 -0.006288344 -0.008633807 0.009818674 0.0022257625
0.005304164 -0.01854223 -0.0043244245 0.010372713 0.0034856042 -0.0019824582 -0.0007317716 -0.0034900939
-0.0004851693 0.01659366 -0.01502866 0.021658909 0.0024598038 0.0051398193 0.00065048534 0.0010084389
0.0051759603 0.017038912 -0.0001672103 -0.0029845454 0.009455058 0.005594139 0.005189058 0.008554994
0.0021422522 0.0017903579 -0.0013604396 -0.0010918106 -0.0012684306 -0.002059108 -0.022798363 0.015129952
-0.0019002983 -0.01060775 -0.0064696623 -0.009289768 -0.0041331416 0.0028897338 0.0030763422 0.0039674966
-0.004187493 -0.00476623 0.0090810405 -0.010086528 0.0039284853 0.012318914 -0.007021027 -0.0013859737
0.0053866967 0.016059613 0.003053368 -0.0058702435 -0.005185737 0.010641859 -0.00027254943 0.0038694565
-0.004555534 0.021891003 -0.009993039 0.034230255 -8.545101e-05 0.0 0.007970333 0.016934274
-0.0075415205 0.013786595 0.0067958226 0.008265971 -0.0070928424 -0.00033372297 0.00018757234 -0.0071719475
0.0016367197 0.0023884869 0.006323092 0.016088422 -0.008608388 -0.0038989903 -0.0020238827 0.01578197
-0.0002765048 -0.013510728 0.0 0.0031733569 -0.00042583086 0.007172887 -0.0039246883 -0.00021253023
