models/blood/28-_combined_ssim_l1_laplacian.pth (torch, 19189 bytes, 3 tensors)

conv.0.weight f4 [128, 16, 1, 1]
0	0x3df2ff69	0.11865122
1	0x3cc96332	0.024583433
2	0x3db3b7a6	0.087752625
3	0x3ef3d6d3	0.47624835
4	0x3da4d79f	0.08048939
5	0x3dec7038	0.115448415
6	0xbd22507d	-0.03962754
7	0x3c22065f	0.009889214
8	0x3e0e930e	0.13923284
9	0xbe087ff6	-0.13330063
10	0xbdb141d6	-0.08655135
11	0xbe0e65d7	-0.13906036
12	0xbe697e6e	-0.22802135
13	0x3e211977	0.1573237
14	0xbdf2ac76	-0.118493006
15	0xbe3f6f5a	-0.18694821
16	0xbda6d1a7	-0.08145457
17	0xbe8c3e05	-0.27391067
18	0x3cccead7	0.025014324
19	0xbef2e233	-0.474382
20	0xbe08767d	-0.1332645
21	0x3e39ed12	0.18156841
22	0x3b82e915	0.0039950707
23	0x3e3e2319	0.18568076
24	0xbd36a1c4	-0.044587865
25	0x3e4f4d62	0.20244363
26	0x3e59fc8c	0.21287745
27	0xbe8ae4ca	-0.27127677
28	0xbda96471	-0.08271111
29	0x3e8b29e8	0.2718041
30	0xbe489036	-0.19586262
31	0x3ca919d6	0.020642202
32	0x3dbe19ad	0.09282241
33	0x3de2e0f4	0.11078063
34	0xbd856f59	-0.065153785
35	0x3e2b2c1e	0.16716048
36	0x3dcf8ad1	0.10133899
37	0x3e168c98	0.1470207
38	0x3e5febbd	0.21867271
39	0xbdb1baf7	-0.08678239
40	0xbe201d0d	-0.15636082
41	0xbdd97381	-0.10617734
42	0xbdb1a472	-0.086739436
43	0x3e544988	0.20731175
44	0x3e7c7be7	0.2465664
45	0xbd05eb5d	-0.032695163
46	0x3d803590	0.06260216
47	0xbda701f3	-0.08154669
48	0xbe38dd65	-0.18053205
49	0x3e9ca27c	0.30592716
50	0x3e8d6e4b	0.2762321
51	0x3e6786d1	0.22610022
52	0xbe136a3e	-0.14395997
53	0x3d13ff22	0.036131985
54	0xbd1ceea1	-0.03831351
55	0xbcbc9094	-0.023018159
56	0x3de82f00	0.113370895
57	0x3cf526b1	0.029925676
58	0xbd450768	-0.048102766
59	0xbcfb38be	-0.030666705
60	0x3da84415	0.082161106
61	0xbc31cc9c	-0.010852005
62	0x3e1711a0	0.14752817
63	0xbe0dc83c	-0.13845915
64	0x3e6cc473	0.23121814
65	0x3d882a7f	0.066487305
66	0x3e65b886	0.22433671
67	0x3f12a9a4	0.572901
68	0xbca1dff8	-0.019760117
69	0xbe02814d	-0.12744637
70	0x3dfca934	0.123369604
71	0xbd531515	-0.051533777
72	0xbe57da64	-0.21079403
73	0xbda2fdbf	-0.079585545
74	0x3cc41149	0.023934023
75	0x3d40a14b	0.04702882
76	0x3d7250c9	0.059159074
77	0x3e0a6612	0.13515499
78	0xbcc4e9bd	-0.024037236
79	0x3d92ba2a	0.07164414
80	0xbe2daaf7	-0.16959749
81	0xbe86e873	-0.2634922
82	0x3e82986e	0.2550692
83	0x3c87582b	0.016521534
84	0x3cf4a964	0.029865928
85	0x3d2fe7e9	0.042945776
86	0x3ceb9026	0.028755259
87	0x3e1b8da2	0.15190747
88	0x3d0a1604	0.033712402
89	0x3d80e3ab	0.06293424
90	0x3e4f9ce7	0.20274697
91	0xbe0156ac	-0.12630719
92	0xbe4ecd86	-0.20195588
93	0x3e2c308f	0.16815399
94	0xbe0aa578	-0.13539684
95	0x3dbda16c	0.092593044
96	0x3e2192ce	0.15778658
97	0xbdca5987	-0.09880357
98	0x3d53b0f0	0.051682413
99	0xbe967fee	-0.29394478
100	0xbd0b81c3	-0.034059297
101	0xbd656cc4	-0.05601193
102	0x3e1a2fc7	0.15057288
103	0x3d104e9a	0.03523121
104	0xbdf16c52	-0.117882386
105	0xbd23fc57	-0.040035572
106	0x3e66e695	0.22548898
107	0xbdfce14e	-0.12347661
108	0xbdb70184	-0.08935836
109	0x3e2fceb8	0.171687
110	0x3cbb2bcd	0.022848034
111	0x3d907f21	0.07055498
112	0xbe5a975d	-0.21346803
113	0x3e3ba146	0.1832324
114	0x3df0919c	0.11746523
115	0x3eda7567	0.42667696
116	0x3e5f39c6	0.21799383
117	0xbdbc0fa6	-0.09182672
118	0xbd8cc1b5	-0.06872884
119	0x3bd1c7dd	0.0064019994
120	0xbdfeb14e	-0.12436162
121	0xbd8ca031	-0.068664916
122	0xbd6c72bf	-0.057726618
123	0xbe164633	-0.14675216
124	0x3e2e991a	0.17050591
125	0xbd2eb8fb	-0.04265688
126	0x3d13f429	0.03612152
127	0xbe0fc35c	-0.14039367
128	0x3e4576f2	0.19283655
129	0xbc491eec	-0.012275439
130	0xbe3925a9	-0.18080772
131	0x3ee0047c	0.4375342
132	0x3d94fb66	0.07274513
133	0xbe0d5e0d	-0.13805409
134	0x3e5ca1b5	0.21546061
135	0xbd18a693	-0.037268233
136	0x3e3ef12e	0.1864669
137	0xbe473a0e	-0.1945574
138	0x3ddab1d6	0.10678451
139	0x3dd311b5	0.10306112
140	0x3cdee127	0.02720697
141	0xbdd3fe80	-0.103512764
142	0xbb6a972a	-0.0035795667
143	0xbe47b79b	-0.19503634
144	0x3e086152	0.13318375
145	0x3daa695e	0.083208784
146	0x3e32dbe1	0.1746669
147	0x3e6acf11	0.22930552
148	0x3dc4211c	0.095766276
149	0x3e19ecfb	0.15031807
150	0xbe5c0a53	-0.21488313
151	0x3dfa5105	0.122224845
152	0xbe81fe54	-0.2538935
153	0xbce0df90	-0.027450353
154	0xbda27a01	-0.07933427
155	0xbd0c435d	-0.03424393
156	0x3d524d0f	0.05134302
157	0x3e531220	0.20612383
158	0xbe4bb89a	-0.19894639
159	0xbd81ba11	-0.063343175
160	0x3e45145d	0.19246049
161	0xbe0120d7	-0.12610184
162	0x3e392818	0.18081701
163	0x3e3c9c65	0.18419035
164	0x3df9c87c	0.121964425
165	0xbd92db36	-0.071707174
166	0xbe45cfe7	-0.1931759
167	0xbe731b05	-0.23740776
168	0x3c12a078	0.008949392
169	0xbd4504fd	-0.04810046
170	0x3d1afec6	0.037840627
171	0x3e0b8255	0.13623936
172	0xbe0c0a51	-0.1367581
173	0x399db6bb	0.00030081518
174	0x3e128efd	0.14312358
175	0xbe3f817b	-0.18701737
176	0x3e89a604	0.26884472
177	0x3d17dd18	0.037076086
178	0x3e430ac8	0.19047081
179	0x3ccb8187	0.024842037
180	0xbe5502f6	-0.20801911
181	0x3c84af2e	0.016196813
182	0x3d0b2ede	0.033980243
183	0x3d716d9b	0.05894242
184	0xbe36fe71	-0.17870499
185	0x3d55921b	0.05214129
186	0xbd9cbe7b	-0.07653519
187	0xbc654a30	-0.013994738
188	0x3d6bc6b5	0.05756255
189	0x3b882c50	0.004155673
190	0x3c0ac071	0.008468733
191	0xbe4b96f2	-0.198818
192	0xbe484439	-0.19557275
193	0x3e0faf31	0.14031674
194	0xbe5594cb	-0.20857541
195	0x3eb3b9f7	0.35102817
196	0xbe7c1526	-0.24617442
197	0x3e5201c8	0.20508492
198	0x3e3f0ab1	0.18656422
199	0x3dcfa6de	0.10139249
200	0xbd4a73ef	-0.04942697
201	0x3d945034	0.0724186
202	0x3e6b90ad	0.23004408
203	0x3e2b682d	0.16738959
204	0x3d38e154	0.045136765
205	0xbe01aeb7	-0.12664305
206	0x3e1daef8	0.15398777
207	0xbe2a4f78	-0.16631877
208	0xbe8308aa	-0.25592548
209	0xbd3785dd	-0.044805396
210	0x3cb94e12	0.022620235
211	0x3d52341d	0.05131923
212	0x3d60761e	0.054800145
213	0x3d79c2d9	0.060976837
214	0xbdbb0110	-0.09131062
215	0x3db9451f	0.09046387
216	0x3d5df55b	0.054189067
217	0xbe2eb3aa	-0.17060724
218	0x3d06ef97	0.032943334
219	0xbda17a18	-0.07884616
220	0xbe3b8859	-0.18313731
221	0x3d978892	0.073990956
222	0x3d1e52bc	0.03865312
223	0x3d32038c	0.043460414
224	0xbda42648	-0.08015114
225	0xbe1cbd26	-0.1530653
226	0xbd7a0f3c	-0.061049685
227	0xbe3f5a56	-0.18686804
228	0x3de91b2f	0.11382138
229	0xbe0e7a1e	-0.13913772
230	0x3e5281fc	0.20557398
231	0xbc1a0870	-0.009401426
232	0x3e1bb48b	0.1520559
233	0x3e14ba9d	0.14524312
234	0x3e1a9e70	0.15099502
235	0xbe609bdc	-0.21934456
236	0xbc0b749e	-0.00851169
237	0xbe710ee0	-0.2354083
238	0xbe87d638	-0.26530623
239	0x3d8bdead	0.068295814
240	0x3e74a881	0.23892404
241	0x3d1e3033	0.038620185
242	0xbe0d4db1	-0.13799168
243	0xbe6bddce	-0.2303383
244	0x3e2f9eb8	0.1715039
245	0x3e1c5d82	0.15270045
246	0x3df33cbb	0.11876818
247	0xbdf822cd	-0.12116013
248	0xbda0e070	-0.07855308
249	0x3e249829	0.1607367
250	0x3d8e14dd	0.06937573
251	0x3e377659	0.1791624
252	0x3e05311b	0.13007013
253	0x3e4e2e55	0.20134862
254	0xbe3c8640	-0.18410587
255	0xbe3ce286	-0.18445787

conv.0.bias f4 [128]
0	0x3df1281d	0.11775229
1	0xbd61bbcd	-0.05511074
2	0x3d9f989c	0.0779278
3	0xbdcbf01a	-0.09957905
4	0x3e1a3b0b	0.15061586
5	0x3d92962c	0.07157549
6	0xbdba202a	-0.09088166
7	0x3e1aa105	0.15100487
8	0x3e2bc676	0.16774926
9	0x3d422770	0.04740089
10	0xbdb62cd1	-0.08895267
11	0x3d41625f	0.047212955
12	0x3d865529	0.06559212
13	0xbc1297cf	-0.008947327
14	0xbe26ce0d	-0.1628954
15	0x3dfa327a	0.12216659
16	0x3dfa5861	0.12223888
17	0x3d02cac9	0.031931672
18	0x3d8d990d	0.06913958
19	0x3ce74cb3	0.028234815
20	0x3db95ec8	0.09051281
21	0x3e2718f1	0.16318108
22	0x3d271220	0.04078877
23	0xbe076a4e	-0.13224146
24	0xbde9e734	-0.114210516
25	0x3e3429b9	0.17594041
26	0x3e1ea850	0.15493894
27	0xbe09cb2f	-0.13456415
28	0x3e436a61	0.19083549
29	0x3e103180	0.14081383
30	0x3d10b38e	0.035327487
31	0xbdaad03e	-0.083405
32	0xbda9beda	-0.08288355
33	0x3d4cea13	0.050027918
34	0x3de39745	0.11112837
35	0xbe204cd9	-0.15654315
36	0xbbefff8a	-0.007324164
37	0xbd5bb166	-0.053635977
38	0xbe0f0bfa	-0.13969412
39	0xbe323c58	-0.17405832
40	0xbb06e2cd	-0.002058196
41	0xbe7327af	-0.23745607
42	0x3c991bd7	0.018690033
43	0xbe2afe3d	-0.16698547
44	0xbe89bf6f	-0.26903865
45	0x3e6c1961	0.23056556
46	0xbe6624d5	-0.22474988
47	0x3e1c5cd2	0.15269783
48	0x3d2c3e53	0.042051625
49	0x3e2221b5	0.1583317
50	0x3e15b8f0	0.1462133
51	0x3ddbb92a	0.107286766
52	0x3ba58586	0.0050513176
53	0x3e08da0e	0.13364431
54	0x3cd01f14	0.025405444
55	0x3e000f6b	0.12505881
56	0x3d1fd18f	0.03901821
57	0xbdeb4e57	-0.114895515
58	0xbd81fe62	-0.06347348
59	0x3d53ca4a	0.05170659
60	0xbd946c7d	-0.07247255
61	0x3d04baf8	0.03240487
62	0x3e1dbbd1	0.15403678
63	0xbde884a3	-0.113534234
64	0xbec6b160	-0.388072
65	0x3d001674	0.031271413
66	0xbe22ac9c	-0.15886158
67	0x3bb86827	0.0056276503
68	0x3dcc5552	0.09977211
69	0x3d9b43eb	0.07581314
70	0x3d915c89	0.07097728
71	0xbbff7bdb	-0.007796747
72	0x3d06a5c3	0.032872926
73	0xbdef9edf	-0.11700224
74	0x3e309a67	0.172464
75	0x3dfbe18f	0.12298881
76	0x3e40e4e0	0.18837309
77	0xbe3159ec	-0.17319459
78	0x3e0648b0	0.13113666
79	0xbe195775	-0.14974768
80	0xbe5cbb2e	-0.21555778
81	0x3d228c85	0.03968479
82	0xbe2778ae	-0.1635463
83	0x3d8ff3a3	0.07028892
84	0x3e009db9	0.12560166
85	0x3c3fe76f	0.011712893
86	0x3e39c18d	0.1814024
87	0xbe04c8a0	-0.12967157
88	0x3df3db78	0.11907095
89	0xbde7503d	-0.11294601
90	0xbc9fa5d6	-0.019488256
91	0xbe3908a5	-0.18069704
92	0x3e0bb49e	0.13643119
93	0xbdfa7824	-0.12229946
94	0x3e2a1839	0.16610803
95	0x3e30790b	0.17233674
96	0xb8f88adb	-0.000118514254
97	0xbd188bad	-0.03724258
98	0x3e552abd	0.20817085
99	0x3e2fc852	0.1716626
100	0xbc1acf6f	-0.00944887
101	0x3c7ce5f8	0.015435688
102	0xbd1b7a06	-0.037958167
103	0xbce2d3a2	-0.027688805
104	0x3e270341	0.16309835
105	0xbdd3821e	-0.10327552
106	0x3e4c1299	0.1992897
107	0xbc14ef60	-0.009090275
108	0x3d577a10	0.052606642
109	0xbe01f797	-0.12692104
110	0xbe356dcf	-0.1771767
111	0x3e1ba60e	0.15200064
112	0xbe0185c0	-0.12648678
113	0xbc99e08b	-0.018783828
114	0xbd566883	-0.052345764
115	0xbd891866	-0.06694107
116	0x3df42692	0.11921419
117	0xbe839ce1	-0.25705627
118	0x3b881ea8	0.004154045
119	0xbe42b436	-0.19014058
120	0x3d36447c	0.044498906
121	0xbc0eeedd	-0.008723942
122	0xbe439ba2	-0.19102338
123	0x3dea48bf	0.114396565
124	0x3e1bba3a	0.15207759
125	0x3d86aaf2	0.06575574
126	0xbe37abc5	-0.17936619
127	0x3cb1d1b7	0.021706445

conv.2.weight f4 [16, 128, 1, 1]
0	0x3aeec611	0.0018216987
1	0xbc54e342	-0.012993636
2	0x39fc20a8	0.00048089516
3	0xbc933077	-0.017967446
4	0x3b97172b	0.004610916
5	0xbc8ba497	-0.017046256
6	0x3b81b7eb	0.0039586923
7	0xbbce4699	-0.006295037
8	0xbbcb4246	-0.006202969
9	0x3bd9b0e1	0.0066434
10	0x3bacfef5	0.0052794167
11	0x3c753a56	0.014967522
12	0xbb90e9bf	-0.004422396
13	0xbbcad767	-0.0061902287
14	0xbcc755db	-0.024332931
15	0x3c0a3be7	0.008437133
16	0x3c231720	0.009954244
17	0x3b9d77a8	0.004805524
18	0x3c7cfcbd	0.015441117
19	0xbaf79342	-0.0018888491
20	0xbbd25250	-0.006418504
21	0xbbf7b439	-0.007559326
22	0xbb9a5f43	-0.004711063
23	0xbcebb642	-0.02877343
24	0xbc610427	-0.0137339
25	0x3bc96db7	0.006147112
26	0x3bc17fd2	0.00590513
27	0xbcd83422	-0.026392046
28	0x3b8ee579	0.0043608514
29	0xbc2555d1	-0.010091261
30	0xbaf9cf8b	-0.0019059045
31	0xbc3c2b04	-0.011484865
32	0x3cc1b59e	0.023646172
33	0x3a8ded2a	0.0010828127
34	0xbb36d800	-0.0027899742
35	0x3cd281da	0.025696684
36	0xbccc4c1f	-0.024938641
37	0x3c26c1ea	0.010178069
38	0x3b0af582	0.0021203463
39	0xbc1fd300	-0.009754896
40	0x3a0966af	0.00052414363
41	0x3c6f256b	0.0145963235
42	0xbcd789b2	-0.026310775
43	0x3c98f31b	0.01867061
44	0xbcdb1d9f	-0.026747523
45	0xbcb4c2b1	-0.022065492
46	0xbcb8d5de	-0.022562917
47	0x3c696f49	0.014247724
48	0xbc646314	-0.013939638
49	0xbc780d62	-0.015139909
50	0x3c1c6017	0.009544394
51	0xbb4cda1d	-0.0031257935
52	0xbcb7e613	-0.022448575
53	0xbb76cb4f	-0.0037657802
54	0xb71e22ef	-9.4256675e-06
55	0x3bb74fb0	0.0055942163
56	0xbb528e3c	-0.0032128235
57	0xbc418a8a	-0.011812815
58	0x3b2e35ba	0.0026582316
59	0x3b97204f	0.004612006
60	0x395871db	0.0002064178
61	0xbacea035	-0.0015764298
62	0x3b76d11d	0.0037661262
63	0x3a83eb32	0.00100646
64	0xbd5aeaee	-0.053446703
65	0x3ba8d1a6	0.005151945
66	0xbc99d069	-0.018776136
67	0x3c542896	0.01294913
68	0x3b10e78b	0.0022110667
69	0x3b9b6e1b	0.00474335
70	0x3bf35568	0.0074259527
71	0xbbfd210f	-0.007724888
72	0x3bc5808d	0.0060272873
73	0x3b988811	0.0046548923
74	0xbbd2c1d1	-0.006431796
75	0x3c3be2fc	0.0114676915
76	0xbbbeed23	-0.0058266087
77	0xbbb2d6ef	-0.005457751
78	0x3c19b739	0.009382063
79	0xb92e8b76	-0.00016645886
80	0xbb1dbb64	-0.0024067992
81	0x3b324045	0.0027198952
82	0x3ccde801	0.025135042
83	0xbca05800	-0.019573212
84	0x39421e90	0.00018512667
85	0xb932cf83	-0.00017052707
86	0xbbb669bf	-0.005566805
87	0xbc7dda79	-0.0154939825
88	0x3be884be	0.007095902
89	0xbd233c52	-0.039852448
90	0xbb1369cb	-0.0022493477
91	0x3a59e5e6	0.00083121506
92	0xbbae0c6c	-0.0053115394
93	0x3a0485ec	0.00050553563
94	0xbbc044ec	-0.005867591
95	0x3c13d583	0.009023073
96	0x3c2beff2	0.010494219
97	0xbc0bdacb	-0.008536051
98	0xbc2b2af9	-0.010447257
99	0x3c4f8a05	0.012667184
100	0x3aa527f6	0.001260041
101	0x3c6c72f5	0.014431705
102	0xbb521221	-0.0032054263
103	0x3c0ff821	0.008787186
104	0x3badc1d1	0.0053026457
105	0xbc646cc6	-0.013941949
106	0x3aea6a26	0.0017884418
107	0xbb19fe42	-0.0023497497
108	0x3b01dead	0.0019816563
109	0x3cc2ec14	0.023794211
110	0xbb863ec7	-0.004096839
111	0x3a65075c	0.00087367534
112	0x3cbb1652	0.022837792
113	0x3c062d32	0.008189486
114	0x3b5d80cc	0.0033798693
115	0xbc092551	-0.008370713
116	0x3c722611	0.014779584
117	0xbcbf3ef4	-0.023345448
118	0x3d45db0c	0.048304603
119	0x3ccd133e	0.02503359
120	0xbc68f8dd	-0.01421949
121	0x3cd5c305	0.02609397
122	0xba88669b	-0.0010406555
123	0xbbc8dae0	-0.0061296076
124	0x3c1cf443	0.009579721
125	0x3c481448	0.012211867
126	0x3bb4bb51	0.005515494
127	0x3ab58137	0.0013847713
128	0x3b83f1a7	0.00402661
129	0xbc56c165	-0.013107632
130	0xb8e661ec	-0.00010985494
131	0x3c69436a	0.014237264
132	0x3afcba9e	0.001928169
133	0xbc9eeef6	-0.019401055
134	0x3b569890	0.0032744743
135	0xbb084984	-0.0020795772
136	0xbbdb5456	-0.0066934032
137	0x3beb11fa	0.007173774
138	0xbc4b6954	-0.012415249
139	0x3c0c7b9c	0.008574393
140	0x3bba690b	0.0056887916
141	0x3a5186a6	0.00079927815
142	0xbcaab038	-0.02083598
143	0x3b2b352b	0.002612422
144	0x3bf082af	0.0073397974
145	0x3ac64ed6	0.0015129696
146	0xb96a83dc	-0.000223651
147	0xbc03df7f	-0.008048891
148	0xba81123f	-0.0009847357
149	0xbc8079db	-0.015683105
150	0xbc49bd15	-0.012313147
151	0xbcf1c570	-0.02951309
152	0x3b40ca79	0.0029417558
153	0x3bda5897	0.0066633928
154	0x3ba09da1	0.0049016033
155	0xbcb74f81	-0.022376778
156	0x3bf388b1	0.0074320664
157	0xbb3396ef	-0.0027403196
158	0x3c6177fe	0.0137615185
159	0xbbdbf6ef	-0.0067127864
160	0x3c54f7e4	0.012998555
161	0x3be53faa	0.0069961147
162	0x3b7d98ff	0.003869593
163	0x3c5c9823	0.013464007
164	0xbc81bbf8	-0.0158367
165	0x38b36c23	8.555527e-05
166	0x3b5ac9f9	0.0033384545
167	0xb8c4c15a	-9.382023e-05
168	0x3b6ff228	0.0036612842
169	0x3c238c3c	0.009982165
170	0xbcb48dce	-0.022040274
171	0x3c133c65	0.008986567
172	0xbcd885c0	-0.026430964
173	0xbc8c3ffd	-0.017120356
174	0xbc85b485	-0.01632143
175	0x3c0c0a7b	0.008547421
176	0xbc6849d7	-0.014177761
177	0xbc63270f	-0.013864293
178	0x3c10abbf	0.00883001
179	0x3adc75c9	0.0016819771
180	0xbbc9de33	-0.0061605214
181	0x3a5c3ee6	0.00084017066
182	0xbb431a53	-0.002977033
183	0x3afceec4	0.0019297232
184	0x3b54c521	0.003246613
185	0xbc25e04e	-0.010124279
186	0x3bfb31ad	0.007665834
187	0x3c57beac	0.013168018
188	0x3ba9f9da	0.0051872553
189	0xbb080cf3	-0.0020759671
190	0xbb354f6f	-0.0027665754
191	0x3a909032	0.0011029302
192	0xbd676e46	-0.05650165
193	0xbc58c6d7	-0.013231001
194	0xbcc6e332	-0.024278257
195	0x3c288688	0.010285981
196	0x39fa4eea	0.0004774251
197	0x3c1290a0	0.008945614
198	0x3ae38aef	0.0017360131
199	0xbc8a63a1	-0.01689321
200	0x3c057275	0.008144964
201	0x3c1d60fb	0.0096056415
202	0xbbceb7a3	-0.0063085123
203	0x3c766808	0.015039451
204	0x3b6ccf2a	0.0036134222
205	0xbc04d65f	-0.008107751
206	0x3b0cf193	0.0021506294
207	0x3bbc5959	0.0057479558
208	0x3a2e836a	0.00066571555
209	0x3c07ffec	0.008300763
210	0x3d06e5db	0.03293405
211	0xbc3bbd48	-0.011458702
212	0x3bfb39d0	0.007666804
213	0x3b4e8c54	0.0031516748
214	0xbc06b730	-0.008222386
215	0xbc6d664c	-0.0144897215
216	0x3c1688ab	0.009187858
217	0xbd249bb9	-0.04018757
218	0xbb76a7ac	-0.0037636561
219	0xbb805715	-0.003916631
220	0x3994fad6	0.00028415647
221	0xbb0bf326	-0.0021354645
222	0xbabbb4df	-0.0014320872
223	0x3c1275d9	0.00893923
224	0x3b907837	0.004408862
225	0xbbe90d92	-0.0071122134
226	0xbb35413e	-0.0027657296
227	0x3c0253c0	0.007954538
228	0xbb51b175	-0.0031996642
229	0x3ca34698	0.019931123
230	0xb6422515	-2.8929837e-06
231	0x3b03b046	0.002009408
232	0x3ba210a1	0.00494583
233	0xbc180904	-0.009279493
234	0xbb45a824	-0.0030160034
235	0x3b44235a	0.0029928298
236	0xbb8b7fd4	-0.0042571817
237	0x3ca8bb72	0.020597193
238	0x3b682a1e	0.0035425494
239	0xbb2b1f0d	-0.0026111037
240	0x3c8b1418	0.016977355
241	0x3bbf331a	0.005834949
242	0xbb99e46a	-0.0046964185
243	0x3b4598ee	0.0030150968
244	0x3c401346	0.011723345
245	0xbc9a32c4	-0.018823035
246	0x3d14992b	0.036278885
247	0x3b811507	0.0039392742
248	0xbc1523aa	-0.009102741
249	0x3c9f05ab	0.019411882
250	0x3adf0f34	0.0017018081
251	0xbb8c9eef	-0.0042914073
252	0x3c0d0341	0.008606733
253	0x3c0a8090	0.008453503
254	0x3c4c6799	0.0124758715
255	0x3c596c24	0.013270412
