models/blood/28-_ssim_laplacian_identity.pth (torch, 27360 bytes, 3 tensors)

conv.0.weight f4 [128, 32, 1, 1]
00000000: 5d6c 2cbe 2ee6 1b3e f797 52bd 1b6f dcbd
00000010: f348 dcbc ee68 a3bd c84e c4bd d068 303d
00000020: c159 a93d 04fd 153e 8ae8 e93d b0cc 1bbe
00000030: c00d b5bd 8b85 483d 1060 f23d cde7 1a3d
00000040: 1590 e83d 8195 21be dd78 53bd 7584 8c3d
00000050: 0fe5 cabd f122 e13d e24a 8ebc dbdb cfbd
00000060: ecb1 0e3e dfb8 0d3e 5e82 023e e4df ab3d
00000070: 6447 1a3e c378 313e dea6 7ebd 0ab2 e63d
00000080: 683a 3cbc 9e88 0ebd d699 0a3e 6c74 0abe
00000090: 221f 85bd 144d fdbd e7fe 083d e5b9 05be
000000a0: 69e2 fabd 5afc 0fbe d30d 02be 40eb 203d
000000b0: 1fa9 063e f1b4 28be 9d1e 97bd da10 273e
000000c0: 3efc 87bd 8a32 213c 0319 3bbe 5ef2 02be
000000d0: e604 91bc c33f 49bd cf3f eebd 62e6 0b3e
000000e0: e3fc cbbd 9ae1 24be 39b3 15be 7d02 2c3e
000000f0: 07d2 e2bd 5582 a63d d955 bdbd 81b8 0fbd
00000100: 6c85 23be 909d bc3d ecdb 1e3b 530d ca3d
00000110: dac4 d73d 531e 77ba 5a19 0ebe 8849 a93d
00000120: 1f6b d53d 4964 b8bd 6096 4fbd b82d 55bd
00000130: 2b70 5ebd 9ee5 13bd 309d c339 8635 e43d
00000140: ffea b9bd 106b 8b3d 1b3c c9bd 7ab6 bdbd
00000150: e614 be3d 5c2c 2bbe adef ae3d ed17 33bd
00000160: 1401 fdbd 4f50 8d3d 488d e5bc ad3b cdbd
00000170: 2cbb 4bbd a3eb c13d f39f 2fbe d0dd 28be
00000180: f4c2 213e 43e1 803d dad5 de3d 7616 3dbd
00000190: 7cc9 993b ccca adbd 1c90 653d 6740 45bd
000001a0: 7bda 033e 7287 b63d 0a0e a93c 9d3e f2bd
000001b0: c7ce af3d ba7f 103e cca8 b03d f170 933d
000001c0: 06e5 a83d fb32 093e 7d63 313e 4def d13d
000001d0: 7bf7 b3bd 7f82 fb3b 287b 24be f7eb 22be
000001e0: 6114 e23d 3e52 12bd b067 f73d f88a ccbb
000001f0: 5e7f 913d 9256 9cbd a593 d8bd 23bc febd
00000200: 4865 443d c975 23be 338f ca3d 18c3 153e
00000210: cd0d d2bd 8711 dc3d c56a c7bc 1d70 d0bc
00000220: c3ec bd3d fda3 153e 0ae3 273e 08db bdbd
00000230: 2f6a 0a3d debe 67bd ba81 c23c 6954 303e
00000240: c7eb 57bd a62d 883d 1a75 1ebd 67e0 2a3e
00000250: 5653 b2bd d57c 65bd 5135 1d3e 418f b13d
00000260: 4d03 343d d0d5 ff3d 29d3 4bbc 5625 f33c
00000270: 51e9 193d 64fc bfbd 0ada ba3d d8c7 bdbb
00000280: f4e4 babd 7d41 c03d 9bc9 933d 8399 ccbd
00000290: 3a2d ee3c 3688 a53d 9a41 f8bd 89f8 b2bd
000002a0: ff1d c93d d63f c6bd e5c7 12be 0719 213e
000002b0: da1f 83bd 4734 22bb 52ce df3d 5630 0c3b
000002c0: 4f58 1cbe cd95 4e3c a3dd 09bd 0215 2bbd
000002d0: 7066 e63c 6626 cf3d c980 1abe 077f b23d
000002e0: 92c9 e8bc aaa9 06be e5ea 113d ee79 1fbe
000002f0: 5482 293e 8014 923d 66df c0bd 8d89 2dbe
00000300: 6943 adbd 7184 44bd 64b3 f63c 92a5 04be
00000310: 695f 48bd eebe 28bd 3e96 a63d 4a21 d93b
00000320: dad3 05bd 37a0 08be d2ce ee3d a383 4a3d
00000330: ee23 fe3d 2c6e 08bd 4ce5 09be 78b2 1fbd
00000340: b9a8 263e 5303 19be c1be 14be 0c57 923d
00000350: adc0 2ebe b562 7a3d 67a4 52bd 25f4 a13d
00000360: 700e dd3d a4af 08be d136 d23c 51e9 22bc
00000370: 1284 0bbd c0bb 773d c4f3 27bd 9718 a1bd
00000380: 705f 8fbd 9de9 9f3d 9e34 06be 10bd d83d
00000390: 4738 9abd 2d09 5e3d f61c 46bd b26d f6bd
000003a0: e026 b63d 35a2 00be 2d4a 173e 6bb4 9cbb
000003b0: 04c1 0f3d 3bca a33d e37c 9dbd 5562 003e
000003c0: e958 823b ff92 123d c2f9 87bd 07d3 8dbd
000003d0: aa5c d4bd eb68 10be 4e92 cc3d 38a6 053e
000003e0: 773c 8e3c 5e35 03be 2e67 f2bd 2f52 88bd
000003f0: a091 7cbc b229 76bd 9dee 053e 58f5 143e
-0.16838212 0.15224525 -0.051414456 -0.10763379 -0.026890254 -0.07978998 -0.09585339 0.043068707
0.08269072 0.14647299 0.114213064 -0.15214801 -0.08840513 0.04895548 0.11834729 0.03781872
0.113556065 -0.15779687 -0.051628936 0.06861202 -0.09906971 0.10992993 -0.017369691 -0.10149356
0.1393506 0.13840054 0.12745044 0.08392313 0.15066296 0.17331223 -0.062170856 0.11264427
-0.0114885345 -0.034798257 0.13535246 -0.13520974 -0.06500079 -0.12368217 0.03344622 -0.13059194
-0.122502156 -0.14061108 -0.12700586 0.039286852 0.13150452 -0.16475274 -0.07378886 0.16315022
-0.06639908 0.00983871 -0.1827126 -0.12787768 -0.017702531 -0.049133074 -0.11633264 0.13662103
-0.09960344 -0.16101685 -0.1461915 0.16797824 -0.11075216 0.081303276 -0.0924489 -0.035088066
-0.15968865 0.0920974 0.002423997 0.09865823 0.10535593 -0.0009426821 -0.13876858 0.08265978
0.10420822 -0.09003503 -0.05068052 -0.052045554 -0.05430619 -0.036107652 0.00037310412 0.11143021
-0.09078025 0.0680753 -0.09825917 -0.0926332 0.0928133 -0.1671614 0.08541808 -0.04372399
-0.12353721 0.06900083 -0.02802147 -0.10021148 -0.049739048 0.09468772 -0.1715086 -0.16490865
0.15797025 0.06292965 0.10880633 -0.046164 0.0046932083 -0.08485946 0.056045637 -0.048157122
0.12876312 0.08912553 0.020636577 -0.11828349 0.085843615 0.14111224 0.086259454 0.07199276
0.08246808 0.13398354 0.17323108 0.10250721 -0.087874375 0.0076754685 -0.16062605 -0.15910326
0.11039043 -0.035722964 0.12080324 -0.0062421523 0.071043715 -0.076336995 -0.10575036 -0.12438228
0.04794815 -0.159629 0.09890594 0.14625204 -0.102565385 0.107455306 -0.024342904 -0.025444085
0.09273674 0.14613338 0.16395202 -0.092702925 0.03379267 -0.05657851 0.0237435 0.172197
-0.05271509 0.06649332 -0.038685896 0.16687165 -0.08707301 -0.056027252 0.1535237 0.08669902
0.04394846 0.124919534 -0.012440481 0.02968089 0.037576023 -0.093743116 0.09123619 -0.0057916455
-0.091257006 0.09387491 0.072161876 -0.099902175 0.0290743 0.08082621 -0.121218875 -0.087388106
0.098201744 -0.096801445 -0.14334066 0.15732203 -0.064025596 -0.0024750398 0.10928024 0.0021391115
-0.15268062 0.0126089575 -0.033658635 -0.04176808 0.028125018 0.10114746 -0.1508819 0.08715635
-0.028416429 -0.13150659 0.035624404 -0.15573856 0.16553622 0.07132816 -0.0941761 -0.16947003
-0.08460123 -0.04797787 0.030114837 -0.12953785 -0.048919115 -0.04119771 0.08134125 0.006626283
-0.03267274 -0.13342367 0.116605416 0.049441945 0.12409197 -0.033308193 -0.13466376 -0.03898856
0.162753 -0.14942674 -0.14525892 0.07145509 -0.17065687 0.06112929 -0.051426318 0.07907895
0.10793769 -0.13348252 0.025660904 -0.009943322 -0.0340615 0.060481787 -0.041003957 -0.07866018
-0.07000625 0.0780823 -0.1310601 0.10582936 -0.07530265 0.05420797 -0.048367463 -0.120326415
0.088941336 -0.12561877 0.1477439 -0.0047822497 0.035096183 0.07997557 -0.07689836 0.1253751
0.003977884 0.035784718 -0.066394344 -0.06925016 -0.10369237 -0.14102523 0.09988843 0.13051689
0.017362816 -0.12813327 -0.11836086 -0.066563 -0.015415579 -0.060098357 0.13079305 0.14546716

conv.0.bias f4 [128]
00000000: 9e2d e93d ec0d cebd 3464 23bc be2e 663d
00000010: 9772 27bd 470f ddbd aaaa 19be 58a6 043e
00000020: fbd0 933c 4d4b cd3d b8ce 193e d62a 723d
00000030: 6b33 cf3d a752 0dbd 65e3 82bd 5c62 5bbd
00000040: 79dc 4cbd 54b6 bbbc 5e0c ac3c 9c75 adbd
00000050: bf59 b53c ce95 a83d d576 0f3e dd59 25bd
00000060: 58d9 023e bc21 16be 8b5a f03d e7c6 12be
00000070: bb6c bbbd 163c e43c 0cd7 783d 9bfc 023e
00000080: 42cc 02bd d67a c83d 4741 153d 8784 ec3d
00000090: 7f08 68bd e491 413c d14a 19be 366a c5bc
000000a0: 4575 0d3e 719c c93c d4ef 013e ab47 153e
000000b0: 9fe2 613d e9df 9a3d f2ed 173e fe3d 0fbe
000000c0: 6009 22bd 8a90 a1bd b7d7 acbc 1ab6 35bc
000000d0: 2655 86bd 3f99 f53d 3485 9f3a 8084 3d3c
000000e0: 4f2e e73c 7daf f33a 7950 46bd 5320 48bd
000000f0: 704b 07be e72a d9bd 8b82 9fbd 1f7c 213e
00000100: 9587 113e b23b b2bd de69 58bd 82dc 7c3d
00000110: 4f2f 89bd 7c4e c9bd f8df dabd 0a03 1fbe
00000120: 545e 91bb 934c db3d fcd1 a13c f3c8 153e
00000130: 5738 54bd aa9b f6bd 654c 23be e48a 93bc
00000140: 4106 f9bc 35f8 74bd 782d b9bd 9e44 293e
00000150: 29e4 113b caec fa3d 0951 113e 4c88 3c3c
00000160: c1b9 0c3e 714b 013c 64d8 1bbe 2a84 58bb
00000170: 988c dcbc 18dc d63d e68c abbd 0433 a33d
00000180: 798b ae3c a397 afbd 2aa6 e6bd 7e7a d7bd
00000190: 8cb7 9fbd 7af9 243e cbf8 e6bd c294 083e
000001a0: 051a 563d 30d1 c9bd 2f38 b23d 02b3 8fbd
000001b0: b023 eabc a4ca f5bd 6837 e3bc e5b0 14bb
000001c0: 13ea 99bd 14e0 65bd 3ff2 9b3d a0c3 6bbd
000001d0: 6e9f 05be 74b4 c6bd 259b a9bd cdd8 f43d
000001e0: 8613 ce3d 6a6b 02be 44ae 8abd fd0d 1b3e
000001f0: df42 9fbc 6b18 08be 565a 243e b1cd 0b3d
0.11385654 -0.10061249 -0.009972621 0.05619692 -0.040880766 -0.107939295 -0.1500651 0.1295408
0.018043986 0.10024128 0.15020263 0.059122883 0.10117229 -0.03450265 -0.06391028 -0.0535606
-0.050014947 -0.02291409 0.02100199 -0.08469698 0.02213752 0.08231698 0.14010175 -0.040368903
0.12778223 -0.14661306 0.1173602 -0.14333688 -0.09151598 0.027860682 0.06075196 0.12791674
-0.031933077 0.09789054 0.036439206 0.11548715 -0.056648728 0.011814568 -0.14969946 -0.024098497
0.13814266 0.02461073 0.12689143 0.1457812 0.055147763 0.07562239 0.14836863 -0.13988492
-0.039559722 -0.07888897 -0.021098955 -0.01109078 -0.065592095 0.1199212 0.0012170435 0.011567235
0.028220324 0.0018591728 -0.04841659 -0.04885895 -0.13212371 -0.10603886 -0.07788571 0.15770005
0.14211877 -0.08702792 -0.052835338 0.06173373 -0.066984765 -0.09829423 -0.1068725 -0.15528503
-0.0044362936 0.10707965 0.019753449 0.14627437 -0.051811542 -0.12041409 -0.15947111 -0.018010564
-0.03039849 -0.05980702 -0.090418756 0.16530082 0.0022261238 0.12252195 0.14191069 0.011507105
0.13742734 0.007891522 -0.15219265 -0.003303776 -0.02692251 0.10491198 -0.083764836 0.07968715
0.02130674 -0.08573844 -0.11262162 -0.105214104 -0.07798681 0.16110793 -0.11277922 0.13337997
0.052270908 -0.098543525 0.087021224 -0.07016565 -0.02858147 -0.12001541 -0.02773638 -0.0022688445
-0.07515349 -0.0561219 0.07614564 -0.05755961 -0.13049099 -0.097023875 -0.082815446 0.11955414
0.100623176 -0.12736288 -0.0677152 0.15142055 -0.019441066 -0.13290565 0.16050085 0.03413171

conv.2.weight f4 [16, 128, 1, 1]
00000000: 25fc 2c3b 02be 2dbc f611 813b 1125 a1bb
00000010: ce1d b63b 7af9 7ab9 23dc c3ba 2bb9 a9ba
00000020: 8fc6 bbba 39aa 20b9 bf4b 93bb 9cd0 dbba
00000030: 1fd5 86bb fa28 fbbb 3e49 e43a 5a28 1c3b
00000040: c020 023a cd75 d6bb 4652 3a3b 237d 103b
00000050: 57c7 d4bb a5b3 98bb a369 7cbb acd6 c93a
00000060: 65d2 dcba 0278 7f3a 931d 32bb 4314 6aba
00000070: 293b b0ba 7904 753b 02c1 55ba 718b 60bb
00000080: fc5c b53b e17a 22bb 3faf cc3a f166 0aba
00000090: 5a5e f9bb fc89 c73a df54 933a 19b8 39ba
000000a0: 0a86 debb 2f59 8939 e521 88bb 96af 5fbb
000000b0: 28ea 163a bd97 dc3a 8bec 0bbb 3339 bb3a
000000c0: 5bd6 dbbb 3650 15bc e183 aa3b 2193 58ba
000000d0: 0011 a53b 80a9 66bb 4a13 833b ae5c ba3b
000000e0: 2435 f1bb 520e 883b 25c1 1cbb 95c2 b53a
000000f0: e41c 363b 9714 243b 601b 8d3b bede 15bb
00000100: 18f6 6bbb 32b3 ce3a ae5b e33b f951 ddba
00000110: 5629 0cbb 906f c23b 1497 acbb 24f8 db3b
00000120: 7911 053b a2c2 c0bb 0a32 0fbc 68ce 56ba
00000130: 9839 0bba 65ee 0cbc b50f 03bc f59e f33a
00000140: 8d9b c0b8 3701 b73b be13 25bc d118 05ba
00000150: 8c82 563b a3b4 17bb abae a6bb 4e2b 633b
00000160: 0604 2fbb ed04 99bb c676 903b 8e05 a2bb
00000170: a9e1 db3b 0621 48bb 769b 1e3b 2f9f 71bb
00000180: 890f 583b 0608 2e3c f1d5 e3bb df59 053b
00000190: 24bb c73b 71e2 b1bb b036 c53b 09d5 30bb
000001a0: b6b4 e0bb a628 26bb 5b04 e73a 8888 683b
000001b0: a49f 6a3b a56d 73ba e6e7 243b 9b39 67bb
000001c0: dd80 063c 891a e53b 5976 f6ba 8bab 23bc
000001d0: 834e a13b c2ab d13a dd0d d23b 5921 42bb
000001e0: de35 7d39 a412 323b 863f 15bb 9dc3 fbb9
000001f0: 7304 3ebb ff69 9c3b dd0a 06bb ff2b 893b
00000200: 42b2 393b 98d5 b53b c50a b23b a614 1f3a
00000210: 26af c93b d898 ca3b fc9c 9b3b 8624 e039
00000220: 8361 0d3b 2f3c 503b b50f ecba a515 b7ba
00000230: a6d1 dfba 2026 a6b9 d2fc 393c 0c87 a43b
00000240: ccf6 213c 9575 5bbb cd4e a83b 2693 a63b
00000250: 063d 24ba 763f e4b8 b381 00bb db6e 943b
00000260: 39ba 4439 27c7 b23b 8b87 baba e60b 063c
00000270: 11be 8c3b 6516 8f3b 8756 633a d473 9dba
00000280: ecc2 a93b b784 96ba 42cd 4d3b 795c a33a
00000290: 9441 e73a e901 2a3b 8f1e a53b 6df6 053c
000002a0: d36d 7dbb 057f 8c3b e169 59ba ff58 d2b9
000002b0: 25f1 9039 e827 843b 3eb2 5b38 ff51 953b
000002c0: b945 74bb 5ee5 a6bb d696 b73b 0310 bc3b
000002d0: dd2a c23b 36cd 21bb 53bc bf3b 633f 9d3b
000002e0: 2b8b 68bb 4daf 913b 5e14 b13b a476 053c
000002f0: 2ff4 f43b af1f d53b 7970 c33b cdcd b8ba
00000300: dc42 30ba 6d11 bf3b d5ed d63b cc51 fb39
00000310: b132 d03b 02db b33b 9b20 a1bb d93a cb3b
00000320: 81b4 e43a 1371 4dbb 054b 64bb 6873 9a3a
00000330: 17ba 993b 2178 02bc f99e 2d3c cc57 b23b
00000340: 3730 fe3b bcd2 d33b 9792 a5bb a163 c538
00000350: 9cd1 9a3b 3d9a 07ba e9da 80bb 821f b43b
00000360: c4c4 80ba ec6e bebb c7ff c63b 42bd e439
00000370: 19a4 d63b 240c 593a 1be8 ac3b 6dbf d7ba
00000380: 29a5 6e3b 881e 333c b513 353b e9cb b03b
00000390: 3176 25b8 b6d0 51ba 17b0 c73b 3b20 5636
000003a0: 5031 72bb 2d37 ae3b bf8a 463b c74d c63b
000003b0: da62 be3b 922d 6f3b 7814 ab3b dc35 393b
000003c0: b311 d33b 72dc d73b 1b83 e93a 460d 1ebc
000003d0: 24b9 bb3b a338 a53b 35a0 ad3b 0f0f e8ba
000003e0: 80f4 833a 2091 ac3b 2e12 783b 4cb6 d93a
000003f0: c244 be3b 29ae ba3b a936 65b8 3ecc 8e3b
0.0026395407 -0.010604383 0.0039389087 -0.0049177487 0.005557752 -0.00023934795 -0.0014942925 -0.0012948861
-0.0014326143 -0.00015322202 -0.0044951136 -0.0016770544 -0.0041147615 -0.007664797 0.0017416847 0.0023827762
0.00049639866 -0.0065448047 0.0028430386 0.0022047244 -0.0064934897 -0.004660087 -0.0038515113 0.001539906
-0.001684737 0.00097453606 -0.0027178272 -0.0008929411 -0.0013445365 0.00373867 -0.00081540656 -0.00342628
0.0055347662 -0.002479248 0.0015616192 -0.00052796217 -0.0076101245 0.0015223618 0.0011240504 -0.00070846226
-0.006790881 0.00026197123 -0.004154431 -0.0034131757 0.0005756938 0.001682989 -0.0021350707 0.0014284014
-0.006708903 -0.009113362 0.0052037095 -0.000826167 0.005037427 -0.0035196245 0.004000102 0.005687318
-0.007361071 0.0041520977 -0.0023918834 0.0013867194 0.0027788216 0.0025036687 0.004306242 -0.002286836
-0.0036004838 0.0015769957 0.0069384193 -0.0016885392 -0.0021386943 0.0059337094 -0.0052670334 0.0067129303
0.0020304604 -0.005882577 -0.008739958 -0.0008194209 -0.00053110113 -0.00860176 -0.00799935 0.0018586802
-9.184247e-05 0.0055848616 -0.010075508 -0.00050772453 0.003273162 -0.002314844 -0.00508674 0.0034663263
-0.002670528 -0.0046697767 0.00440869 -0.00494451 0.0067102504 -0.0030537262 0.0024201549 -0.0036868562
0.0032968244 0.01062203 -0.006952994 0.0020347757 0.006095307 -0.0054286052 0.006018482 -0.0026982448
-0.00685748 -0.0025353818 0.0017625199 0.003548177 0.003580072 -0.00092860527 0.0025162636 -0.0035282138
0.008209434 0.0069916886 -0.0018803581 -0.0099896295 0.0049226894 0.0015996622 0.006410344 -0.0029621928
0.00024148027 0.0027171755 -0.0022773459 -0.00048020194 -0.002899435 0.004773378 -0.0020453252 0.004186153
0.002833501 0.005549144 0.0054334127 0.00060684455 0.0061549125 0.006182771 0.0047489386 0.00042751821
0.0021573014 0.0031774153 -0.0018010052 -0.0013968243 -0.001707603 -0.00031690393 0.011351781 0.0050209817
0.009885501 -0.0033486832 0.005136347 0.0050834594 -0.0006265197 -0.00010883708 -0.0019608557 0.0045298166
0.0001876139 0.0054558697 -0.0014231069 0.008181548 0.0042951186 0.0043666833 0.00086722564 -0.0012012669
0.005180707 -0.0011483644 0.003140286 0.0012463472 0.0017643445 0.002594108 0.0050390433 0.008176428
-0.0038670197 0.004287603 -0.000829367 -0.0004012063 0.00027645487 0.0040330775 5.237967e-05 0.004556894
-0.0037273003 -0.0050932607 0.005602698 0.0057392134 0.00592552 -0.0024688966 0.0058513074 0.004798816
-0.0035483341 0.0044459463 0.0054040393 0.008145962 0.007475398 0.006504021 0.0059643355 -0.0014099419
-0.000672383 0.0058309347 0.0065591135 0.00047935394 0.006353699 0.0054887543 -0.004917217 0.0062020835
0.0017448814 -0.0031347915 -0.0034834754 0.0011783661 0.004691373 -0.007963211 0.010596984 0.005442595
0.0077572125 0.0064643305 -0.0050528753 9.412249e-05 0.0047246944 -0.00051728246 -0.003932346 0.00549692
-0.0009824266 -0.0058115628 0.0060729715 0.00043628557 0.0065503237 0.0008279702 0.0052766926 -0.0016460248
0.003641436 0.010932572 0.0027630155 0.0053954017 -3.944914e-05 -0.00080038176 0.0060939896 3.1907246e-06
-0.0036955662 0.005316636 0.0030295101 0.0060517523 0.005810124 0.0036495668 0.005220946 0.0028260862
0.006441319 0.0065875584 0.0017815562 -0.009646719 0.0057288576 0.005042152 0.005298639 -0.0017704683
0.0010067374 0.0052663237 0.0037852633 0.0016610115 0.0058065364 0.005697031 -5.464876e-05 0.0043578437
