models/blood/28-_mse_sobel_identity.pth (torch, 18877 bytes, 3 tensors)

conv.0.weight f4 [64, 48, 1, 1]
0.071210824 0.09985209 -0.113921456 0.048686434 0.09828877 0.009542365 0.05195653 0.17024478
-0.076898076 -0.08173813 0.015419925 -0.00043631403 -0.07440493 0.1372934 -0.0021637902 -0.11825727
-0.09507833 0.018395873 0.004908684 -0.023472363 -0.033846628 -0.04132463 0.09071046 -0.08706626
0.12504049 0.10888357 -0.16495822 0.043699738 0.019295396 -0.14195774 -0.007507053 -0.01973972
-0.13493174 -0.10676996 -0.14235109 -0.0042590424 0.15765524 -0.141424 -0.045165118 0.024850741
0.049478926 0.0473807 0.045413982 -0.12579207 0.13985369 -0.09727376 0.092703156 0.0808657
-0.00735007 0.0654085 0.11031276 0.011016297 -0.09450532 0.043473788 -0.06261589 -0.19506447
0.10047248 0.1360422 -0.18503736 0.11585082 -0.080225214 0.15063012 -0.100478455 0.07833219
-0.1164036 -0.051349334 0.1642506 0.100910746 0.021936845 0.04542544 -0.13507873 0.039601777
-0.0075729904 0.025149316 0.048191037 0.11995427 -0.051498614 0.034981094 0.041732565 -0.123398356
-0.018833522 0.09429918 0.041585468 0.012090917 -0.085131936 -0.14705318 -0.08308482 -0.10359656
-0.018332006 -0.11932996 0.07035017 -0.11595902 0.0034329854 -0.06141475 0.098359376 -0.14230512
-0.0015917978 0.13760723 0.04511356 0.14965883 -0.10931519 -0.022715194 0.12390954 0.06591061
-0.029722484 0.108935155 -0.004127256 -0.16536789 0.08466204 -0.03383035 -0.029238265 -0.036173377
0.03699937 0.101846665 -0.09406504 0.14531478 0.01804513 0.14687626 -0.09828532 0.21182609
-0.0028191525 0.0524361 -0.0018772251 0.12174774 0.11713122 -0.016952585 -0.10899312 -0.007723911
-0.1942067 -0.05128717 0.04674667 -0.07721806 0.0010212394 0.06678266 0.1869399 -0.15090507
-0.11293556 -0.0073979762 -0.120820954 -0.21111605 -0.085895255 0.09326292 -0.011773713 -0.021048836
0.10990248 0.06910035 0.13178852 0.14946869 -0.04710788 -0.03674154 0.14238048 0.10798402
-0.056422427 -0.037804622 -0.006502973 0.022643898 0.05120651 -0.080595285 0.12958534 0.0018419191
0.04365566 0.0695127 0.057095975 0.102929205 0.04563186 -0.12846953 -0.13324434 0.06046955
-0.1496415 -0.042806152 0.09775226 -0.07041918 0.026400099 0.09788423 0.114348605 0.06454718
0.09636883 0.030036112 0.097256415 0.023388062 0.058008995 -0.05955052 0.013265076 0.098123655
-0.011789351 0.020564374 0.107381284 -0.17331572 -0.114106305 0.015789356 -0.11024144 0.016790852
0.034227874 0.19495675 -0.27631733 0.04417998 0.06321553 -0.18103279 -0.12085891 0.22250456
-0.19054471 -0.04019335 0.03315454 0.0030919833 -0.09196385 -0.083614856 0.059224695 0.0486358
0.10766803 -0.10087335 0.030138731 -0.081030175 0.0018448194 0.08988305 0.20293526 -0.2095414
-0.08580982 0.15295981 -0.09876225 -0.10897275 -0.09805114 -0.05992107 -0.06897437 -0.13447298
0.020437535 -0.0491165 -0.18956621 0.13974321 -0.072148226 -0.06504941 -0.2662373 0.0025513587
-0.0446401 -0.12596929 0.11863636 0.10206241 0.4537201 -0.11040734 0.01987935 0.032842882
-0.056421928 -0.1606997 0.26645404 0.036644965 -0.0286046 0.23651515 0.015433638 -0.049117714
-0.04797214 0.10223313 -0.07912368 -0.0078102252 0.10786662 -0.08611272 0.1267155 -0.0047299294
00000000: fbd6 913d 417f cc3d a74f e9bd 6d6b 473d
00000010: 9f4b c93d 9457 1c3c 5fd0 543d a654 2e3e
00000020: bd7c 9dbd 5266 a7bd daa3 7c3c 14c1 e4b9
00000030: 9d61 98bd a496 0c3e 60ce 0dbb de30 f2bd
00000040: 6db8 c2bd f1b2 963c 07d9 a03b 1d49 c0bc
00000050: c3a2 0abd 0444 29bd 68c6 b93d cc4f b2bd
00000060: 9d0a 003e 59fe de3d cfea 28be 7ffe 323d
00000070: 6111 9e3c 5f5d 11be bafd f5bb 31b5 a1bc
00000080: 8c2b 0abe 35aa dabd 7cc4 11be 708f 8bbb
00000090: 6070 213e 74d1 10be 0fff 38bd c893 cb3c
000000a0: 6aaa 4a3d 4412 423d 0304 3a3d a3cf 00be
000000b0: ce35 0f3e 7737 c7bd 27db bd3d eb9c a53d
000000c0: dbd8 f0bb e4f4 853d a8eb e13d b37d 343c
000000d0: 018c c1bd 9211 323d c23c 80bd fbbe 47be
000000e0: 84c4 cd3d a54e 0b3e 6f7a 3dbe 3243 ed3d
000000f0: 1e4d a4bd c83e 1a3e a6c7 cdbd a16c a03d
00000100: 0365 eebd ae53 52bd 4f31 283e 4baa ce3d
00000110: e6b4 b33c 0710 3a3d 1452 0abe 7935 223d
00000120: d926 f8bb f005 ce3c f763 453d 96aa f53d
00000130: 36f0 52bd 5648 0f3d c4ef 2a3d 47b8 fcbd
00000140: c248 9abc ee1f c13d 8655 2a3d fb18 463c
00000150: a759 aebd 1c95 16be 6028 aabd 6f2a d4bd
00000160: 012d 96bc 4463 f4bd c013 903d ec7b edbd
00000170: f0fb 603b 088e 7bbd a470 c93d 6fb8 11be
00000180: dfa3 d0ba e9e8 0c3e ffc8 383d 2a40 193e
00000190: a4e0 dfbd 3715 babc 49c4 fd3d 24fc 863d
000001a0: 917c f3bc 6519 df3d ef3d 87bb 3356 29be
000001b0: 4b63 ad3d b191 0abd 1685 efbc 892a 14bd
000001c0: a78c 173d fc94 d03d 2ca5 c0bd 66cd 143e
000001d0: 61d3 933c bb66 163e d049 c9bd f0e8 583e
000001e0: 88c1 38bb 3cc7 563d 390d f6ba e156 f93d
000001f0: 7ee2 ef3d 26e0 8abc c937 dfbd dd18 fdbb
00000200: 1fde 46be 7f12 52bd 7079 3f3d 8124 9ebd
00000210: 1cdb 853a 59c5 883d 2c6d 3f3e dc86 1abe
00000220: c24a e7bd b96a f2bb fa70 f7bd ce2e 58be
00000230: dae9 afbd a100 bf3d 88e6 40bc 9c6e acbc
00000240: 8d14 e13d 7c84 8d3d 92f3 063e 520e 193e
00000250: 31f4 40bd 4c7e 16bd 30cc 113e ba26 dd3d
00000260: 341b 67bd 05d9 1abd e416 d5bb b27f b93c
00000270: ebbd 513d 240f a5bd 05b2 043e 8d6c f13a
00000280: 47d0 323d ad5c 8e3d 78dd 693d 8ccc d23d
00000290: 79e8 3a3d 848d 03be 3471 08be ebae 773d
000002a0: 9f3b 19be 8155 2fbd 5632 c83d ee37 90bd
000002b0: 0545 d83c 8777 c83d 9a2f ea3d 5031 843d
000002c0: 055d c53d 4b0e f63c 5f2e c73d 5298 bf3c
000002d0: d79a 6d3d 3feb 73bd c355 593c 0ef5 c83d
000002e0: 1f28 41bc 9e76 a83c b8ea db3d ad79 31be
000002f0: 91b0 e9bd ae58 813c 44c6 e1bd f88c 893c
00000300: 8732 0c3d bea2 473e 7779 8dbe 11f6 343d
00000310: 2577 813d a960 39be e084 f7bd 3cd8 633e
00000320: 271e 43be c8a1 24bd 0ecd 073d dfa2 4a3b
00000330: 8b57 bcbd 443e abbd 9895 723d 5536 473d
00000340: 0e81 dc3d b096 cebd 80e5 f63c 26f3 a5bd
00000350: decd f13a 9b14 b83d 43ce 4f3e 0592 56be
00000360: 0fbd afbd 7fa1 1c3e dd43 cabd 1b2d dfbd
00000370: 09cf c8bd cc6f 75bd 6f42 8dbd 49b3 09be
00000380: 9e6c a73c 622e 49bd a51d 42be d818 0f3e
00000390: 73c2 93bd a038 85bd 4150 88be b234 273b
000003a0: 8ad8 36bd 18fe 00be 9ff7 f23d 1906 d13d
000003b0: 004e e83e 3e1d e2bd 05da a23c 4286 063d
000003c0: ae1a 67bd 768e 24be aa6c 883e 0819 163d
000003d0: 3254 eabc 0731 723e 5fdd 7c3c a82f 49bd
000003e0: 6f7e 44bd 9a5f d13d 990b a2bd ebec ffbb
000003f0: 2de9 dc3d de5b b0bd b5c1 013e 86fd 9abb

conv.0.bias f4 [64]
0.056875624 -0.03306901 -0.03034287 -0.05969854 0.14568587 -0.087130606 0.013165461 0.075674556
-0.074662246 -0.019757753 -0.1210095 -0.10424136 0.031183297 -0.025957327 -0.08737656 0.1583275
-0.08669234 0.14060128 -0.1271994 -0.098049514 0.13061816 0.073891856 -0.09776322 -0.13909228
0.10814673 0.14614476 0.06368028 0.19649944 0.14809322 0.043452773 0.16929454 -0.0370389
0.12621692 0.12540504 -0.13943748 0.1543907 -0.13827018 0.16850677 0.09020162 0.008075537
-0.08809896 0.005885573 -0.05588928 0.01950412 0.06713207 0.12658115 0.07869074 0.06432366
-0.11742566 -0.06581507 0.14366163 0.109290026 0.011567891 0.12604977 -0.16529226 0.17163362
0.019648274 -0.08316999 -0.054793548 -0.02530976 -0.10894545 0.021615539 0.15293081 -0.11588339
00000000: 6af6 683d 5f73 07bd 9c91 f8bc 7586 74bd
00000010: ad2e 153e 8871 b2bd f2b3 573c 43fb 9a3d
00000020: 85e8 98bd 03db a1bc d4d3 f7bd 7f7c d5bd
00000030: 1d74 ff3c 76a4 d4bc 7bf2 b2bd 9b20 223e
00000040: c18b b1bd c8f9 0f3e 8f40 02be 2fce c8bd
00000050: c4c0 053e 9d54 973d 1538 c8bd 356e 0ebe
00000060: 087c dd3d f9a6 153e cf6a 823d 2637 493e
00000070: c0a5 173e 89fb 313d 8c5b 2d3e 1ab6 17bd
00000080: 023f 013e 2e6a 003e b3c8 0ebe 9818 1e3e
00000090: b396 0dbe 0a8d 2c3e a0bb b83d 424f 043c
000000a0: 3a6d b4bd c4db c03b 28ec 64bd 1bc7 9f3c
000000b0: 8a7c 893d 7d9e 013e 9c28 a13d 20bc 833d
000000c0: dd7c f0bd 0dca 86bd 091c 133e 73d3 df3d
000000d0: 4087 3d3c 3113 013e 6042 29be b9c0 2f3e
000000e0: 6bf5 a03c 0755 aabd 336f 60bd 6a56 cfbc
000000f0: cb1e dfbd 1213 b13c e599 1c3e 4554 edbd

conv.2.weight f4 [16, 64, 1, 1]
0.017097194 -0.02250305 -0.0070188832 -0.024426768 0.04004259 -0.013730602 0.0293643 0.06132457
0.026634404 -0.05919562 -0.02327191 0.06263936 0.09182565 -0.020296127 -0.00674235 0.02602584
-0.015327211 0.008869742 -0.030288093 -0.027412038 0.038662247 0.020167455 -0.008751356 -0.023972275
0.022232061 0.03963894 0.039584346 0.050179448 0.03453427 0.011496279 0.044808414 -0.011548484
0.028756935 0.014552018 0.00080750836 0.0066559957 0.0012314746 0.0254546 0.015826846 0.011269372
-0.015693018 0.060008388 -0.018289445 -0.01720567 0.008055463 0.038535945 -0.005579066 0.008923563
-0.0068346336 -0.018966472 0.029154591 0.04395567 -0.011993592 0.026357818 -0.024382425 0.021505632
0.00541962 -0.0018607146 0.041974474 -0.0061982824 -0.00098869 0.02448034 0.027135951 -0.026852394
0.017456656 -0.024315674 -0.017569456 -0.021859974 0.042018037 -0.019491868 0.032540135 0.06561111
0.025932508 -0.06968774 -0.013947418 0.06570116 0.104940735 -0.025461452 -0.013822763 0.020228704
-0.015621086 0.0149557255 -0.028140288 -0.034771547 0.022453165 0.020895688 -0.0070962245 -0.024619844
0.022060389 0.037305377 0.035132855 0.03552543 0.022969393 0.014413125 0.02945659 -0.010106267
0.01575206 0.007877361 -0.0035552166 0.0048426557 -0.0049360236 0.028951162 0.013013891 0.0122063365
0.007840804 0.0721447 0.0070915725 -0.017853688 0.014173819 0.04855289 -0.005302456 0.005511817
0.009404499 -0.019572908 0.03446507 0.040234488 0.002733838 0.027043313 -0.038286768 0.028974768
0.011160697 -0.024420291 0.051536374 -0.016191626 -0.010730218 0.022142326 0.021439184 -0.024246741
0.008662719 -0.0057849777 -0.013759025 -0.017613366 0.030995151 -0.013865027 0.0049866186 0.03887336
0.0150445355 -0.01868474 -0.019149246 0.032501552 0.04130342 -0.0140068475 -0.023157867 0.030969465
-0.012224254 0.013249398 -0.019200526 0.00017199432 0.030175108 0.004880465 -0.018137667 -0.019102648
0.009760177 0.03373743 0.024351232 0.03765868 0.024675233 0.02238309 0.04093498 -0.012699264
0.03705676 0.013546846 0.00094914547 0.008009038 0.022467626 0.021642223 0.01107753 -0.0030462442
-0.018037038 0.022020621 -0.0020523155 -0.008083618 0.014987218 0.020164898 0.0007948259 0.0112375785
0.0037345502 -0.01061273 0.023435472 0.03933358 0.016006261 0.020192528 0.00033727323 0.02119112
-0.00042596547 -0.006512471 0.00500249 0.0022445286 -0.007841795 0.009374367 0.031706758 -0.021219287
0.024446731 -0.0070434297 -0.009109056 -0.0051553 0.015109294 -0.017677335 -0.005269922 0.029082568
-0.0012748593 0.008879704 -0.022214927 0.00026352084 0.0056951144 0.00062061456 -0.024514252 0.06590455
-0.005823246 0.008597288 -0.011236548 -0.020111753 0.037970956 0.0046904883 -0.003809567 -0.02512914
0.014232823 0.026574802 0.011942013 0.046431653 0.064875305 0.022392886 0.04965531 0.0018334687
0.059442107 0.018767253 -0.024571698 0.009714306 0.015699409 0.014652018 0.0073572737 -0.0022150355
-0.02802015 -0.013673195 0.017279211 0.0011266125 0.046870325 0.004399524 0.00869293 0.013103254
-0.01678722 -0.0037038056 0.016261015 0.051278394 -0.0029410948 0.031433 0.014271365 0.0075426116
0.005138759 -0.002051918 -0.018006545 0.008416186 0.005813412 0.00040218112 0.060954392 -0.016709471
00000000: 6a0f 8c3c 5158 b8bc a9fe e5bb a51a c8bc
00000010: b303 243d 52f6 60bc 678d f03c 792f 7b3d
00000020: 6530 da3c 1b77 72bd bca4 bebc 1149 803d
00000030: 160f bc3d 1044 a6bc eeee dcbb 2434 d53c
00000040: fb1e 7bbc 6552 113c bc1e f8bc 368f e0bc
00000050: 4e5c 1e3d 3836 a53c d961 0fbc 8161 c4bc
00000060: 0320 b63c 715c 223d 3223 223d f788 4d3d
00000070: cf73 0d3d e45a 3c3c 0789 373d da35 3dbc
00000080: aa93 eb3c 966b 6e3c f8ae 533a 8a1a da3b
00000090: 6e69 a13a 2a86 d03c 4da7 813c 2ca3 383c
000000a0: a58e 80bc 5bcb 753d bfd3 95bc e8f2 8cbc
000000b0: 10fb 033c ded7 1d3d 99d0 b6bb 2334 123c
000000c0: 10f5 dfbb 935f 9bbc 9cd5 ee3c dc0a 343d
000000d0: c580 44bc 5aec d73c a7bd c7bc 942c b03c
000000e0: 1197 b13b 39e3 f3ba 6ded 2b3d f61a cbbb
000000f0: ee96 81ba fe8a c83c 374c de3c 8df9 dbbc
00000100: 4301 8f3c aa31 c7bc d2ed 8fbc b013 b3bc
00000110: 1b1b 2c3d 69ad 9fbc ce48 053d 1e5f 863d
00000120: 6970 d43c 72b8 8ebd b683 64bc 548e 863d
00000130: 2beb d63d 8994 d0bc df78 62bc abb6 a53c
00000140: 95ef 7fbc dc08 753c 7686 e6bc 9c6c 0ebd
00000150: b3ef b73c 6f2d ab3c 7287 e8bb 8eaf c9bc
00000160: fdb7 b43c 86cd 183d 78e7 0f3d 1d83 113d
00000170: 4f2a bc3c 0725 6c3c f24e f13c c294 25bc
00000180: 770a 813c 0c10 013c a3fe 68bb 24af 9e3b
00000190: 5ebe a1bb fd2a ed3c 3738 553c 16fd 473c
000001a0: b776 003c 9ac0 933d 6c60 e83b e641 92bc
000001b0: 4e39 683c 65df 463d 3ac0 adbb 799c b43b
000001c0: 5415 1a3c 5d57 a0bc 3f2b 0d3d ebcc 243d
000001d0: 312a 333b f089 dd3c 96d2 1cbd 7e5c ed3c
000001e0: 5bdb 363c 100d c8bc ce17 533d 4da4 84bc
000001f0: cccd 2fbc d363 b53c 3aa1 af3c 1aa1 c6bc
00000200: 14ee 0d3c e98f bdbb 896d 61bc e849 90bc
00000210: 8be9 fd3c 232a 63bc ca66 a33b ac39 1f3d
00000220: 5b7d 763c bd10 99bc e1de 9cbc 5920 053d
00000230: c62d 293d fa7c 65bc 91b5 bdbc adb3 fd3c
00000240: 3d48 48bc 0114 593c 6c4a 9dbc 6059 3439
00000250: ca31 f73c 4fec 9f3b 7295 94bc 287d 9cbc
00000260: 26e9 1f3c 4230 0a3d 3c7c c73c fd3f 1a3d
00000270: b723 ca3c be5c b73c 70ab 273d 9310 50bc
00000280: d4c8 173d 97f3 5d3c 13d0 783a 5738 033c
00000290: 070e b83c 084b b13c 877e 353c 7fa3 47bb
000002a0: 69c2 93bc 9764 b43c 2480 06bb 2771 04bc
000002b0: f38c 753c db30 a53c dd5b 503a d21d 383c
000002c0: 5bbf 743b 04e1 2dbc bffb bf3c 3f1c 213d
000002d0: 901f 833c cd6a a53c 0cd4 b039 0099 ad3c
000002e0: 1e54 dfb9 9166 d5bb edeb a33b f118 133b
000002f0: df7a 00bc f296 193c f2de 013d 12d4 adbc
00000300: 8344 c83c 92cc e6bb 263e 15bc caed a8bb
00000310: f98c 773c 0fd0 90bc 4faf acbb 913e ee3c
00000320: 2e19 a7ba 2e7c 113c 14fc b5bc 2b29 8a39
00000330: 159e ba3b bdb0 223a 1dd2 c8bc f7f8 863d
00000340: eed0 bebb a4db 0c3c 8019 38bc 67c1 a4bc
00000350: 6f87 1b3d abb2 993b eea9 79bb a0db cdbc
00000360: c930 693c 66b3 d93c 6fa8 433c 1e2f 3e3d
00000370: 58dd 843d 4971 b73c 5e63 4b3d 0051 f03a
00000380: 9179 733d c8bd 993c 964a c9bc c128 1f3c
00000390: 0c9c 803c 050f 703c 4915 f13b 212a 11bb
000003a0: 838a e5bc 8905 60bc 228d 8d3c d8aa 933a
000003b0: 19fb 3f3d e229 903b cb6c 0e3c 08af 563c
000003c0: 5a85 89bc 8cbb 72bb d235 853c 4b09 523d
000003d0: 62bf 40bb e4bf 003d 71d2 693c 0328 f73b
000003e0: 0963 a83b 7979 06bb 7682 93bc 0be4 093c
000003f0: 6f7e be3b d6db d239 50ab 793d 4de2 88bc
