models/blood/28-_combined_ssim_l1_identity.pth (torch, 19182 bytes, 3 tensors)

conv.0.weight f4 [128, 16, 1, 1]
00000000: 4609 05be 9ec5 dfbd ce2d 073e a269 133e
00000010: f2d5 61bc e9a9 1fbe e696 023e 7047 f13d
00000020: ba93 62bd e2e2 243d bd4c 27be d32b 4d3e
00000030: 6d33 76be 44e7 a1bd 58b0 fc3c 538a 2f3e
00000040: c219 25bd dba0 1b3d 3f46 b9bd 8ba4 b4b9
00000050: 7614 1ebe 011a ebbd a790 103e 45c7 c7bd
00000060: 6552 25bd 6be8 3e3e 409e ac3d 951f c8bd
00000070: d45d 70be 8b0a 0b3e 4848 8ebc 9d36 373e
00000080: a458 25be cf3d 1e3d 0c13 383d 9df1 293e
00000090: 9b16 333e 91a0 3e3e b14d 54be 2faa e63c
000000a0: 241b a3bd 6dcb 2abe baa4 803e 812e 0c3e
000000b0: 7874 673e 780a 0fbe 7e5f fa3c 6c34 17be
000000c0: 4fc9 3a3e 7994 59bc 22bf 8abd d3fa 9f3d
000000d0: a9f6 303e 94b1 173e 6db4 ac3c a459 68be
000000e0: ff04 063c 0aa8 97bd f0bc dd3d d437 fe3d
000000f0: 1b1b bb3d e515 a53d 8ffd 7a3d dcf0 423e
00000100: 95c2 2cbe 7f25 403e 28d4 61be 1229 343e
00000110: 9b12 d03d 5947 e43d 869f 1c3e afd9 243e
00000120: 8889 8a3d 179c a6bd d234 f43c 3e2d b83d
00000130: 77e3 21be 7da1 513e 7552 813e eb31 813d
00000140: 4d9d 26bd 9281 4e3e 84ad 74bb eb45 2d3e
00000150: e1dc 24be d00e 47bd 8991 c2bc c77d 99bd
00000160: f512 cabc 45ab 583e 7ba0 3abe 46bc 293e
00000170: 44b7 513d a1ca 08be f774 f33d 4d71 283e
00000180: 322e 13bd c903 59be 61db 673e 0522 03be
00000190: 0717 a23d a9eb 15be 37af 763d 2ebe 413e
000001a0: a7ca 80be d8d5 6a3e 325c 5e3e 82e9 40bd
000001b0: 46c4 343e 9a74 ab3d 38bb 71be 1d54 e5ba
000001c0: 2e47 bdbd 4544 76bd 51ae 5f3d a168 6bbd
000001d0: e6e7 6abd 767f 49bc de9b d9bd 9682 7bbe
000001e0: a945 2d3e 5839 aeba 2873 65be 843e 243d
000001f0: 2191 0b3e 31c0 423e 4d43 243e a4dd 1fbc
00000200: c0ce d2bd 6b99 0a3e b816 48bd b242 77be
00000210: 5bf0 b43d 4393 493e bb01 d23d 1eab 333e
00000220: 5960 f43d 2389 32be 2e71 56be 1628 ff3b
00000230: 7c12 0bbe 0914 42be c411 05bb a944 ff3d
00000240: a923 07be 6c4a 22be 2ba5 7ebe 8a66 a7bd
00000250: c272 44be 959e 313e da73 713e a3f0 a73d
00000260: b4e4 0bbe 83db 0f3d 9dd1 0d3d 2f51 13be
00000270: 5d0d b13d d7fc 26be 74d9 a7bd 150a 04be
00000280: 7078 38be 668d 8c3d 6524 11be 2673 77be
00000290: 2017 35be 1e31 acbd 783a 1dbe 05d5 5e3e
000002a0: 8cf3 163e c083 223e 6368 813d 3c62 66be
000002b0: e911 78bd f456 edbb c178 243e 1731 723e
000002c0: 385f 363e 454b 1cbd 3b9a cabd 1e5d 3ebd
000002d0: 8f96 09be 3698 19be 587b 8dbd 5575 fbbd
000002e0: 3577 c9bd ec4c 2bbd d4b7 5b3e 2ccb 06be
000002f0: e35e 4cbd b205 2cbe 66c6 c7bd c5fc e33d
00000300: 3038 153e 6ac4 8dbd 3542 c4bd 7aa1 14be
00000310: 0160 553c f7c7 d8bd 5e0b 5bbd de2d 6fbe
00000320: 9061 993d 4c10 19bc 364f 5ebe 7b4e 4bbe
00000330: 1368 d93b 12fd ba3d e617 60bd 4091 61bd
00000340: 039d 093d 4a00 203e 75c3 ac3d 063a 003e
00000350: b1a7 c6bc 270e 3a3e a850 3b3e a5f2 4f3e
00000360: 0936 b8bc ca07 06be 321e c53d 53c4 2a3e
00000370: 6f0c 1e3e f10c 7abd fe16 04be 2a5f 1c3d
00000380: 2a22 343e 25a8 f63d 9f9f 06bd 13b4 36be
00000390: 0801 4e3e 1da8 073e 6c7f 9abd 344a 573e
000003a0: 86de 223d fc7b ad3c 8b04 cd3d 2248 d3bd
000003b0: fa73 46be 1ab2 24be 26f7 3abd 97a1 30be
000003c0: 38d1 003e 72b8 1b3d c76b 26be a27a 81bc
000003d0: 9964 d23d b661 61bd 9254 883d 83b3 4dbe
000003e0: 6d32 48bd 2d9e 063d 8482 c73d 43d4 8cbd
000003f0: e3c4 af3d b047 47be 4bec 6fbd ba84 013e
-0.12991819 -0.10926364 0.13201067 0.14395764 -0.013783919 -0.1559216 0.12752876 0.11781204
-0.055316664 0.040255435 -0.16337867 0.20036249 -0.24043055 -0.079054385 0.030845806 0.1714261
-0.040307768 0.0379952 -0.090466015 -0.0003445487 -0.15437493 -0.11479569 0.1411768 -0.097548045
-0.04036178 0.18643348 0.08428621 -0.09771649 -0.23473293 0.1357824 -0.01736845 0.17891927
-0.16147095 0.038633164 0.04494004 0.16596074 0.17489092 0.18615939 -0.20732762 0.028157322
-0.07964161 -0.16679163 0.25125676 0.13689615 0.22603023 -0.13968837 0.030563112 -0.14766091
0.18240856 -0.013280028 -0.06774737 0.07811513 0.17281593 0.14813834 0.021082127 -0.22690445
0.008179902 -0.07405098 0.108270526 0.12412992 0.09136029 0.08060817 0.06127697 0.19037193
-0.16871102 0.18764304 -0.22053587 0.17593792 0.10159799 0.11146421 0.15295228 0.16098665
0.06764513 -0.081352405 0.029810343 0.08993004 -0.15809427 0.20471759 0.25258222 0.06308349
-0.040677357 0.20166615 -0.0037334869 0.16921203 -0.16099884 -0.04859811 -0.023751037 -0.07494693
-0.024667243 0.21159084 -0.18225281 0.16575727 0.051200166 -0.13358547 0.11887544 0.16449471
-0.035932727 -0.2119285 0.2264228 -0.12805946 0.07914548 -0.14640678 0.06022569 0.18920204
-0.2515461 0.22933137 0.21714857 -0.04709769 0.17652997 0.08371849 -0.23606575 -0.0017496381
-0.09242092 -0.0601237 0.0546096 -0.05747283 -0.05735006 -0.012298455 -0.106254324 -0.24561533
0.16921104 -0.0013292236 -0.2240721 0.040098682 0.13629581 0.19018628 0.16041298 -0.009757433
-0.10293341 0.13535087 -0.04884979 -0.24146536 0.08834907 0.19685082 0.10254236 0.17545745
0.11932439 -0.17435126 -0.20941612 0.007786761 -0.1358127 -0.18952955 -0.0020304779 0.12464268
-0.13197197 -0.15848702 -0.24867694 -0.08173855 -0.19184402 0.1734565 0.2357935 0.08200195
-0.13661462 0.035121452 0.03462373 -0.14386438 0.08645127 -0.16307388 -0.08195773 -0.12894471
-0.18014693 0.06862907 -0.1417404 -0.2416502 -0.17684603 -0.08407806 -0.15354335 0.21760948
0.14741343 0.15870571 0.06318738 -0.22498411 -0.060563955 -0.0072430316 0.16061689 0.23651539
0.1780976 -0.03815772 -0.098926984 -0.046475522 -0.1343634 -0.1499947 -0.069082916 -0.12278239
-0.0983719 -0.041821405 0.21456844 -0.13163441 -0.04989518 -0.16799048 -0.097546384 0.11132196
0.14572215 -0.06922229 -0.095829405 -0.14514723 0.013023377 -0.10585015 -0.053477637 -0.2335734
0.07489312 -0.009342264 -0.21709904 -0.19854157 0.006634721 0.091303006 -0.05471029 -0.05507016
0.033597004 0.1562511 0.08435718 0.12522134 -0.024249883 0.18169461 0.18292487 0.20307405
-0.022486703 -0.13088909 0.096249 0.16676454 0.1543443 -0.061047498 -0.12899396 0.038176693
0.17591158 0.1204379 -0.03286707 -0.1784213 0.20117581 0.13247724 -0.07543835 0.210244
0.039762996 0.021177284 0.10010632 -0.103164926 -0.19380179 -0.16083565 -0.045645855 -0.17249142
0.1257981 0.038017698 -0.16252051 -0.015805546 0.10273094 -0.055024825 0.066567555 -0.2008801
-0.048876215 0.032865692 0.09741691 -0.06876423 0.08582475 -0.1946094 -0.058574956 0.12648287

conv.0.bias f4 [128]
00000000: 92c8 50bd 98c8 e53d c509 0f3e 2d90 223e
00000010: c9cd 5d3e b810 df3d c9e7 38be 798d 853e
00000020: a96b e5bc 9dde 383e 523e e73d c5ef 3c3e
00000030: 674b 4f3d e54e 59be f114 b03b de49 823e
00000040: 16a4 21be 9664 593e 57d3 c9bd ef3a 0cbe
00000050: 3509 27bc deb3 3a3e ac56 1d3d e681 023e
00000060: 3bca 6c3d 7bc4 c83d ae97 d63d 0077 d5bd
00000070: 4b17 18be 05c4 7cbe 23df 07bd eced 12bd
00000080: 4bf1 20be b6bd 763e 1a60 39be b96e 213d
00000090: c416 583e 4b36 47bd 7b63 75bd 6a07 713e
000000a0: 0617 bebd 7528 353d 6f3c 473e 4a21 c5bd
000000b0: 45c6 143e 6f56 09be 4978 40be 396f 1abd
000000c0: 7eaa 1dbe 6c8b a73d 5fe7 84bd ecfa 05bd
000000d0: 217e c9bd 8e41 adbd bb1a 6ebe df2f aa3d
000000e0: c3a7 53be 4494 88bd 56ec 8a3e f825 4ebb
000000f0: f3e3 4abe 4e94 c83c b008 e83c e60b c43d
00000100: d9aa 023e 53d3 e8bd 4020 1abe 5a00 0e3e
00000110: 3ace 6abd ef4c 763e 4566 13be 9aef e0ba
00000120: d1e1 45be 3d80 c13d dbcf 9e3d 789d 4fbe
00000130: 3a01 093e 1643 413e 3059 4fbe 6669 273e
00000140: 328e 5e3e 6a16 4ebe 5f24 74be 1859 1ebe
00000150: 9d74 2abe 1133 0c3e 5469 b0bc c37f b53d
00000160: adb7 83be 864c 18be 757d 16bd d1de 94bd
00000170: e046 533e cdd8 983c 4cb2 efbd 3b0d 113c
00000180: f49b 55be 9758 0abd 8549 903d d24b 49be
00000190: 466d 8e3c 042f a9bd 9c5a 023d 152e 3f3e
000001a0: 224f 7bbd c7de c73d b3cf 98bc f15e 59be
000001b0: 13e2 b3bd f6b3 45be 7e6d 143c 4e30 d63d
000001c0: 15c1 5f3e 7e93 153e df06 76bd 4e7e aa3d
000001d0: e300 b8bd 9f22 223e f531 fbbd 5a9c 673e
000001e0: dce9 563e 4a2f 3abe 815d 293e 7b93 b43d
000001f0: b952 313e 026e 62be c836 503e 5b34 dcbd
-0.05097253 0.11219901 0.1396857 0.15875311 0.21660532 0.10891861 -0.18057169 0.26084498
-0.028005438 0.1805367 0.112911835 0.1845084 0.05060902 -0.21221502 0.00537359 0.2544698
-0.1578525 0.21229777 -0.09854763 -0.13694356 -0.010195066 0.18232676 0.038412735 0.12744865
0.05781005 0.09803101 0.10478149 -0.10423088 -0.14852636 -0.2468415 -0.033171784 -0.03587143
-0.15717046 0.24095806 -0.18103066 0.039412234 0.21102434 -0.048635762 -0.059909325 0.23537984
-0.09281735 0.044228036 0.19456647 -0.0962549 0.14528759 -0.13411878 -0.18795885 -0.037703726
-0.15397069 0.081808895 -0.06489443 -0.03271 -0.0983851 -0.08459769 -0.23252384 0.08309912
-0.20669465 -0.066689044 0.27133435 -0.0031455737 -0.19813518 0.02448478 0.028324455 0.09572582
0.12760486 -0.11368432 -0.15051365 0.13867322 -0.05732558 0.24052785 -0.14394481 -0.001716125
-0.19324423 0.09448288 0.07754489 -0.20274913 0.13379374 0.18873248 -0.20248866 0.163488
0.2173393 -0.20125738 -0.23842 -0.15463674 -0.16646047 0.13691355 -0.0215346 0.08862259
-0.2572607 -0.14872941 -0.03674074 -0.07269061 0.20632505 0.018658066 -0.11703929 0.008853252
-0.20860273 -0.033775892 0.07045273 -0.1965783 0.01738609 -0.08260921 0.031824693 0.18669923
-0.061354764 0.09759288 -0.018653726 -0.21227624 -0.087833546 -0.19306931 0.009059308 0.10458432
0.21850999 0.14607045 -0.060065147 0.08324872 -0.08984544 0.1583352 -0.12265388 0.22618237
0.20987648 -0.18182102 0.16539575 0.08817192 0.17316712 -0.22112277 0.20333397 -0.107521735

conv.2.weight f4 [16, 128, 1, 1]
00000000: eec1 beb8 9705 ed3b 84e0 e53b 90b8 99ba
00000010: 1d6f 083c 5d24 2c3c 8269 8fbb 4cbe 1e3c
00000020: 0cfc c7bb 9b65 d63a e2ac a13c c5f7 763c
00000030: b109 dcbb 3b52 3dbc 5b12 f3bb 6fe3 833c
00000040: 2619 99bb c26c a63c 1b05 4e3b d3ff b9bb
00000050: 26c5 d43b 9b83 863b e81c 3c3c fbd0 173c
00000060: a67f 903c 90ee 46bc 956d ea3b 8f7f 0b3c
00000070: 9ed1 093a 16d1 76bc 963a 60bc b9b4 463b
00000080: e648 25ba 4c10 5b3c 7201 463b fae7 e43b
00000090: fd3c 9a3c 90a2 6aba bc4c 88bb 7853 863c
000000a0: 02f1 12bc 65fe 59bb 5619 7b3c 0000 0000
000000b0: 72cc 973c 08fe beba 475c ec3b b6dd 1cbc
000000c0: 0000 0000 6129 913c 8775 b03b 22a8 4a3c
000000d0: 9794 543c 2e55 883b c728 47bc a4c1 dc3a
000000e0: 737e 523b 6738 ddbb 9bb0 823c 823f 0d3c
000000f0: 9d6b 4f3c 0271 26bb 4048 7f3b 1aa8 4f3c
00000100: 9abb 313c 1b03 0739 1cd6 2cbc 2d72 353c
00000110: 07c2 253c a424 d13b 109d a0bc e861 01bb
00000120: 2391 02bc 5e04 0f3c 1d6c 923c c3c3 f03a
00000130: e4e1 ac3a c270 283b 69e2 02bb 1fdd 7c3c
00000140: 7882 ff3b 34f9 fb3b 5178 88bc 0000 0000
00000150: ffdf 463b 6a81 8a3c 1f3e 80ba 6d6a 933c
00000160: a2c6 dcbb 82ce 0abc 4ac7 0dbc 6069 b0bb
00000170: 8c6f d53b 435c a13b 3145 e63b bf37 013b
00000180: 0000 0000 e8d3 92bc 10f9 523c 128d c03b
00000190: 6f40 b03b 0e6c b1ba fa7c 883b a886 b83b
000001a0: 2372 883b 730d c93b bf36 20bb b7c4 fdbb
000001b0: df4b 21bb b67a 31bb 30e2 e03a da5d 003c
000001c0: 0369 733c 2f45 2d3c c1a3 28bc aaaa 203c
000001d0: 8c8c d93a e76b 943c de6e 40bc f806 843c
000001e0: 3286 623c d1f1 1abc 6f3f a43b ffcc 723c
000001f0: af17 2e3c a050 8e38 b4b7 7d3c 0a19 12bc
00000200: 2308 d33b fdb4 f93b d128 ab3b d34b 003c
00000210: f6bf 0a3b b528 633b 0b2c 0f3a d91e 973b
00000220: 0f86 b5bc 0f49 023c 9b6b 213c d9e9 343c
00000230: 866b 3d3b 956a 0abc f0df c4bb b4e6 433c
00000240: c4fa 5fbb 613e 7b3c 9127 3f3b 7e91 11bb
00000250: 7395 b0ba 7af9 763c b45c 2a3c a14b 523c
00000260: 520c 753c 60dc 8b3b e802 cb3b 8ec9 3ebb
00000270: 48b2 12bb 7b7d d0bb 8ada b6bb e2da 933a
00000280: b1ec 3fbb 0cf6 513c c3c5 87bb 6e64 b43b
00000290: b628 533c d86e f83b 5464 e9bb 6793 5d3c
000002a0: 0b27 24bc fc91 71bb aaef 523c 0000 0000
000002b0: 7639 5d3c e040 9d3a 8f9f a0bb 84b8 6f3b
000002c0: 0000 0000 e2b0 773c a28a c73c 55bc ac3b
000002d0: 3326 ce3b cfca 923b 0218 9dbb 5005 c73b
000002e0: 5128 9fbb 59da c5bb efca 323c f86b 1f3b
000002f0: d0a8 e73b c125 8d3a 67e9 2fbb cb3d 2c3c
00000300: 1904 103c 1862 eebb 3f94 48ba e604 473b
00000310: 34b0 f73a 5912 1d3c 1051 0e3b 00f4 713a
00000320: 65ee b6bb a5a0 0e3c 9b80 593c 7c10 083c
00000330: 2177 2c3b 7ead 3b3a 6fb3 e03b a832 e93b
00000340: d18f 853b aead f5bb 93ab 6a3a 0000 0000
00000350: ef44 1c3b f6e2 583c 40e2 ba3a aab8 3d3c
00000360: f854 29bc a50b 333a dab8 243b 89db 79bb
00000370: 7c87 303c d410 973b ad4f cfbb 1c82 08bc
00000380: 0000 0000 35f0 3fbb d242 0a3c 236d 8a39
00000390: 0fd5 e03b b010 7a3b 306b 343b 3d09 863b
000003a0: bd66 afbb 133b 723b 41f7 b93b 725a c1bc
000003b0: c644 b8bb 4f17 7b39 f691 8c3b 9b0f dd3b
000003c0: 6717 573c a97e db3b 94e1 1ebc 0931 19bb
000003d0: 9ec5 7bbc f714 673c 492f 303b dff9 333c
000003e0: 5d37 463c 2e43 113d d6ef 153c d221 453c
000003f0: a4c1 b53b 2638 a03b acc3 1e3c 3e03 7bbc
-9.096028e-05 0.0072333324 0.0070152897 -0.0011727978 0.008327273 0.010506717 -0.004376591 0.009688925
-0.0061030444 0.0016357185 0.019735757 0.015073721 -0.0067150225 -0.01155525 -0.0074179596 0.01609966
-0.0046721874 0.020315532 0.0031436149 -0.0056762486 0.0064932285 0.004105044 0.011481501 0.009266133
0.017638993 -0.012141839 0.0071541765 0.008514299 0.00052573706 -0.015064498 -0.013685843 0.0030320121
-0.0006305113 0.013370585 0.0030213264 0.0069856616 0.01882791 -0.00089506153 -0.004159538 0.016397223
-0.008968594 -0.0033263203 0.015325865 0.0 0.018530104 -0.0014571557 0.0072131488 -0.009574344
0.0 0.017719926 0.005385104 0.012369188 0.01297488 0.004160545 -0.012155718 0.0016842377
0.0032118827 -0.0067511084 0.015953353 0.0086210985 0.012659934 -0.0025396948 0.0038952976 0.012674356
0.01084795 0.0001287576 -0.0105490945 0.011074585 0.0101170605 0.0063825417 -0.019606143 -0.0019742195
-0.007969174 0.008729069 0.017873818 0.0018368888 0.0013189879 0.0025701975 -0.0019971377 0.015433579
0.0077975355 0.0076896194 -0.016658934 0.0 0.0030345914 0.016907413 -0.0009784139 0.017995084
-0.006737546 -0.008472087 -0.008653471 -0.0053836554 0.0065135416 0.0049243285 0.007027291 0.0019717065
0.0 -0.01792331 0.012876764 0.005876192 0.005378775 -0.0013536231 0.004165289 0.0056312867
0.004163997 0.0061356365 -0.0024446694 -0.0077443975 -0.0024611873 -0.0027081198 0.0017157253 0.007834876
0.01485658 0.010575577 -0.010292948 0.0098063145 0.0016597672 0.018117858 -0.011745183 0.016116604
0.01382594 -0.009457068 0.0050124447 0.014819383 0.010625764 6.786105e-05 0.015485693 -0.008917103
0.006440179 0.0076204524 0.0052233716 0.007830578 0.0021171547 0.0034661714 0.000546158 0.0046118316
-0.02215865 0.007951989 0.009852315 0.011042082 0.00289032 -0.008448263 -0.0060081407 0.011956859
-0.0034176568 0.0153346965 0.002916787 -0.0022211964 -0.0013472274 0.015074128 0.010398079 0.012835414
0.014956551 0.004268214 0.006195415 -0.0029111835 -0.0022384096 -0.0063626147 -0.005580251 0.0011280442
-0.0029285366 0.01281501 -0.004143448 0.005505136 0.012888124 0.007581573 -0.0071225557 0.013523913
-0.010019074 -0.0036860695 0.012874523 0.0 0.013502469 0.0011997484 -0.0049018334 0.0036578486
0.0 0.015117856 0.024358097 0.0052714744 0.006291175 0.004479743 -0.0047941217 0.0060736313
-0.004857101 -0.006037992 0.010912641 0.002432583 0.0070696846 0.0010768698 -0.0026842 0.0105127795
0.008790039 -0.0072748773 -0.0007651485 0.003036791 0.0018897117 0.009586894 0.0021715797 0.0009229779
-0.005582618 0.008705293 0.013275291 0.008304711 0.0026316124 0.0007159336 0.0068573277 0.0071166344
0.004075982 -0.007497511 0.0008951958 0.0 0.0023844799 0.013237705 0.0014258102 0.011579672
-0.0103352 0.0006830043 0.0025134594 -0.0038125238 0.0107744895 0.0046101604 -0.0063266368 -0.008331802
0.0 -0.0029287462 0.008438783 0.00026402724 0.006861336 0.003815692 0.002752971 0.0040904568
-0.0053528235 0.003696148 0.005675227 -0.023602698 -0.005623433 0.00023945908 0.004289861 0.006746245
0.013128138 0.0066984487 -0.009697337 -0.0023375174 -0.01536694 0.0141041195 0.0026883653 0.010984867
0.012098161 0.03546446 0.00915142 0.012031989 0.0055467654 0.004889506 0.0096902065 -0.015320597
