models/blood/28-_mse_laplacian_identity.pth (torch, 27353 bytes, 3 tensors)

conv.0.weight f4 [128, 32, 1, 1]
0.012878119 -0.15024722 -0.033330087 0.037330557 0.053436413 0.06680131 -0.13619506 -0.039425172
0.09297542 -0.008790312 -0.08118456 0.08709312 -0.061622582 0.1315714 -0.03667415 0.08232259
0.0868358 0.008841161 0.09806108 0.02901209 0.16394477 -0.12075972 0.0036196227 -0.02950683
0.1189127 0.0738789 -0.051995184 0.050736602 -0.094810426 -0.07591555 0.08319162 0.08441214
0.07930918 -0.081812404 -0.10034264 0.09392299 -0.078826755 -0.0491261 0.180572 -0.04437176
0.043394063 -0.056743186 0.10780228 0.0980716 0.1779549 0.13694444 0.121852055 -0.010555965
-0.086538024 0.17094937 -0.15209527 0.055671103 -0.025352774 0.13169624 -0.05224497 -0.00047372846
-0.08132985 -0.044503544 0.047865402 -0.12066505 0.09609581 -0.0075788703 0.103994325 -0.019322773
0.0646476 0.0210233 -0.14601736 -0.09239023 -0.16094503 -0.009421133 -0.035676744 -0.033800866
0.08268603 -0.106806986 0.1264097 0.007965625 0.04622656 -0.18013175 -0.124339044 0.17376278
0.044830613 0.20328602 -0.046842873 0.110664316 0.15966426 0.027507648 -0.027038973 0.20996451
-0.15310447 0.20342071 -0.062323894 0.110402316 0.15285987 0.036890384 0.076805055 -0.17584138
0.09121166 0.12839694 0.06895723 0.19850627 -0.105133995 -0.015915615 -0.16341592 0.0271216
-0.10718336 0.16888954 -0.07289297 0.015709078 -0.15861522 -0.009350983 0.016775941 -0.107132554
-0.020625006 0.039587006 0.025867734 0.008469714 0.13825187 0.038104735 -0.08007197 -0.10759638
-0.021093005 0.083001204 0.1581649 0.14721934 0.015264081 -0.029041063 -0.1088057 -0.0006565521
-0.11889352 -0.119375184 0.018124405 0.07687392 -0.03374669 0.036725465 0.07884561 -0.08390176
0.103776924 0.16698606 -0.17002304 -0.24578188 -0.065755986 0.087970175 -0.12593669 -0.15707858
-0.13754827 -0.21935828 -0.14094043 -0.115062304 -0.1040172 -0.016826674 0.050653927 -0.12759064
-0.15899257 -0.027601795 0.15535633 -0.09994165 -0.021168703 0.1067575 0.075111724 0.12917905
0.12658438 -0.13648881 0.11769051 -0.12381843 0.038138684 -0.14463605 0.044830173 0.1392222
-0.034632314 0.16092494 -0.034894165 0.022808569 0.14281586 0.069458805 -0.038836215 -0.036531884
0.099432915 -0.16812775 0.04406047 0.053518463 -0.18354286 -0.0543338 -0.033133972 0.12525697
-0.12296352 0.07720315 -0.007539265 -0.037074044 -0.07118468 -0.10804048 0.09013765 -0.14539303
0.15097931 -0.13265945 0.025588185 0.18915921 0.13320354 0.12915541 -0.1749193 0.046200234
0.02849067 -0.16418736 0.009823062 -0.10303624 0.06261641 -0.109052055 0.04852357 -0.0837664
-0.04982594 0.15039589 0.04010993 -0.022455703 -0.15922914 0.08183437 0.060232326 0.10564157
-0.008898433 0.16552451 0.050896488 0.00040649844 -0.0903909 0.09469892 -0.009802439 0.0962113
0.115689985 0.07681192 -0.15436386 -0.021143992 -0.03032592 0.09088861 0.039760165 0.093870826
-0.02045117 0.11447157 -0.069845945 0.15777954 0.05654214 -0.08922871 0.029423902 -0.042663537
0.107226364 0.0044742995 0.11272182 0.12964983 0.14722304 0.20295979 0.11036117 -0.119890235
-0.02848644 -0.1270049 0.053970598 0.09903288 0.15867582 -0.0936121 -0.10156077 -0.07151303
00000000: bffe 523c 68da 19be 2185 08bd ede7 183d
00000010: 24e0 5a3d 20cf 883d b876 0bbe 4a7c 21bd
00000020: e669 be3d 3e05 10bc 1744 a6bd e15d b23d
00000030: f667 7cbd a7ba 063e a237 16bd bf98 a83d
00000040: f8d6 b13d 84da 103c 3fd4 c83d c3aa ed3c
00000050: 23e1 273e df50 f7bd 3137 6d3b 4fb8 f1bc
00000060: 8088 f33d d24d 973d e7f8 54bd 2fd1 4f3d
00000070: f82b c2bd 9d79 9bbd 5e60 aa3d 46e0 ac3d
00000080: da6c a23d 438d a7bd 7180 cdbd b25a c03d
00000090: ec6f a1bd 7338 49bd dee7 383e 2abf 35bd
000000a0: f9bd 313d 8b6b 68bd 71c7 dc3d c3d9 c83d
000000b0: cf39 363e 2a3b 0c3e 928d f93d edf2 2cbc
000000c0: d93a b1bd 5a0d 2f3e ddbe 1bbe 6207 643d
000000d0: 9fb0 cfbc 61db 063e d2fe 55bd c25e f8b9
000000e0: 4490 a6bd 5949 36bd 830e 443d 3d1f f7bd
000000f0: e1cd c43d 2c58 f8bb fafa d43d cb4a 9ebc
00000100: f665 843d 0e39 ac3c 9385 15be 1737 bdbd
00000110: c6ce 24be 195b 1abc c721 12bd c772 0abd
00000120: 4b57 a93d 9fbd dabd 8b71 013e 4182 023c
00000130: 1058 3d3d 7574 38be 78a5 febd dfee 313e
00000140: 4ea0 373d 362a 503e 50de 3fbd f9a3 e23d
00000150: 077f 233e b857 e13c d680 ddbc f000 573e
00000160: 6bc7 1cbe 854d 503e 5747 7fbd 9c1a e23d
00000170: 4c87 1c3e 5f1a 173d f84b 9d3d c30f 34be
00000180: 2ecd ba3d 7d7a 033e 7339 8d3d 3a45 4b3e
00000190: 7e50 d7bd 7761 82bc 8156 27be 1e2e de3c
000001a0: f382 dbbd 61f1 2c3e e948 95bd 53b0 803c
000001b0: 076c 22be de34 19bc b36d 893c 5068 dbbd
000001c0: c6f5 a8bc fc25 223d 92e8 d33c 8ec4 0a3c
000001d0: e691 0d3e b613 1c3d c6fc a3bd 7e5b dcbd
000001e0: 3dcb acbc 89fc a93d fbf5 213e abc0 163e
000001f0: 3216 7a3c 86e7 edbc 86d5 debd 771c 2cba
00000200: 727e f3bd fa7a f4bd a279 943c 1370 9d3d
00000210: f839 0abd 716d 163d cf79 a13d b0d4 abbd
00000220: ff88 d43d 65fe 2a3e 851a 2ebe 3fae 7bbe
00000230: 13ab 86bd b529 b43d 8cf5 00be 35d9 20be
00000240: 74d9 0cbe 759f 60be b052 10be c9a5 ebbd
00000250: f806 d5bd 18d8 89bc 7e7a 4f3d 1fa7 02be
00000260: f3ce 22be 291d e2bc bb15 1f3e 35ae ccbd
00000270: fd69 adbc ada3 da3d 2dd4 993d 8347 043e
00000280: 569f 013e b9c3 0bbe b907 f13d 8494 fdbd
00000290: 4f37 1c3d 791b 14be d89f 373d 4490 0e3e
000002a0: 9dda 0dbd 82c9 243e 2fed 0ebd 09d9 ba3c
000002b0: 523e 123e 6b40 8e3d b912 1fbd 75a2 15bd
000002c0: 7ca3 cb3d ae29 2cbe c078 343d 2d36 5b3d
000002d0: a9f2 3bbe 1e8d 5ebd 7db7 07bd 5d43 003e
000002e0: 4cd4 fbbd af1c 9e3d f00b f7bb f4da 17bd
000002f0: 46c9 91bd 5444 ddbd 179a b83d e9e1 14be
00000300: 529a 1a3e e1d7 07be 509e d13c f4b2 413e
00000310: 8266 083e 5141 043e 0c1e 33be 753c 3d3d
00000320: 4465 e93c bb20 28be e9f0 203c aa04 d3bd
00000330: 083d 803d af56 dfbd a7c0 463d b88d abbd
00000340: 4916 4cbd 6101 1a3e 4f4a 243d 06f5 b7bc
00000350: f70c 23be c798 a73d 2cb6 763d 9c5a d83d
00000360: bcca 11bc 427f 293e d678 503d 4c1f d539
00000370: dd1e b9bd 82f1 c13d 699a 20bc 6e0a c53d
00000380: dfee ec3d 914f 9d3d 8f11 1ebe 2a36 adbc
00000390: 106e f8bc cf23 ba3d 8edb 223d 593f c03d
000003a0: 3689 a7bc 1270 ea3d 640b 8fbd f690 213e
000003b0: bb98 673d 8bbd b6bd 650a f13c f6bf 2ebd
000003c0: 7f99 db3d 259d 923b b3da e63d edc2 043e
000003d0: a3c1 163e b1d4 4f3e 0905 e23d 0389 f5bd
000003e0: 655c e9bc 930d 02be 4610 5d3d c0d1 ca3d
000003f0: ea7b 223e b3b7 bfbd 18ff cfbd 6c75 92bd

conv.0.bias f4 [128]
-0.050649527 -0.116845794 0.023027798 0.028287452 -0.1177081 0.05796314 0.14919153 0.12526144
-0.08592861 -0.11943557 -0.16839665 -0.087183654 0.122036785 0.02245615 -0.085748106 -0.11743187
-0.15083498 0.18149275 -0.07338073 0.16390473 -0.06104941 0.066683434 -0.16808408 0.04098158
0.08768334 -0.011387698 0.14927931 0.12490166 -0.15154393 -0.029228741 0.019128477 0.034890506
-0.12582393 -0.053655572 0.07058863 0.098986074 0.11935508 0.19826625 0.08673987 0.16256934
-0.13646601 -0.14246783 0.03592899 0.013904051 -0.06452993 0.16567063 0.17886186 0.10394628
0.057660144 -0.02647183 -0.20888461 0.13743953 0.14558637 -0.17494406 0.123794265 0.115874015
0.16179219 0.08144499 -0.09036869 -0.046773784 0.16283378 -0.115076154 0.049519356 0.12035001
-0.07406426 0.17881091 0.09341036 0.015486939 0.17452887 0.06194399 0.01572502 0.0804622
0.10703609 -0.121405005 -0.15188567 0.06123461 0.10706337 -0.0112933265 0.13650867 -0.03734559
0.15995388 0.12478423 -0.18977705 -0.18133754 -0.0012318365 -0.08537394 -0.1542791 -0.10441452
-0.1705574 0.103932746 -0.07339708 -0.021145973 0.17355606 -0.17501141 -0.023245018 0.14953974
0.11304796 -0.07395031 -0.055538155 0.028463611 0.03131285 -0.11641174 -0.07469863 -0.044279702
0.04919087 -0.051885117 0.21604931 0.17668438 -0.11477646 0.1398671 0.1532739 -0.13112244
-0.032751296 0.15257144 0.07099351 0.11586758 -0.082407646 0.08306097 -0.06891905 -0.038507678
-0.097078666 -0.06714564 0.14193054 -0.10365346 0.12419049 -0.10266423 0.10508792 0.10690363
00000000: e175 4fbd d94c efbd cba4 bc3c 16bb e73c
00000010: f210 f1bd c26a 6d3d aac5 183e 8944 003e
00000020: 57fb afbd a39a f4bd 2c70 2cbe 588d b2bd
00000030: 6cee f93d f6f5 b73c b49c afbd 1f80 f0bd
00000040: 7c74 1abe 3cd9 393e a348 96bd a4d6 273e
00000050: f20e 7abd 5391 883d 3c1e 2cbe 4ddc 273d
00000060: 5393 b33d 7893 3abc addc 183e 71cc ff3d
00000070: 552e 1bbe 1d71 efbc 53b3 9c3c 59e9 0e3d
00000080: fdd7 00be f2c5 5bbd c690 903d 36b9 ca3d
00000090: 7070 f43d 4f06 4b3e aca4 b13d 9478 263e
000000a0: bfbd 0bbe 16e3 11be 472a 133d d1cd 633c
000000b0: 4528 84bd 90a5 293e 9027 373e cae1 d43d
000000c0: 0b2d 6c3d 74db d8bc d9e5 55be f3bc 0c3e
000000d0: 9814 153e 8924 33be d987 fd3d 5b4f ed3d
000000e0: daac 253e a2cc a63d 3813 b9bd de95 3fbd
000000f0: e6bd 263e 0cad ebbd cfd4 4a3d 117a f63d
00000100: 01af 97bd 351a 373e ee4d bf3d eebc 7d3c
00000110: b2b7 323e fbb8 7d3d c2d1 803c 5ec9 a43d
00000120: bd35 db3d 30a3 f8bd eb87 1bbe 24d1 7a3d
00000130: 0a44 db3d a507 39bc eec8 0b3e b0f7 18bd
00000140: f3ca 233e e08e ff3d ea54 42be 8cb0 39be
00000150: 9375 a1ba 88d8 aebd 57fb 1dbe 48d7 d5bd
00000160: 99a6 2ebe b1da d43d 3551 96bd 523a adbc
00000170: aeb8 313e 3136 33be 566c bebc f220 193e
00000180: b085 e73d 4373 97bd fa7b 63bd 852c e93c
00000190: e741 003d 4769 eebd 98fb 98bd a25e 35bd
000001a0: 5e7c 493d 7d85 54bd 083c 5d3e c0ec 343e
000001b0: ec0f ebbd 5239 0f3e d5f3 1c3e f644 06be
000001c0: 3926 06bd b03b 1c3e 0c65 913d fb4b ed3d
000001d0: 57c5 a8bd df1b aa3d 6e25 8dbd 3aba 1dbd
000001e0: 2ed1 c6bd a783 89bd 3d56 113e 4448 d4bd
000001f0: 9557 fe3d a041 d2bd 5638 d73d 4af0 da3d

conv.2.weight f4 [16, 128, 1, 1]
-0.011027612 -0.00788698 0.005498251 0.0028892616 -0.012202318 -0.005536509 0.00706913 0.00060287694
0.0028404964 -0.010343054 -0.016882882 -0.0013047067 0.015918016 -0.005329479 -0.018427158 -0.0062208595
-0.0037783578 0.0073088626 0.025549587 0.008575407 -0.005707769 -0.0007156404 -0.008700173 -0.0002159449
0.0020854424 -0.0061440095 0.0039643943 -0.0023693338 -0.017464288 -0.009203374 -0.0018666262 -0.0071180444
-0.024529869 -0.010571075 0.019323895 0.019700306 0.010327806 0.0037724015 0.022517227 0.035811644
-0.013721629 -0.010105578 -0.008458524 -0.010692858 -0.006007607 0.034059837 0.004630123 0.019983469
0.016478142 -0.021423033 0.0075546256 0.009687028 0.022577563 0.009188076 0.026224716 0.001174103
0.020171227 -0.008882767 -0.004153179 -0.009698034 0.01190604 -0.0029330032 0.009733511 0.0062612887
0.0015225046 0.017206652 -0.00098069 -0.002946469 0.012937437 0.00010822719 -0.008843907 0.042174578
0.031225357 -0.006836142 -0.016501565 0.011841238 -0.0013557117 0.013445218 -0.0024587382 -0.013577858
0.0054544504 0.019327955 -0.003519783 -0.01226595 0.0034440986 -0.028936543 -0.0028137162 -0.011465651
-0.004686884 -0.00039933712 -0.0021679923 0.0007004247 0.009590419 0.00053802546 -0.0031607149 0.019301038
0.011355586 -0.011144942 -0.008617569 -0.0029631893 0.01271068 -0.014954348 -0.015684092 -0.008725242
-0.0004510485 -0.0063363127 0.02876655 0.021998206 -0.004660566 -0.006987442 0.008618799 -0.002208301
-0.025647178 0.017414074 -0.00014808254 8.600363e-05 -0.023149488 -0.004937619 -0.012919464 -0.011234603
0.0015162774 -0.009902276 0.025550576 0.0054316144 0.023695007 -0.010010094 0.00801075 9.784754e-05
-0.005632839 0.0068713366 0.0073078386 0.00035963158 -0.01458828 -0.005533681 0.018473962 0.015548046
-0.004331143 -0.0070997365 -0.011393961 -0.00020726337 0.013235423 -0.0025579685 -0.0076321946 -0.0016956624
0.0005516183 0.011573267 0.017261935 0.00028855467 -0.008717035 -0.0074174628 -0.0048577427 -4.538513e-05
-0.00077679695 -0.0032793765 0.014274857 -0.01009487 -0.009453652 -0.006168449 -0.010304331 -0.007947074
-0.0060777664 -0.012250998 0.013487977 0.0153989745 0.009216997 0.0058683525 0.021815658 0.038094938
-0.017035369 -0.0068783355 -0.0047813025 -0.012952192 -0.008114349 0.04090212 0.0032525596 0.012719471
0.022496147 -0.026690584 -0.007982684 0.013042523 0.016360823 0.0025167204 0.024202736 0.0039802226
0.019727167 -0.0062478 -0.011395839 -0.013708666 -0.00060171116 -0.0003972875 0.017332464 0.015377159
-0.008928387 0.014121398 -0.006222949 0.0031053873 0.012129697 -0.005209111 -0.0077171107 0.0391331
0.039676707 -0.007946329 -0.006497295 -0.0016046849 0.00054487237 0.012814702 -0.0013958812 -0.019357946
0.0065743034 0.020398205 0.0025573801 -0.010805364 -0.005895948 -0.024143692 -0.011974683 -0.0052823178
-0.0126747405 -0.0002539908 -0.0068354667 -0.009036826 0.0056293244 -0.0013389824 -0.003229333 0.010127974
0.0045746006 -0.011378863 -0.008594754 0.00096194254 0.0054983036 -0.020470863 -0.014165607 -0.0029915625
-0.00037733064 -0.006837242 0.020199511 0.01079516 -0.007444496 -0.0055123344 0.003393484 -0.0017063337
-0.017302165 0.015242425 0.005559792 -0.00031872056 -0.01926721 -0.0071281865 -0.0072466834 -0.005035973
-0.0022205669 -0.011629108 0.013938061 0.009131581 0.019801877 -0.00955455 0.0043145595 -0.0011225746
00000000: 28ad 34bc 6438 01bc ac2a b43b c459 3d3b
00000010: 3bec 47bc 9b6b b5bb 29a4 e73b 630a 1e3a
00000020: 9f27 3a3b ea75 29bc f84d 8abc b102 abba
00000030: 8066 823c e9a2 aebb 8df4 96bc 5ad8 cbbb
00000040: 539e 77bb 2f7f ef3b 5e4d d13c dd7f 0c3c
00000050: 3d08 bbbb d099 3bba 2c8b 0ebc 456f 62b9
00000060: ebab 083b b053 c9bb c0e7 813b d346 1bbb
00000070: 4411 8fbc c0c9 16bc 95a9 f4ba 7c3e e9bb
00000080: ddf2 c8bc 4d32 2dbc 254d 9e3c 8962 a13c
00000090: f535 293c 653a 773b 0c76 b83c 3baf 123d
000000a0: afd0 60bc de91 25bc 9f95 0abc 1931 2fbc
000000b0: 76db c4bb 5482 0b3d 49b8 973b 5fb4 a33c
000000c0: 2bfd 863c 5b7f afbc cb8c f73b 57b6 1e3c
000000d0: 95f4 b83c 9589 163c 37d5 d63c 5ce4 993a
000000e0: 213e a53c 0689 11bc 6417 88bb 81e4 1ebc
000000f0: 8d11 433c a137 40bb 4e79 1f3c 7f2b cd3b
00000100: c78e c73a f7f4 8c3c 7f8a 80ba 8c19 41bb
00000110: 8bf7 533c 08f8 e238 09e6 10bc 40bf 2c3d
00000120: 52cc ff3c b701 e0bb 4a2e 87bc c001 423c
00000130: 23b2 b1ba 5549 5c3c c822 21bb aa75 5ebc
00000140: 3fbb b23b a955 9e3c 29ac 66bb 20f7 48bc
00000150: 63b6 613b 540c edbc 5366 38bb 6dda 3bbc
00000160: 6f94 99bb 1f5e d1b9 e014 0ebb b59c 373a
00000170: 2221 1d3c 470a 0d3a ff23 4fbb 361d 9e3c
00000180: c80c 3a3c 4699 36bc b430 0dbc 1132 42bb
00000190: 7540 503c 1503 75bc ed7b 80bc 51f4 0ebc
000001a0: b47a ecb9 d8a0 cfbb d4a7 eb3c 9535 b43c
000001b0: a9b7 98bb e9f6 e4bb dd35 0d3c 25b9 10bb
000001c0: 081a d2bc f6a7 8e3c 9b46 1bb9 d95c b438
000001d0: ffa3 bdbc c0cb a1bb 29ac 53bc 5711 38bc
000001e0: d4bd c63a 283d 22bc 714f d13c affb b13b
000001f0: 081c c23c 6101 24bc 853f 033c 7f33 cd38
00000200: ae93 b8bb f328 e13b 9876 ef3b ef8c bc39
00000210: ae03 6fbc e153 b5bb b556 973c 3bbd 7e3c
00000220: 43ec 8dbb e8a4 e8bb bcad 3abc d654 59b9
00000230: 63d9 583c 97a3 27bb 7d17 fabb fd40 deba
00000240: 7a9a 103a cd9d 3d3c e768 8d3c 2749 9739
00000250: e5d1 0ebc 300e f3bb b32d 9fbb ea5b 3eb8
00000260: f6a1 4bba cfea 56bb 17e1 693c f464 25bc
00000270: 7ee3 1abc b320 cabb 7fd3 28bc 7234 02bc
00000280: 0028 c7bb 69b8 48bc adfc 5c3c fb4b 7c3c
00000290: e302 173c 4f4b c03b c0b6 b23c 7009 1c3d
000002a0: c28d 8bbc a963 e1bb 79ac 9cbb 6e35 54bc
000002b0: 0cf2 04bc fb88 273d e528 553b 5465 503c
000002c0: d749 b83c 36a6 dabc cec9 02bc 4eb0 553c
000002d0: 2207 863c 90ef 243b d144 c63c 876c 823b
000002e0: de9a a13c 58ba ccbb 9db5 3abc 509a 60bc
000002f0: 27bc 1dba 074b d0b9 d0fc 8d3c 7bf0 7b3c
00000300: 5f48 12bc 705d 673c e1e9 cbbb c183 4b3b
00000310: a3bb 463c 31b1 aabb d1df fcbb 084a 203d
00000320: 0b84 223d 5231 02bc 43e7 d4bb 4a54 d2ba
00000330: c4d5 0e3a c1f4 513c 00f6 b6ba 8e94 9ebc
00000340: 416d d73b 231a a73c b899 273b fb08 31bc
00000350: cc32 c1bb fec8 c5bc 7631 44bc 4b17 adbb
00000360: b7a9 4fbc 112a 85b9 0dfc dfbb 320f 14bc
00000370: 3276 b83b cb80 afba 38a3 53bb cdef 253c
00000380: 88e6 953b 696e 3abc 03d1 0cbc df2a 7c3a
00000390: 1d2b b43b 83b2 a7bc dd16 68bc 170e 44bb
000003a0: 76d4 c5b9 f10a e0bb 7279 a53c 2fde 303c
000003b0: f5f0 f3bb d0a0 b4bb 3765 5e3b 0fa7 dfba
000003c0: 45bd 8dbc 5dbb 793c ea2e b63b f319 a7b9
000003d0: 45d6 9dbc 9093 e9bb 9675 edbb ce04 a5bb
000003e0: ee86 11bb 0488 3ebc 775c 643c a09c 153c
000003f0: 8c37 a23c b08a 1cbc 2661 8d3b 5a23 93ba
