models/blood/28-_manhattan_sobel_identity.pth (torch, 18919 bytes, 3 tensors)

conv.0.weight f4 [64, 48, 1, 1]
0.012196076 -0.06789037 -0.11852793 -0.07188415 0.09474666 -0.25647053 -0.11641771 -0.1487122
-0.20356725 -0.012688396 0.12542273 -0.11643154 -0.09225164 0.12924267 -0.19806018 -0.0052170916
0.12664737 0.074192286 -0.08090169 0.15633026 -0.22460842 -0.03575759 -0.046920333 -0.020947563
0.054151025 0.1148189 0.012663536 0.07907878 -0.04204251 0.07914032 -0.053577073 -0.15867428
0.13283102 0.03863426 0.35257396 -0.0030500682 0.06614022 0.14880213 0.28034016 0.075453095
-0.25733733 -0.16977389 0.07148207 -0.071033195 -0.06480433 -0.06793339 -0.104735605 0.10040019
-0.03590259 0.054563433 0.14656435 -0.005680664 -0.14315604 -0.071204595 -0.08475847 0.003486443
0.0254035 -0.013430138 -0.07773114 0.048540812 0.13482314 -0.067339666 -0.05267708 -0.100481056
0.09010541 -0.12149852 0.18324448 -0.13442309 0.16033386 -0.077991895 0.23918541 -0.01748094
-0.027241841 0.062097467 -0.084662296 -0.09445193 0.23851413 -0.1087502 -0.1321144 0.12709065
-0.08097069 -0.029980062 -0.21729101 0.113082476 -0.10814867 0.03954854 -0.038463987 0.092989534
0.21166639 -0.09648508 -0.14438802 -0.089586675 -0.079504974 0.0216575 -0.13215995 -0.05029225
0.1317532 0.080303706 0.055277105 -0.09179697 0.10713903 -0.19136904 0.10263574 0.06393659
-0.10994892 0.037137542 0.14819796 -0.17925967 -0.03125783 -0.040581193 -0.021343011 -0.11242623
0.02107983 -0.074555 -0.1400386 0.052555002 -0.1671693 -0.006995106 0.057775643 0.03957188
0.0956323 -0.023206111 0.053260375 0.11995005 -0.108954 0.04071787 0.050199173 -0.1928727
-0.06698395 0.08199571 -0.10399176 0.014599228 0.11846975 -0.14350416 0.17376533 -0.042994816
-0.029172253 -0.12357639 -0.05973235 0.15080324 0.063424 0.09797235 0.06101936 0.14481123
-0.0965225 -0.30722302 0.12083296 0.096116945 -0.17996843 0.19324645 -0.036950894 -0.072983794
0.23513295 -0.09177085 -0.19043517 0.12929626 -0.093120664 -0.11526705 -0.07374045 0.00389923
0.043224208 0.14844017 0.124075286 -0.10921264 -0.04639762 0.072986595 0.071799785 0.17766413
0.06553414 -0.1480263 -0.1730509 0.14339155 -0.054227483 0.2064633 -0.089504175 -0.124562636
-0.01269656 0.005616036 0.088790596 -0.0996205 -0.0062863072 0.11387743 -0.074642986 0.055129584
-0.03826364 0.116053835 0.16654365 -0.12467767 0.0271364 0.036855273 0.07014114 0.021104533
-0.11282836 -0.1752672 0.018538013 0.026684266 0.005270317 0.08450232 -0.04070985 -0.014627312
-0.12316928 -0.005962863 0.010147763 0.013927613 -0.13439445 -0.07977718 -0.010865926 -0.14901528
0.05776159 0.13191645 -0.007078368 -0.3297023 0.19766471 -0.0021645303 -0.07044127 0.006193207
-0.12646633 -0.048154578 -0.09908142 -0.037618283 0.17424273 0.026455138 -0.06871683 0.11548567
0.077886045 0.029825758 -0.21223651 -0.01642617 -0.0761974 -0.13408487 0.13182995 0.161135
-0.15692256 0.13432398 0.024946837 0.003999644 0.03877012 0.11463996 0.19545546 -0.077050395
-0.027096953 -0.009619458 -0.03111287 -0.002319975 -0.01583823 0.16361618 -0.008847112 0.036708746
-0.17304547 -0.048463512 0.059355054 -0.18940224 -0.059527 -0.042354427 0.124265924 0.101657145
00000000: 0dd2 473c 1b0a 8bbd c5be f2bd ff37 93bd
00000010: 890a c23d 1b50 83be 696c eebd 0348 18be
00000020: ef73 50be fde2 4fbc d16e 003e a973 eebd
00000030: 6eee bcbd 3158 043e 4ad0 4abe 23f4 aabb
00000040: d9af 013e 20f2 973d c9af a5bd 0a15 203e
00000050: c0ff 65be 8d76 12bd 892f 40bd 399a abbc
00000060: 77cd 5d3d 2c26 eb3d b87a 4f3c 0ef4 a13d
00000070: c434 2cbd 5214 a23d a273 5bbd 837b 22be
00000080: db04 083e f53e 1e3d 9384 b43e a7e3 47bb
00000090: 8674 873d 965f 183e bf88 8f3e 2787 9a3d
000000a0: b8c1 83be 35d9 2dbe 3165 923d da79 91bd
000000b0: 22b8 84bd a920 8bbd 9f7f d6bd 9d9e cd3d
000000c0: 980e 13bd e87d 5f3d f714 163e dd24 babb
000000d0: 7f97 12be b7d3 91bd d995 adbd cf7c 643b
000000e0: 001b d03c 150a 5cbc 8131 9fbd bbd2 463d
000000f0: 140f 0a3e 61e9 89bd ecc3 57bd 03c9 cdbd
00000100: 2f89 b83d 37d4 f8bd 71a4 3b3e 35a6 09be
00000110: 8f2e 243e 37ba 9fbd 05ed 743e 3034 8fbc
00000120: 482a dfbc ea59 7e3d 6d63 adbd 0370 c1bd
00000130: 0c3d 743e 6db8 debd ff48 07be 0d24 023e
00000140: f6d3 a5bd bf98 f5bc 8981 5ebe c997 e73d
00000150: 0d7d ddbd a6fd 213d 6a8c 1dbd 4c71 be3d
00000160: 13bf 583e f899 c5bd 74da 13be 3879 b7bd
00000170: 81d3 a2bd 126b b13c f054 07be 3fff 4dbd
00000180: 50ea 063e 4576 a43d 3f6a 623d 0d00 bcbd
00000190: b56b db3d 3ff6 43be b032 d23d 30f1 823d
000001a0: e62c e1bd 891d 183d 35c1 173e d98f 37be
000001b0: 3608 00bd 7738 26bd 8ad7 aebc b93f e6bd
000001c0: 9caf ac3c 4bb0 98bd 4766 0fbe ea43 573d
000001d0: 6e2e 2bbe 3437 e5bb 27a6 6c3d 2016 223d
000001e0: deda c33d be1a bebc 8d27 5a3d 5fa8 f53d
000001f0: 4623 dfbd c8c7 263d a69d 4d3d 6c80 45be
00000200: e22e 89bd 5eed a73d a2f9 d4bd 9a31 6f3c
00000210: 45a0 f23d c1f2 12be 8aef 313e 551b 30bd
00000220: a6fa eebc 9e15 fdbd e9a9 74bd 2a6c 1a3e
00000230: 71e4 813d baa5 c83d 70ef 793d 6549 143e
00000240: 97ad c5bd 564c 9dbe 4577 f73d f6d8 c43d
00000250: a549 38be 66e2 453e d259 17bd 8778 95bd
00000260: b1c6 703e 5bf2 bbbd 7001 43be 3d66 043e
00000270: 0cb6 bebd 2211 ecbd 3c05 97bd 398a 7f3b
00000280: de0b 313d b300 183e 2f1b fe3d e0aa dfbd
00000290: 6e0b 3ebd ff79 953d c40b 933d 96ed 353e
000002a0: c336 863d 3594 17be 4134 31be 3cd5 123e
000002b0: a31d 5ebd 1e6b 533e f74d b7bd b21a ffbd
000002c0: 3b05 50bc b906 b83b d8d7 b53d d505 ccbd
000002d0: 5efd cdbb 9238 e93d 6cde 98bd 8fcf 613d
000002e0: 56ba 1cbd a2ad ed3d 6b8a 2a3e 0257 ffbd
000002f0: 284d de3c 8ef5 163d 28a6 8f3d 6ae3 ac3c
00000300: 8e12 e7bd 3f79 33be 08dd 973c f698 da3c
00000310: a0b2 ac3b 8d0f ad3d 5fbf 26bd 65a7 6fbc
00000320: 2d40 fcbd 1f64 c3bb ce42 263c a530 643c
00000330: b39e 09be 3862 a3bd ff06 32bc 7697 18be
00000340: 6b97 6c3d 1b15 073e a8f1 e7bb bdce a8be
00000350: 9e68 4a3e cbda 0dbb 8343 90bd 63f0 ca3b
00000360: 6480 01be bc3d 45bd 33eb cabd a115 1abd
00000370: b06c 323e 72b8 d83c 69bb 8cbd c083 ec3d
00000380: b882 9f3d 2655 f43c 8754 59be 2d90 86bc
00000390: 620d 9cbd 8b4d 09be 6efe 063e 9300 253e
000003a0: 4fb0 20be 3a8c 093e 4f5d cc3c 720f 833b
000003b0: 6bcd 1e3d 5bc8 ea3d 7a25 483e 99cc 9dbd
000003c0: 6efa ddbc ee9a 1dbc 6be0 febc b90a 18bb
000003d0: 2dbf 81bc 008b 273e 7af3 10bc e95b 163d
000003e0: d532 31be ad81 46bd 491e 733d a9f2 41be
000003f0: 95d2 73bd d67b 2dbd 227f fe3d 9f31 d03d

conv.0.bias f4 [64]
0.07629242 0.012337604 -0.08632101 -0.0925953 0.14569306 0.16590466 0.026993014 0.1362821
-0.10098492 -0.111330785 -0.12614119 0.13320124 0.14953367 -0.049436048 -0.13063203 -0.03174821
0.11362251 -0.009934674 0.057303924 0.17181833 -0.021989996 0.09425714 0.093464926 -0.1414617
-0.073269606 -0.0646625 -0.12584814 0.05283924 0.18553619 0.13694577 0.06719993 0.13524112
0.13857897 -0.042471856 0.10535246 -0.019978795 0.13146748 -0.07547468 0.096527316 -0.043293674
0.11778538 0.068669125 0.10107408 0.19792777 -0.055428594 -0.005545603 0.007875984 -0.038831685
-0.0033067665 -0.06385808 0.030195171 -0.09295665 0.12092212 0.18940704 -0.112921625 0.116407
-0.076399736 -0.052257605 0.013220052 0.16317561 0.054739077 0.10582521 -0.078480944 0.066631205
00000000: 333f 9c3d a923 4a3c 12c9 b0bd 9ba2 bdbd
00000010: 9030 153e e9e2 293e 7420 dd3c 898d 0b3e
00000020: 2fd1 cebd 6501 e4bd 282b 01be e865 083e
00000030: 5b1f 193e 747d 4abd 67c4 05be 690a 02bd
00000040: ebb2 e83d 0bc5 22bc 85b7 6a3d 25f1 2f3e
00000050: 5d24 b4bc e309 c13d 8a6a bf3d 56db 10be
00000060: 600e 96bd c66d 84bd 56de 00be f56d 583d
00000070: 33fd 3d3e 833b 0c3e 1ea0 893d a67c 0a3e
00000080: a5e7 0d3e f8f6 2dbd 08c3 d73d 92aa a3bc
00000090: 699f 063e 7892 9abd 1db0 c53d b554 31bd
000000a0: 7639 f13d 66a2 8c3d edff ce3d 94ad 4a3e
000000b0: 1809 63bd e4b7 b5bb 450a 013c f90d 1fbd
000000c0: 56b6 58bb 06c8 82bd dd5b f73c 0e60 bebd
000000d0: 04a6 f73d ebf3 413e 7443 e7bd cb66 ee3d
000000e0: 7777 9cbd 120c 56bd eb98 583c 8217 273e
000000f0: 1536 603d e3ba d83d 9eba a0bd f175 883d

conv.2.weight f4 [16, 64, 1, 1]
0.0823227 -0.018437427 -0.024790792 0.013322636 0.05356736 0.01861447 -0.012098481 0.076225884
-0.032511875 -0.048865754 -0.03846242 0.025419986 0.045015402 -0.0114058 -0.009700085 -0.06638607
0.010418736 0.018236 0.0058208406 0.06278774 0.028529717 0.029296327 0.030965332 0.016779142
0.0450884 0.007626827 -0.047553148 0.016986428 0.03838837 0.03251704 0.03919522 0.04773025
0.033471335 -0.018806597 0.04515293 0.051285814 0.03526834 -0.022085639 0.02580843 -0.0067752297
0.040148355 0.048465893 0.027686885 0.027232701 0.013266835 -0.018468866 -0.018941108 -0.030199401
0.033959538 -0.012640472 -0.010678153 0.0016936278 0.044488188 0.048883896 -0.031065214 0.03391446
-0.070581086 -0.021759082 0.013881244 0.03414725 0.006543044 0.044321764 -0.033801373 0.0052669505
0.09327483 -0.030760728 -0.013916121 0.009599893 0.020965107 0.025366625 -0.015609771 0.077181526
-0.011592762 -0.04402577 -0.04327156 0.025995385 0.025732135 -0.0090519395 -0.027731301 -0.07104923
0.0040435847 0.017394757 0.006753466 0.040939964 0.029045193 0.038074344 0.024818094 0.016381972
0.05137767 0.0070029288 -0.035367545 0.015711678 0.032843795 0.023163024 0.040318046 0.051703915
0.034472648 -0.01765981 0.045049284 0.060249947 0.023694173 -0.023771932 0.034100186 -0.00045533868
0.02918168 0.05523413 0.02490812 0.030382996 0.03922951 -0.02318131 -0.01741727 -0.025428666
0.04021093 -0.004276057 -0.0041840393 0.012250118 0.009858272 0.034536544 -0.045636404 0.024103928
-0.08743449 -0.018197635 0.016898807 0.032227784 -0.0133251585 0.034155685 -0.020041674 0.013552693
0.046526443 0.0036548523 -0.022396285 -0.0060377535 0.037922144 0.025968436 0.014071666 0.04571727
-0.016240193 -0.01989515 -0.02541814 0.022182602 0.030895904 -0.0065269624 -0.014666981 -0.034621567
0.0107960915 0.0004175673 0.0022474118 0.027896041 0.024055988 0.032645676 0.03529973 -0.006627926
0.018742329 0.021654632 -0.025817499 0.027613193 0.03949647 0.020192005 0.02163254 0.040343672
0.046020813 -0.008118372 0.02832966 0.012300595 0.026408138 -0.012091456 0.032304764 -0.01914895
0.012675872 0.019346582 0.031498272 0.024234928 -0.010298156 -0.017539436 0.0013507475 -0.014827025
0.010460068 -0.017041866 -0.007579183 -0.0107458215 0.025107915 0.082990386 -0.019352434 0.035548378
-0.041939326 -0.014763853 0.0048617227 0.024074895 -0.0060629696 0.030703543 -0.040485922 0.026115507
0.0020683787 0.0044715204 -0.007350695 -0.00544877 0.027614284 0.033237845 0.011401033 0.0036255203
-0.022016717 -0.0040656915 -0.00092438166 0.03899849 0.009235013 -0.025353042 -0.01982459 0.0018039739
0.014267682 -0.001352429 0.0471957 0.032738928 -0.006142335 0.034664128 0.011109697 -0.007496001
0.0035223174 0.009807836 -0.0071563334 0.03484471 0.055405382 0.037785403 0.010030312 0.0021522327
0.04957736 -0.02904475 0.01792917 -0.0022639334 0.04898893 -0.0046491553 0.04044003 -0.02427272
0.00069608056 -0.0031345207 0.046823073 0.039523255 -0.012142258 0.0075753443 0.007093757 -0.01178442
-0.004479003 -0.012255515 0.0035489146 -0.0098686805 0.021975715 0.17750756 -0.010434916 0.04110132
-0.0006701567 -0.00896029 -0.0070466083 0.039763387 0.019013323 0.036886018 -0.015700286 0.031988706
00000000: ce98 a83d 160a 97bc 0f16 cbbc 2f47 5a3c
00000010: 7369 5b3d 5f7d 983c b538 46bc 511c 9c3d
00000020: 2c2b 05bd 7527 48bd c58a 1dbd 933d d03c
00000030: 1262 383d 64df 3abc 1bed 1ebc 6bf5 87bd
00000040: 59b3 2a3c aa63 953c c0bc be3b dc96 803d
00000050: 27b7 e93c dafe ef3c 02ab fd3c 6974 893c
00000060: 9dae 383d 76ea f93b 17c7 42bd 1f27 8b3c
00000070: 203d 1d3d 9630 053d 2b8b 203d cb80 433d
00000080: 3d19 093d 4b10 9abc 47f2 383d 1311 523d
00000090: 8975 103d f1ec b4bc 336c d33c bf02 debb
000000a0: 9a72 243d 2c84 463d 9bcf e23c 1d17 df3c
000000b0: 245d 593c 054c 97bc 622a 9bbc bc64 f7bc
000000c0: 2819 0b3d fb19 4fbc 6bf3 2ebc b8fc dd3a
000000d0: 3f39 363d 7b3a 483d 7a7c febc e4e9 0a3d
000000e0: d18c 90bd 1a40 b2bc 286e 633c fddd 0b3d
000000f0: 0867 d63b bd8a 353d 4f73 0abd 6296 ac3b
00000100: e006 bf3d ecfd fbbc 7100 64bc df48 1d3c
00000110: 04bf ab3c abcd cf3c 20c0 7fbc 5911 9e3d
00000120: 91ef 3dbc 5e54 34bd 853d 31bd 46f4 d43c
00000130: 33cc d23c 964e 14bc c12c e3bc 4282 91bd
00000140: 0c80 843b 737f 8e3c 2e4c dd3b aab0 273d
00000150: 2ff0 ed3c d8f3 1b3d 514f cb3c 7c33 863c
00000160: 6471 523d d378 e53b 8fdd 10bd c7b5 803c
00000170: 3787 063d 62c0 bd3c 8924 253d 7cc7 533d
00000180: 3133 0d3d 4eab 90bc 9985 383d a6c8 763d
00000190: 481a c23c 5bbd c2bc a3ac 0b3d 86ba eeb9
000001a0: 6b0e ef3c 2f3d 623d 1d0c cc3c c3e5 f83c
000001b0: 1faf 203d bbe6 bdbc aaae 8ebc c74f d0bc
000001c0: 37b4 243d 2a1e 8cbb 441a 89bb b8b4 483c
000001d0: 9784 213c 3176 0d3d 3ded 3abd 9a75 c53c
000001e0: db10 b3bd 3513 95bc 5e6f 8a3c 4801 043d
000001f0: c451 5abc d5e6 0b3d 702e a4bc 1d0c 5e3c
00000200: 8392 3e3d 3f86 6f3b 6a78 b7bc 59d8 c5bb
00000210: 4054 1b3d c2bb d43c d88c 663c 0842 3b3d
00000220: 270a 85bc 27fb a2bc b439 d0bc 4ab8 b53c
00000230: 6819 fd3c 21e0 d5bb c74d 70bc 58cf 0dbd
00000240: 17e2 303c efec da39 5049 133b 3d86 e43c
00000250: 1011 c53c 79b7 053d 7396 103d 132f d9bb
00000260: 8389 993c 0e65 b13c 387f d3bc 1035 e23c
00000270: 0dc7 213d b469 a53c b936 b13c 683f 253d
00000280: 5280 3c3d ec02 05bc 9a13 e83c 6f88 493c
00000290: e155 d83c 3e1b 46bc 0052 043d 42de 9cbc
000002a0: 76ae 4f3c b97c 9e3c 5504 013d 5488 c63c
000002b0: 99b9 28bc ddae 8fbc 910b b13a 0ded 72bc
000002c0: b460 2b3c 629b 8bbc cc5a f8bb 3e0f 30bc
000002d0: 1daf cd3c ddf6 a93d ff88 9ebc 2d9b 113d
000002e0: 92c8 2bbd 16e4 71bc 164f 9f3b b738 c53c
000002f0: e0ab c6bb ff85 fb3c 91d4 25bd 30f0 d53c
00000300: a38d 073b d585 923b 19de f0bb 988b b2bb
00000310: 5a37 e23c 6824 083d 66cb 3a3c 239a 6d3b
00000320: 675c b4bc 7e39 85bb 3452 72ba e1bc 1f3d
00000330: 744e 173c 2fb1 cfbc 2e67 a2bc 5273 ec3a
00000340: ffc2 693c fd43 b1ba 4750 413d 4119 063d
00000350: a445 c9bb f9fb 0d3d 7205 363c 04a1 f5bb
00000360: aed6 663b 0cb1 203c ad7f eabb 54b9 0e3d
00000370: c1f0 623d dec4 1a3d 2e56 243c 790c 0d3b
00000380: a111 4b3d 41ef edbc 32e0 923c 805e 14bb
00000390: 9ea8 483d f157 98bb 72a4 253d 95d7 c6bc
000003a0: 2d79 363a 886c 4dbb 8dc9 3f3d 23e3 213d
000003b0: 52f0 46bc 983a f83b bf72 e83b 7113 41bc
000003c0: 9ac4 92bb 5bcb 48bc e894 683b 3fb0 21bc
000003d0: 6a06 b43c 8bc4 353e 36f7 2abc dc59 283d
000003e0: 74ad 2fba 2ece 12bc 3ce7 e6bb efde 223d
000003f0: d4c1 9b3c cb15 173d e39d 80bc 9706 033d
