models/blood/28-_ssim_sobel_identity.pth (torch, 18884 bytes, 3 tensors)

conv.0.weight f4 [64, 48, 1, 1]
0	0xbd288e16	-0.04115113
1	0x3c4f413f	0.012649833
2	0x3cdeb2b8	0.02718483
3	0xbe2c0420	-0.16798449
4	0xbd0b7ba1	-0.03405345
5	0x3dc87ff8	0.09790033
6	0xbcdbc163	-0.026825612
7	0x3def4a72	0.11684121
8	0x3e0c5adb	0.13706534
9	0x3e234445	0.15944012
10	0xbe230756	-0.15920767
11	0xbd368d85	-0.044568557
12	0x3d6265fb	0.055273037
13	0xbd4a0563	-0.049321543
14	0xbe1e6c63	-0.15471034
15	0xbd5020cd	-0.05081253
16	0xbc808b44	-0.015691407
17	0x3e1f1195	0.15534051
18	0xbd8caaa4	-0.068684846
19	0xbd5ccae9	-0.053904448
20	0x3aa54585	0.0012609219
21	0xbd9efba5	-0.07762841
22	0xbddc0a85	-0.10744194
23	0xbdd26896	-0.102738544
24	0x3e243515	0.16035874
25	0xbd96aa02	-0.07356645
26	0x3cdb361e	0.026759204
27	0xbdf21c01	-0.118217476
28	0x3cd9f2b7	0.026604993
29	0x3e2bbb56	0.16770682
30	0x3d3b7fb1	0.045776073
31	0xbdb3b040	-0.087738514
32	0xbdd6fca9	-0.1049741
33	0xbd2ca53a	-0.04214976
34	0xbe3cbd3d	-0.18431564
35	0x3d90a735	0.07063142
36	0xbce00e25	-0.027350495
37	0xbd64aae5	-0.05582704
38	0xbc456adb	-0.012049402
39	0x3d9a2fd4	0.07528654
40	0xbe6a3246	-0.2287074
41	0x3d956ff1	0.07296742
42	0x3dc2ce3c	0.09511992
43	0xbd181d5e	-0.03713738
44	0x3d840b20	0.064474344
45	0x3d40cb3f	0.04706883
46	0x3d830743	0.063978694
47	0x3b5ce1ba	0.003370388
48	0x3ddfea76	0.10933392
49	0x3c52a24c	0.012856077
50	0xbe4a713b	-0.19769756
51	0x3da0284a	0.078201845
52	0x3d1d13e2	0.03834904
53	0xbe8ab1e6	-0.2708885
54	0xbd159bad	-0.036525417
55	0x3e206009	0.15661635
56	0xbc6a93b5	-0.014317443
57	0xbcc33b66	-0.023832034
58	0x3e7442d0	0.23853612
59	0x3e08ed50	0.13371778
60	0xbdf481d1	-0.11938823
61	0xbdb19239	-0.08670468
62	0x3e251387	0.1612073
63	0xbdf89268	-0.121373
64	0x3e3b3ed4	0.18285686
65	0x3e36c891	0.17849948
66	0x3dce9133	0.10086288
67	0x3e2d4bfe	0.1692352
68	0x3d1bcea2	0.038038857
69	0xbca4525c	-0.020058803
70	0xbe72c950	-0.23709607
71	0x3e2fe2da	0.17176381
72	0xbda712a3	-0.081578515
73	0xbe9f8e98	-0.31163478
74	0x3e5df340	0.21674824
75	0xbe0a8b49	-0.13529696
76	0x3dc82f50	0.09774649
77	0xbc9e09d4	-0.019291796
78	0x3db99d33	0.090631865
79	0xbec25c68	-0.37961125
80	0x3d570432	0.052494235
81	0xbd8c8d40	-0.06862879
82	0xbd194985	-0.03742363
83	0xbe852f6b	-0.2601274
84	0xbcca63ae	-0.024705734
85	0xbd91191a	-0.07084866
86	0xbe53eb6d	-0.20695277
87	0xbd535a82	-0.051599987
88	0xbe8fa9c0	-0.28059196
89	0xbd907a23	-0.07054546
90	0x3d8df05e	0.06930612
91	0x3ce6c976	0.028172236
92	0x3e093bed	0.13401766
93	0x3d57cd77	0.05268618
94	0xbe8a7294	-0.2704054
95	0x3ddf2122	0.108949915
96	0xbd1cf7bd	-0.0383222
97	0x3e837cdb	0.25681195
98	0x3ddda9a9	0.10823376
99	0x3ddcff8e	0.10790931
100	0x3d829220	0.063755274
101	0x3c09e330	0.008415982
102	0x3e2e8b38	0.17045295
103	0x3e11df17	0.14245258
104	0xbd3d900a	-0.046279944
105	0xbb72520d	-0.0036975176
106	0xbe3c3adc	-0.18381828
107	0xbe30cc73	-0.17265491
108	0xbe0e079d	-0.13870092
109	0xbead5f4a	-0.33861762
110	0xbe211f72	-0.15734652
111	0xbd15e50d	-0.036595393
112	0x3ce5742f	0.028009502
113	0xbdaa2e31	-0.083095916
114	0xbd9d1e97	-0.0767185
115	0xbe20f8d8	-0.15719926
116	0xbd02bb34	-0.031916812
117	0x3d40a2dd	0.04703032
118	0xbe6fbe62	-0.23412469
119	0xbde639c3	-0.11241486
120	0x3c82ff3b	0.015990844
121	0xbdee255d	-0.1162822
122	0xbeb1d6c0	-0.34734154
123	0xbe332689	-0.17495169
124	0xbe3534fc	-0.17695993
125	0xbe6b91cd	-0.23004837
126	0xbd62c72f	-0.055365738
127	0xbddc1128	-0.1074546
128	0xbdace30d	-0.08441744
129	0x3be34fec	0.0069370177
130	0xbe9c3401	-0.30508426
131	0xbddf29a2	-0.10896613
132	0x3c6745d5	0.01411577
133	0xbd850ffa	-0.06497188
134	0xbcd4763d	-0.025935287
135	0x3b7f0fd5	0.0038919349
136	0xbdc8ab5a	-0.09798308
137	0xbe590a2d	-0.21195288
138	0xbdd955f4	-0.106120974
139	0xbce82833	-0.028339481
140	0x3d1f304a	0.03886441
141	0xbb9f76e0	-0.004866466
142	0xbdd51a22	-0.10405375
143	0xbe45a964	-0.19302899
144	0xbdaacf5d	-0.08340333
145	0xbea6d0d1	-0.3258119
146	0x3ae34547	0.0017339372
147	0xbd449b21	-0.047999505
148	0xbe84cb1b	-0.25936207
149	0xbd1a7cff	-0.03771686
150	0xbca1d5b1	-0.019755216
151	0xbed29c13	-0.411347
152	0xbd1623ee	-0.03665536
153	0xbdb695b1	-0.0891527
154	0xbe4e8edc	-0.20171684
155	0x3d0095b4	0.031392768
156	0x3da0e9d4	0.07857099
157	0xbdc9f698	-0.09861487
158	0xbcc53d1f	-0.024076996
159	0x3ce2f7d6	0.027706068
160	0xbe0664d2	-0.13124397
161	0x3e58dc32	0.21177748
162	0xbcfcba2a	-0.030850489
163	0xbdcb95c3	-0.09940674
164	0x3d95bab6	0.07311003
165	0xbd51c15d	-0.051209796
166	0x3cb98b20	0.022649348
167	0x3d605c13	0.05477531
168	0xbd24b1a9	-0.040208492
169	0x3d7d8127	0.061890747
170	0xbdecbf3f	-0.11559915
171	0x3c768583	0.01504648
172	0x3e3e8e95	0.18609078
173	0xbc6d2d4c	-0.014476132
174	0x3d55992e	0.052148037
175	0xbe804861	-0.2505522
176	0x3deae049	0.1146856
177	0x3d2f5e21	0.042814378
178	0x3e93b5b8	0.28849578
179	0x3da86a4c	0.082233995
180	0x3c8b029f	0.016969023
181	0x3e40906c	0.18805093
182	0x3daee388	0.08539492
183	0xbd14db4d	-0.036341954
184	0x3dcadbd3	0.099052094
185	0xbe2d58d0	-0.1692841
186	0x3d9b8574	0.075938135
187	0xbd76f8f6	-0.06029602
188	0xbe128882	-0.14309886
189	0xbd4963a5	-0.049167294
190	0x3e10f066	0.14154205
191	0xbe15fabf	-0.14646433
192	0x3bb96bc3	0.005658598
193	0x3e734c7e	0.23759648
194	0x3c68fa8c	0.014219891
195	0x3c1d8b62	0.009615751
196	0xbd01bc0a	-0.03167347
197	0x3e53e475	0.20692618
198	0x3d2cb0a1	0.042160634
199	0x3e3ba95d	0.18326326
200	0x3cc5ddc6	0.024153601
201	0xbe29f7f9	-0.165985
202	0x3e71880f	0.23587058
203	0x3e6eba0c	0.23313159
204	0x3d7fa776	0.062415563
205	0x3c81ca8f	0.015843658
206	0xbd14d8fc	-0.036339745
207	0xbd3f4e05	-0.046705265
208	0x3dd97148	0.1061731
209	0xbdb2ef85	-0.08737091
210	0xbdb9038a	-0.09033878
211	0xbdba2c4a	-0.09090479
212	0xbd63554a	-0.05550126
213	0x3de121d9	0.10992784
214	0xbcfea8b3	-0.031086301
215	0xbd042457	-0.03226122
216	0xbe4dba86	-0.20090684
217	0x3b101faa	0.002199153
218	0xbc71f51a	-0.014767909
219	0xbe630175	-0.22168525
220	0xbe1a556e	-0.15071651
221	0x3b698795	0.0035633792
222	0x3d91eb4a	0.07124956
223	0xbd5dc89c	-0.054146394
224	0x3e0a80ee	0.13525745
225	0xbdf2878a	-0.11842258
226	0xbe9852e3	-0.29750738
227	0x3d277870	0.040886343
228	0xbd2ce349	-0.042208944
229	0x3d90f33b	0.070776425
230	0x3bcfae5f	0.0063379253
231	0x3d9a58b6	0.075364515
232	0x3d030bdb	0.031993728
233	0x3c997084	0.01873041
234	0x3d367a26	0.044550084
235	0xbd57ab42	-0.05265356
236	0xbe541775	-0.20712073
237	0xbe22e887	-0.15909015
238	0x3d8c9af8	0.068654954
239	0x3e599389	0.21247686
240	0xbdd4d0c9	-0.10391385
241	0x3cb26c5f	0.021780191
242	0xbd716094	-0.058929995
243	0x3df32efd	0.11874197
244	0x3d67332d	0.05644529
245	0xbdc71ac7	-0.09721904
246	0x3debb8af	0.11509835
247	0x3c8e98e1	0.017406883
248	0xbdd002eb	-0.101568066
249	0xbc04502d	-0.008075756
250	0xbd9a9f10	-0.0754987
251	0x3dd8159b	0.10550996
252	0x3ca7d2e0	0.020486295
253	0x3e10402d	0.14086981
254	0x3e674aee	0.22587177
255	0xbbb5407f	-0.00553137

conv.0.bias f4 [64]
0	0x3d7e0fab	0.06202666
1	0xbd902d59	-0.070398994
2	0x3cef57a0	0.029216588
3	0xbda5bdf2	-0.0809287
4	0xbd9c9d6a	-0.07647212
5	0x3a724234	0.00092414324
6	0x3c8f49d0	0.017491251
7	0x3dd60598	0.10450286
8	0x3dad0170	0.0844754
9	0xbd600bce	-0.054698758
10	0x3d1c60fe	0.038178436
11	0xbdfb1742	-0.122602955
12	0xbdaeaf5c	-0.08529541
13	0xbe1e366a	-0.15450445
14	0x3e2ab833	0.16671829
15	0xbc1979c3	-0.009367409
16	0x3dba3be3	0.09093454
17	0xbd405ef5	-0.046965558
18	0xbc04d500	-0.008107424
19	0xbdce8f07	-0.10085874
20	0xbd5fd0cf	-0.054642495
21	0x3e72334e	0.23652384
22	0x3e445505	0.19173057
23	0xbd759456	-0.059955917
24	0xbdaf281b	-0.085525714
25	0xbdfcef1e	-0.123502955
26	0x3e3f868d	0.18703671
27	0x3e388b7a	0.18021956
28	0xbde44dbd	-0.1114764
29	0xbcb1d4e4	-0.02170796
30	0xbbe7a091	-0.0070687016
31	0x3cee1f55	0.029067675
32	0x3e647116	0.22308764
33	0xbe26b0cf	-0.16278385
34	0xbd1ac345	-0.03778388
35	0xbdb9f4b0	-0.090798736
36	0x3e24d6ea	0.16097608
37	0xbe4ba050	-0.19885373
38	0x3d5a2df3	0.053266477
39	0xbd58890a	-0.052865066
40	0x3c11f744	0.00890905
41	0x3dcb7849	0.09935052
42	0xbd954a81	-0.07289601
43	0x3e772b9e	0.24137732
44	0x3c8702e4	0.01648087
45	0xbd68c04d	-0.056824017
46	0xbe01dbae	-0.12681457
47	0xbc6ed32e	-0.014576716
48	0x3e53917c	0.20660967
49	0xbd956313	-0.072942875
50	0xbe3afdd2	-0.18260887
51	0x3da46198	0.08026427
52	0x3dfb5c34	0.12273446
53	0xbde4102d	-0.11135898
54	0x3e79ca61	0.24393608
55	0x3e3f24b4	0.18666345
56	0xbb9c3e51	-0.004768171
57	0x3e4ed2d0	0.20197606
58	0xbd2ad50f	-0.041707095
59	0x3e79a31e	0.2437863
60	0x3e5ca14c	0.21545905
61	0xbd41bfad	-0.047301937
62	0xbd2269cf	-0.03965169
63	0x3e15884c	0.14602774

conv.2.weight f4 [16, 64, 1, 1]
0	0x3d3aa96c	0.04557173
1	0xbd3116ba	-0.043234564
2	0xbb510a4d	-0.003189701
3	0x3d4c3a61	0.049860362
4	0xbc29ae11	-0.010356442
5	0xbd0e03bd	-0.034671534
6	0xbbc679a5	-0.0060569816
7	0x3d13db64	0.0360979
8	0xbbab9758	-0.0052365474
9	0xbd26aa54	-0.04068978
10	0xbc6ab1ae	-0.014324589
11	0xbb6adec4	-0.0035838345
12	0x3c6c9499	0.014439725
13	0xbc288bf6	-0.010287276
14	0x3d023698	0.031790346
15	0xbba46582	-0.0050169835
16	0xbce012e5	-0.02735276
17	0xbbe16696	-0.0068786843
18	0x3c7e266a	0.015512088
19	0x3c14110b	0.0090372665
20	0x3c490140	0.012268364
21	0x3d695a36	0.056970797
22	0x3cb25203	0.021767622
23	0xbd3e46bf	-0.046454187
24	0xbd989844	-0.07450917
25	0xbb6c0725	-0.0036015
26	0x3da4f389	0.08054263
27	0x3d2b0e6d	0.041761804
28	0x3c3b9d27	0.011451042
29	0xbcac46e0	-0.02102989
30	0xbd7adefa	-0.061247803
31	0x3d0306e6	0.031989
32	0x3da8f483	0.08249762
33	0x3b85a0fa	0.004078028
34	0xbd5379cf	-0.051629838
35	0xbcb47d76	-0.02203248
36	0x3d1cd39e	0.03828775
37	0x3d167c5e	0.0367397
38	0xba696550	-0.00089033414
39	0x3ce02cab	0.02736505
40	0x3d97a49c	0.074044436
41	0x3e1db605	0.15401466
42	0x3cf71b8a	0.030164499
43	0x3d2b120f	0.04176527
44	0x3cf030a0	0.029320061
45	0xbd913c5c	-0.07091591
46	0xbd1edf49	-0.03878716
47	0x3d37f78e	0.04491382
48	0x3d083379	0.033252213
49	0x3c9b2729	0.018939571
50	0xbcde72e8	-0.027154401
51	0xbc67e0ef	-0.014152749
52	0x3b878c9f	0.0041366364
53	0x3da005a6	0.07813577
54	0x3d8addc8	0.06780583
55	0x3d7d5797	0.06185111
56	0x3d3a98b3	0.04555578
57	0x3dbbc347	0.091681056
58	0xbd582c8a	-0.05277685
59	0x3c1569f3	0.009119499
60	0x3c61d4e7	0.01378367
61	0x3d17095c	0.03687416
62	0x3d231071	0.0398106
63	0x3d959894	0.073044926
64	0x3d3790d1	0.044815842
65	0xbd22a664	-0.039709464
66	0xbb7fc7f4	-0.0039029093
67	0x3d36fb65	0.044673342
68	0xbc081d6f	-0.008307799
69	0xbce87230	-0.028374761
70	0xbbceb811	-0.0063085635
71	0x3d125414	0.035724714
72	0xbc7ccae6	-0.015429234
73	0xbd21cb82	-0.03950072
74	0xbc901ef1	-0.017592879
75	0x3add73a2	0.0016895423
76	0x3c624096	0.013809344
77	0xbbd9390a	-0.006629114
78	0x3c5f8e0c	0.013644706
79	0xbc3596a4	-0.011083279
80	0xbcde840d	-0.027162576
81	0x3abaa471	0.0014239681
82	0x3c6adf9b	0.014335538
83	0x3c8d36a6	0.017237972
84	0x3c57ae1f	0.013164072
85	0x3d462160	0.048371673
86	0x3cfd3710	0.030910045
87	0xbd2f270e	-0.042761855
88	0xbda09fe7	-0.07842999
89	0xbb084ac9	-0.0020796529
90	0x3d9ea642	0.07746555
91	0x3ceb5554	0.028727211
92	0x3c665603	0.014058593
93	0xbcb353bb	-0.021890512
94	0xbd6aff14	-0.057372168
95	0x3cf61cca	0.030043025
96	0x3d8eab20	0.06966233
97	0x3a289171	0.0006430364
98	0xbd46640f	-0.048435267
99	0xbcc71ed5	-0.024306694
100	0x3cdecd75	0.027197579
101	0x3cf29180	0.029610395
102	0xb9c0568b	-0.00036685573
103	0x3cd3a910	0.025837451
104	0x3d960cbe	0.07326649
105	0x3e2160f0	0.15759635
106	0x3cdffe3f	0.027342914
107	0x3cad1843	0.021129733
108	0x3d070dd9	0.03297219
109	0xbd8fbe5a	-0.070187286
110	0xbd26ba5f	-0.04070508
111	0x3d62ccf5	0.055371244
112	0x3c84dbdd	0.01621812
113	0x3ca5ad0a	0.020224113
114	0xbcb07bd4	-0.02154342
115	0xbc846c5c	-0.016164951
116	0x3bb77077	0.0055981237
117	0x3da72471	0.081612475
118	0x3d22115f	0.039567348
119	0x3d395a0b	0.045251887
120	0x3d4a0373	0.049319696
121	0x3d847646	0.06467871
122	0xbd5399fb	-0.05166052
123	0x39e09aaf	0.00042839858
124	0x3ac5ddce	0.001509601
125	0x3d0dd0db	0.03462301
126	0x3d1dea69	0.03855363
127	0x3d928575	0.07154361
128	0x3d32316b	0.04350416
129	0xbd67e878	-0.056618184
130	0xbbc06d1e	-0.005872383
131	0x3d228a25	0.039682526
132	0xbc39189e	-0.011297373
133	0xbd378f0a	-0.044814147
134	0x3ba65d7b	0.0050770617
135	0x3d34a8fa	0.04410646
136	0x3d014ed8	0.031569332
137	0xbd695a7d	-0.056971062
138	0x3c8cc3de	0.01718324
139	0xbc6b710b	-0.014370213
140	0x3bcb5276	0.0062048985
141	0xbd08d946	-0.033410333
142	0x3d768dde	0.06019389
143	0x3a276c8b	0.00063867186
144	0xbcbeca37	-0.023289783
145	0xbd2c81d2	-0.042115994
146	0x3cf3eed5	0.02977697
147	0xbb93393c	-0.004492907
148	0x3ba14c27	0.004922408
149	0x3d082345	0.03323676
150	0xbcceec1b	-0.025259068
151	0xbd0b94c9	-0.03407744
152	0xbd4cb9ae	-0.049981765
153	0xbbdab659	-0.0066745696
154	0x3daa094f	0.08302557
155	0x3db84a69	0.089985676
156	0x3ca83d99	0.020537185
157	0xbc2cc208	-0.0105443075
158	0xbd74ea09	-0.059793506
159	0x3d643403	0.055713665
160	0x3d325fae	0.04354828
161	0x3d0f3c27	0.034969475
162	0xbd85bb80	-0.065299034
163	0xbcbc0e32	-0.022955988
164	0x3d50686a	0.050880827
165	0x3d1feb9c	0.039043054
166	0x3c457a99	0.012053155
167	0x3cc961bb	0.024582734
168	0x3d6edef1	0.058318082
169	0x3e08a56b	0.13344352
170	0x3d00921f	0.031389352
171	0x3d918892	0.07106127
172	0x3c4aa69c	0.012368824
173	0xbd9960e2	-0.07489182
174	0xbd3f4217	-0.046693888
175	0x3c90de71	0.017684193
176	0x3d51df6c	0.051238462
177	0x3c6bff32	0.014404105
178	0xbd4e4ce6	-0.050366305
179	0x3af2206f	0.0018472801
180	0x3bf0866a	0.007340242
181	0x3d7241cf	0.05914479
182	0x3d578244	0.052614465
183	0x3dae9d5b	0.08526107
184	0x3cdba414	0.026811637
185	0x3da6900e	0.08132945
186	0xbd03dda2	-0.032193787
187	0x3d321df3	0.043485593
188	0x3d36e0d6	0.044648014
189	0x3d249e00	0.040189743
190	0x3d34c748	0.044135362
191	0x3d9b3503	0.075784706
192	0x397756e4	0.00023588125
193	0xba0cc401	-0.0005369783
194	0x39bdb5c4	0.00036184315
195	0xb9dc6db2	-0.000420434
196	0xba06156d	-0.0005114887
197	0x3a41c5f1	0.0007391861
198	0x3b8fb946	0.0043861
199	0x3a93fec9	0.0011291142
200	0x3d776302	0.060397156
201	0xb900fb7d	-0.00012300718
202	0x3a215c67	0.00061554316
203	0xbca87cfd	-0.020567412
204	0xba204874	-0.0006114312
205	0xbd25b9fc	-0.04046057
206	0x3c92fe97	0.017943664
207	0x3bda9f3c	0.0066718142
208	0x3a3146b5	0.00067625503
209	0xba78c75a	-0.0009490155
210	0xb8b2cb42	-8.525561e-05
211	0xba76e00a	-0.00094175397
212	0xb9b95ea0	-0.0003535645
213	0x3dec4e25	0.115383424
214	0x3decca0e	0.115619764
215	0x39d03c0c	0.0003971759
216	0xb82f2938	-4.176164e-05
217	0xb9c114b0	-0.00036827242
218	0x3a2a8e71	0.0006506211
219	0x3d083b20	0.03325951
220	0x390badd7	0.00013320833
221	0x3a5a96a3	0.00083384867
222	0xbb6b4a6b	-0.003590251
223	0x39e9c9eb	0.00044591664
224	0x3dd8cdc0	0.10586119
225	0xbd823eec	-0.06359658
226	0xba540071	-0.0008087224
227	0xba6cab87	-0.0009028245
228	0x3df160d0	0.11786044
229	0x38d0d2fd	9.9575125e-05
230	0x3bedc7f8	0.007256504
231	0x39a226aa	0.00030927855
232	0xb8392c4e	-4.41487e-05
233	0x384d9a3c	4.901945e-05
234	0xba38993f	-0.00070418784
235	0x3dd7e80a	0.10542305
236	0xb8d08a7f	-9.94401e-05
237	0xb9fbe257	-0.00048043087
238	0xba5f1cd7	-0.00085110724
239	0xbb025887	-0.0019889192
240	0x3d975207	0.07388692
241	0xbd7a77f3	-0.06114955
242	0xbb87e03a	-0.004146603
243	0xb991ab9c	-0.00027784414
244	0x37c479d3	2.342175e-05
245	0xbaab2550	-0.0013057385
246	0x3e14400a	0.14477554
247	0x3db224ae	0.08698402
248	0x3bb88f53	0.00563232
249	0x3e02287c	0.12710756
250	0x3b0354dc	0.0020039594
251	0x3d3c8aed	0.046030927
252	0x3d74a193	0.0597244
253	0x3a09ad8d	0.00052519963
254	0x3a627f01	0.0008640141
255	0x3a518359	0.00079922896
