models/blood/28-_combined_ssim_l1_gaussian.pth (torch, 19182 bytes, 3 tensors)

conv.0.weight f4 [128, 16, 1, 1]
-0.10278468 -0.24753314 0.038491867 0.060053293 -0.26914087 -0.17994381 0.074409194 -0.15710573
-0.28210434 0.06547669 -0.09865294 -0.019337062 0.29398525 -0.07661338 -0.0619222 0.18406816
0.14288348 -0.23420039 0.13144736 0.10064824 -0.026886009 -0.23652254 -0.08695836 0.050119806
-0.1493971 -0.07047613 0.20288551 0.086757116 -0.1586353 0.1383391 -0.015998898 0.044508416
0.11435457 0.20028739 -0.12921365 -0.16658494 0.1754418 0.2365928 0.21366781 0.14704555
0.039140504 -0.103232704 -0.03419997 -0.15360703 0.015104683 -0.12768036 -0.07744071 -0.022993527
-0.121559665 0.030767692 0.07223845 0.05426167 -0.107958734 0.12729399 0.16920838 -0.015009997
0.06494617 -0.16787875 -0.18781537 0.0665652 -0.13527901 -0.16224569 0.11606812 0.16893294
0.13255349 -0.10750681 0.033085324 0.00059043977 0.096380636 0.1447698 0.22483732 0.07212197
-0.20088206 -0.12908714 0.04418223 -0.048096564 0.18349937 0.1391115 -0.1757095 0.20516822
-0.23243831 0.08082626 -0.18747889 0.2323817 0.09527034 -0.15364607 0.1953731 0.12888727
0.025031269 0.041390423 0.17480494 -0.07572185 -0.120974295 -0.14675626 0.053229135 0.017096443
0.19386958 -0.026473522 -0.020167515 0.22490963 0.094112664 -0.08389503 -0.105075106 -0.20427004
-0.05377943 -0.052009106 0.028914114 -0.13766403 -0.17601189 0.09871409 0.102982186 0.1273762
0.12022167 0.1209352 0.13707452 0.04387455 0.08144783 0.15978855 -0.08813667 -0.17010833
-0.15539452 0.10590248 0.070063874 -0.11170098 0.22387892 -0.15514839 -0.21282992 0.081532165
-0.12692448 0.045749597 0.20497403 -0.21304066 0.23776178 0.16555397 -0.214991 0.09693616
-0.06585108 0.16074793 0.0072185933 -0.0019128168 0.12553251 0.0061258175 0.2548062 0.12995113
-0.2691788 -0.06847132 0.041477047 -0.052145027 -0.22970642 0.13497788 0.021219974 -0.1694189
-0.06999513 0.09441578 0.12359213 0.0961804 -0.026645543 0.018368647 -0.045404587 -0.08687131
-0.14463256 -0.035283353 -0.15716481 0.15245822 -0.20556451 -0.075217806 0.17937079 -0.08418852
-0.16829889 -0.082578026 -0.053146485 -0.06718574 -0.14182626 -0.034490924 -0.15940495 -0.053687762
0.15467176 0.25754 0.2257108 -0.07653093 -0.15668495 0.07277966 -0.15074807 0.044353012
0.029337842 -0.08921851 0.1955425 0.29166633 -0.21802537 0.08407116 0.16183262 -0.07125922
-0.2189704 0.039663784 0.04809497 0.067026004 -0.07824509 -0.2653027 -0.16961107 0.20060605
0.24263854 -0.24897794 -0.065085 0.2229375 0.16342966 0.077498466 -0.07098253 0.055966552
-0.0887735 -0.04767823 -0.22844584 0.02224693 -0.087155536 -0.23200816 -0.22009422 -0.21267082
0.069170006 0.109242976 -0.099547654 -0.03126118 -0.006123514 0.029323885 0.21520865 0.16767283
-0.29360312 0.04244334 0.071927376 0.10941723 -0.18964574 0.18403448 0.15135568 -0.043768115
-0.32110137 0.02560478 0.12699774 0.20829068 0.045275357 -0.1489667 -0.051485796 -0.049913757
-0.11364437 0.070440315 -0.14592439 -0.042680793 0.16523261 -0.1769543 0.19390064 -0.18767138
-0.17719397 -0.043383457 -0.07471686 -0.2303774 -0.15241814 0.08527071 0.0019146953 -0.14077704
00000000: c680 d2bd 5479 7dbe a6a9 1d3d 71fa 753d
00000010: d5cc 89be 3143 38be d963 983d 53e0 20be
00000020: fb6f 90be a518 863d 8d0a cabd c268 9ebc
00000030: 3c85 963e 7ae7 9cbd 22a2 7dbd 5d7c 3c3e
00000040: 0c50 123e 3ad2 6fbe 239a 063e aa20 ce3d
00000050: 0c40 dcbc f732 72be 3a17 b2bd 6d4a 4d3d
00000060: 8efb 18be ca55 90bd 38c1 4f3e b7ad b13d
00000070: 4b71 22be c4a8 0d3e 1f10 83bc 754e 363d
00000080: bb32 ea3d 2318 4d3e 9550 04be 3e95 2abe
00000090: 04a7 333e 6245 723e bccb 5a3e 1c93 163e
000000a0: cb51 203d ab6b d3bd 4515 0cbd 294b 1dbe
000000b0: a279 773c a4be 02be 3c99 9ebd ec5c bcbc
000000c0: 46f4 f8bd 870c fc3c c1f1 933d 7c41 5e3d
000000d0: 7819 ddbd 5b59 023e f644 2d3e 7eec 75bc
000000e0: 7f02 853d 68e8 2bbe ac52 40be 5653 883d
000000f0: 9586 0abe bc23 26be 1fb5 ed3d c2fc 2c3e
00000100: 1abc 073e 882c dcbd 7a84 073d bec7 1a3a
00000110: 3663 c53d 893e 143e c13b 663e afb4 933d
00000120: 07b4 4dbe 6b2f 04be 6df8 343d e700 45bd
00000130: 42e7 3b3e 3f73 0e3e 31ed 33be 9e17 523e
00000140: 4f04 6ebe 3d88 a53d 77fa 3fbe 78f5 6d3e
00000150: 191d c33d 6555 1dbe e30f 483e 06fb 033e
00000160: 600e cd3c 0189 293d 1100 333e 0f14 9bbd
00000170: 5fc1 f7bd 4647 16be cb06 5a3d d70d 8c3c
00000180: bf85 463e 00df d8bc 5836 a5bc b64e 663e
00000190: 24be c03d 28d1 abbd 9e31 d7bd 2a2c 51be
000001a0: d247 5cbd 8007 55bd 4bdd ec3c cdf7 0cbe
000001b0: 763c 34be 9d2a ca3d 53e8 d23d e86e 023e
000001c0: c736 f63d e0ac f73d 435d 0c3e cdb5 333d
000001d0: 1fce a63d 9c9f 233e 0081 b4bd e130 2ebe
000001e0: be1f 1fbe 66e3 d83d a67d 8f3d 7cc3 e4bd
000001f0: 8440 653e 38df 1ebe 16f0 59be 56fa a63d
00000200: 7ef8 01be ee63 3b3d b6e4 513e 5527 5abe
00000210: d377 733e fb86 293e 9a26 5cbe 7786 c63d
00000220: eedc 86bd 1b9b 243e f389 ec3b 7bb7 faba
00000230: 988b 003e 15bb c83b f575 823e e911 053e
00000240: ced1 89be b13a 8cbd d6e3 293d 0696 55bd
00000250: 2938 6bbe a437 0a3e 83d5 ad3c 267c 2dbe
00000260: 9b59 8fbd 0f5d c13d df1d fd3d 3bfa c43d
00000270: c147 dabc d879 963c 29fa 39bd 96e9 b1bd
00000280: 8f1a 14be 4785 10bd d0ef 20be 021e 1c3e
00000290: 817f 52be cb0b 9abd faac 373e 086b acbd
000002a0: 8b56 2cbe ab1e a9bd 21b0 59bd ad98 89bd
000002b0: e73a 11be 5b46 0dbd 0d3b 23be b3e7 5bbd
000002c0: 4662 1e3e 48dc 833e bb20 673e 40bc 9cbd
000002d0: 0572 20be 810d 953d b45d 1abe 81ab 353d
000002e0: ea55 f03c 32b8 b6bd 4b3c 483e 4a55 953e
000002f0: 0b42 5fbe 802d ac3d 73b7 253e 5bf0 91bd
00000300: c739 60be 7e76 223d 3bff 443d ee44 893d
00000310: f63e a0bd c1d5 87be 86ae 2dbe ac6b 4d3e
00000320: 3d76 783e 13f4 7ebe 494b 85bd ba49 643e
00000330: 1b5a 273e 84b7 9e3d 4a5f 91bd 2f3d 653d
00000340: e1ce b5bd 3f4a 43bd b5ed 69be 323f b63c
00000350: 9a7e b2bd 8c93 6dbe 6160 61be 61c6 59be
00000360: 01a9 8d3d c8ba df3d a4df cbbd b90b 00bd
00000370: c2a7 c8bb a538 f03c a85f 5c3e 6db2 2b3e
00000380: 2653 96be 11d9 2d3d a94e 933d 2416 e03d
00000390: 7e32 42be 8973 3c3e fcfc 1a3e 3246 33bd
000003a0: 6667 a4be 1ec1 d13c b20b 023e 274a 553e
000003b0: a772 393d ba8a 18be c5e2 52bd 5e72 4cbd
000003c0: 61be e8bd 0343 903d 346d 15be 0ed2 2ebd
000003d0: bd32 293e 8233 35be e48d 463e ed2c 40be
000003e0: 5672 35be dab2 31bd 2705 99bd 0ee8 6bbe
000003f0: 8013 1cbe 69a2 ae3d 83f6 fa3a db27 10be

conv.0.bias f4 [128]
-0.12605533 -0.21062453 -0.15916619 -0.020156583 -0.23103268 -0.119019195 -0.27786034 -0.25536126
0.18885547 -0.0135434205 -0.116106115 -0.077683575 -0.06467679 -0.23218559 0.085041866 0.18937826
-0.07798158 -0.27779338 -0.08088681 -0.0682054 -0.027900882 0.09312396 0.2539233 -0.021344537
0.117468685 -0.21853861 -0.20515192 0.11505155 0.13345256 -0.25482047 0.22788991 -0.024316514
0.10688938 -0.008777821 0.07878879 -0.27904215 -0.050251972 -0.15259175 0.02415387 0.17524044
0.24498068 0.21804798 0.029435089 -0.17943421 0.021237373 -0.19909821 0.19786315 0.17888346
-0.21729434 0.22265168 0.13218088 0.14997905 -0.15680943 0.046859607 0.17654729 0.06731517
0.05201549 0.14658749 0.043622438 -0.061550383 -0.054351185 0.047706693 -0.21594816 0.12769346
-0.2504474 0.08313727 0.14795922 -0.1046858 0.00089758076 5.5124245e-05 0.16662182 -0.0045508025
0.19484659 -0.08209251 -0.020667149 -0.23893994 -0.15442829 -0.13698936 -0.15896873 -0.12482711
0.2432215 0.097582035 -0.005070979 0.11654967 0.020688718 -0.15236065 0.11873845 -0.11327214
0.08561642 0.20844015 -7.0095644e-05 -0.23779112 0.027045926 -0.06698498 -0.08945444 -0.0007835454
0.055198986 0.1257514 0.10247796 0.055060267 -0.13479738 0.0862574 -0.101281576 0.07768021
0.10640794 0.09209677 -0.045997888 -0.16045858 -0.14583386 0.049272135 -0.10571255 -0.080926836
-0.23758169 -0.06854874 -0.22840917 -0.04041548 0.2289192 0.05001604 0.10538151 0.07753502
-0.21721517 -0.052921 -0.20149437 -0.14689781 -0.016699383 -0.03732523 0.16744876 -0.08646122
00000000: a614 01be f5ad 57be 76fc 22be 6b1f a5bc
00000010: d593 6cbe 56c0 f3bd b643 8ebe b6be 82be
00000020: 5463 413e 39e5 5dbc 0bc9 edbd 9118 9fbd
00000030: 4475 84bd 0fc2 6dbe 6e2a ae3d 60ec 413e
00000040: ceb4 9fbd ef3a 8ebe fca7 a5bd 46af 8bbd
00000050: 6490 e4bc c6b7 be3d 3c02 823e bdda aebc
00000060: 6c93 f03d 96c8 5fbe 5813 52be 26a0 eb3d
00000070: caa7 083e d477 82be f95b 693e 6d33 c7bc
00000080: d2e8 da3d dad0 0fbc 045c a13d 9dde 8ebe
00000090: 03d5 4dbd 0341 1cbe 56de c53c 3b72 333e
000000a0: 37dc 7a3e f847 5f3e db21 f13c 9abd 37be
000000b0: 00fa ad3c 67e0 4bbe a39c 4a3e 3a2d 373e
000000c0: 6882 5ebe cdfe 633e 6d5a 073e 1c94 193e
000000d0: a792 20be dcef 3f3d d0c8 343e 89dc 893d
000000e0: 320e 553d 081b 163e 71ad 323d 411c 7cbd
000000f0: 599f 5ebd 1868 433d 8421 5dbe 13c2 023e
00000100: a43a 80be df43 aa3d 9f82 173e 8265 d6bd
00000110: a04b 6b3a 3535 6738 e99e 2a3e e61e 95bb
00000120: dd85 473e 1e20 a8bd 274e a9bc acac 74be
00000130: 7322 1ebe f046 0cbe b3c8 22be 5ba5 ffbd
00000140: 0f0f 793e 17d9 c73d 742a a6bb 98b1 ee3d
00000150: 637b a93c 6e04 1cbe 252d f33d 39fb e7bd
00000160: a957 af3d 5671 553e 5000 93b8 847f 73be
00000170: 6b8f dd3c 6c2f 89bd e433 b7bd d766 4dba
00000180: 5518 623d fac4 003e f7df d13d e086 613d
00000190: 5308 0abe b8a7 b03d b76c cfbd cd16 9f3d
000001a0: 68ec d93d 3b9d bc3d 4868 3cbd 414f 24be
000001b0: 7955 15be 94d1 493d d27f d8bd f8bc a5bd
000001c0: 9d48 73be 4863 8cbd 18e4 69be b48a 25bd
000001d0: cb69 6a3e 9fdd 4c3d 43d2 d73d aeca 9e3d
000001e0: a76d 5ebe b1c3 58bd 8a54 4ebe 616c 16be
000001f0: 25cd 88bc 57e2 18bd b077 2b3e 9512 b1bd

conv.2.weight f4 [16, 128, 1, 1]
0.0013326685 -0.009710932 -0.0130573865 -0.0026775997 -0.019170744 0.0041801254 -0.016440406 -0.022713946
0.022160213 0.013725508 0.003209337 -0.013172107 0.0057844054 -0.0021572676 0.008754566 0.014610345
-0.0060209506 -0.011377529 -0.025818236 -0.003824402 0.0015977899 0.0068021454 0.004377932 0.014189055
0.0012381922 0.02388081 0.008199383 -0.002370378 0.0127415415 -0.00032747304 0.015813408 0.006725997
0.005554591 -0.0023992804 0.0056201704 0.0017236103 -0.0054686386 -0.0003787429 -0.016460951 -0.008847354
0.002082793 0.021201167 0.016841078 0.005523493 0.0072933845 -0.003251802 0.0013403394 0.009489141
0.0014973697 0.015214463 0.0078575555 -0.002551438 -0.003043867 0.008233405 -0.00233595 -0.0013009955
-0.006747651 0.015419264 0.021874616 -0.0010249119 -0.043517984 0.0019636736 0.00878554 0.016100848
-0.015510284 0.0021195365 0.031853046 0.00216091 -0.0023180342 0.0096731875 -0.0103588905 0.0030473103
0.0031755683 0.0008099826 -0.0037166143 -0.0018575089 -0.009217109 -0.004214339 -0.12577173 -0.029663522
0.00827682 0.00044179763 0.004232865 0.002903911 -0.0015415641 0.019797038 -0.007528474 -0.026186975
0.014932833 0.003136456 0.009899668 -0.0013220081 0.0025306323 -0.008133839 -0.0034621574 0.00024401282
0.011139946 -0.0031476847 0.020367088 0.0065811104 0.005094176 0.001358318 0.006954425 -0.006827402
-0.0013275241 6.0434108e-05 -0.015694473 0.0007527044 0.0029704012 -0.016218118 0.00015617869 0.020277565
0.00094746274 0.0024064237 0.006408249 -0.009676057 0.01994327 0.0014939463 0.010560265 -0.027018774
0.0066640354 -0.025891967 -0.0063082105 0.009915839 0.005106323 0.007717545 0.002618215 0.015268642
0.003717888 0.003872834 -0.0121019725 -0.006438728 -0.009005005 -0.0115537075 -0.007573572 -0.017501567
0.01060992 0.017975198 0.0035005824 -0.010618881 -0.0029380294 0.0044106105 -0.0014015399 0.013466188
-0.00428936 -0.028081566 -0.006181988 -0.01511222 0.015219271 0.008856855 0.0049235136 -0.0020886024
0.00034309566 0.026246399 0.013032589 -0.0017619844 0.007911066 0.009774092 0.002573038 0.0045932867
0.012440229 0.01920187 -0.0060411077 -0.0023549781 0.011091911 0.007460963 -0.012629958 -0.0053619747
0.0066967923 0.010646573 0.010147296 -0.0043668128 -0.003024125 0.0011071094 0.01448337 0.022481449
0.0071801045 0.009358225 0.0026669677 0.008715008 -0.0069807414 -0.00065631035 -0.0013443546 -0.0027611805
-0.011131538 0.011837159 0.023759581 -0.001356637 -0.030229079 0.006660106 -0.003487458 0.01120403
-0.008415874 0.009596866 0.022944214 0.011073575 -0.012393219 0.008580876 -0.0075800684 -0.003826085
0.018048521 0.00026451366 0.01055618 0.0015801956 -0.0031502517 -0.009164347 -0.09631261 -0.01240144
0.0074643497 -0.004506013 0.0020187758 0.008804135 -0.0016464378 0.0047359304 0.0018993065 -0.03302923
0.017460326 -0.0017912155 -0.001872522 0.00697601 0.0038856582 0.002657386 -0.00038073608 -0.005360163
0.006093786 -0.004166814 0.023843164 0.00046860587 0.0064887567 0.006509163 -0.0003822717 -0.002589046
-0.0087904725 0.004679082 -0.019589685 -0.0065334295 -0.0007189112 -0.008884448 -0.0016766189 0.020134978
0.009877156 -0.0020021873 0.015353632 -0.002579324 0.010631415 0.0057013948 0.012819739 -0.009802471
0.000798877 -0.016701542 0.0038540517 0.0017018389 0.00800602 0.006650399 0.009565204 0.01908021
00000000: efac ae3a 9a1a 1fbc a6ee 55bc ab7a 2fbb
00000010: f70b 9dbc 6ff9 883b 08ae 86bc 9912 babc
00000020: 5689 b53c f4e0 603c bd53 523b d2cf 57bc
00000030: 1c8b bd3b f260 0dbb 506f 0f3c 3a60 6f3c
00000040: 654b c5bb d168 3abc c480 d3bc d2a2 7abb
00000050: ef6c d13a 88e4 de3b c174 8f3b 3679 683c
00000060: d64a a23a b0a1 c33c b456 063c 5858 1bbb
00000070: e6c1 503c b0b0 abb9 1f8b 813c c165 dc3b
00000080: 4903 b63b 3f3d 1dbb 6829 b83b c4ea e13a
00000090: 4432 b3bb 0392 c6b9 1ed9 86bc 7ef4 10bc
000000a0: 787f 083b 12ae ad3c 4df6 893c 6bfe b43b
000000b0: 58fd ee3b 2f1c 55bb 54ae af3a 5878 1b3c
000000c0: 6443 c43a 1546 793c fabc 003c 0736 27bb
000000d0: 9d7b 47bb 67e5 063c bd16 19bb 2a86 aaba
000000e0: 661b ddbb 15a1 7c3c 6532 b33c 5656 86ba
000000f0: ea3f 32bd fab0 003b 3af1 0f3c ede5 833c
00000100: d91e 7ebc ece7 0a3b 5778 023d 0e9e 0d3b
00000110: 29ea 17bb 4a7c 1e3c 56b8 29bc 62b5 473b
00000120: 321d 503b 0355 543a 7192 73bb a877 f3ba
00000130: 5b03 17bc 7018 8abb 4eca 00be ea00 f3bc
00000140: 809b 073c 13a1 e739 d8b3 8a3b 8b4f 3e3b
00000150: 4f0e caba 662d a23c 6bb1 f6bb 1186 d6bc
00000160: d7a8 743c 008d 4d3b 3832 223c 3b47 adba
00000170: f7d8 253b cb43 05bc 5de5 62bb b1dd 7f39
00000180: 5284 363c 6349 4ebb e1d8 a63c 5ba6 d73b
00000190: 0ced a63b 9709 b23a f2e1 e33b 66b8 dfbb
000001a0: 5100 aeba a17a 7d38 b291 80bc 2351 453a
000001b0: 10ab 423b dcdb 84bc e6c3 2339 231d a63c
000001c0: 265f 783a 17b5 1d3b 4afc d13b 5388 1ebc
000001d0: 1260 a33c 85d0 c33a f604 2d3c 7a56 ddbc
000001e0: fb5d da3b 641b d4bc 1bb5 cebb 0b76 223c
000001f0: f152 a73b 76e3 fc3b 5c96 2b3b 5429 7a3c
00000200: cfa7 733b 5fcf 7d3b 5a47 46bc f7fb d2bb
00000210: ba89 13bc c34b 3dbc ba2b f8bb 725f 8fbc
00000220: 3bd5 2d3c b940 933c 076a 653b d1fa 2dbc
00000230: f48b 40bb e286 903b e0b3 b7ba 49a1 5c3c
00000240: c28d 8cbb 500b e6bc 4692 cabb 3f99 77bc
00000250: 405a 793c 581c 113c 6d55 a13b efe0 08bb
00000260: 85e1 b339 b002 d73c a486 553c 63f2 e6ba
00000270: 6a9d 013c 8323 203c 6aa0 283b 4883 963b
00000280: 1ad2 4b3c 3d4d 9d3c 7cf4 c5bb fa55 1abb
00000290: d9ba 353c 187b f43b e2ed 4ebc 81b3 afbb
000002a0: c470 db3b f76e 2e3c d840 263c 7b17 8fbb
000002b0: 6630 46bb 6d1c 913a a84b 6d3c 042b b83c
000002c0: 1547 eb3b 3e53 193c 4bc8 2e3b 65c9 0e3c
000002d0: b4be e4bb 3e0c 2cba 0e35 b0ba ecf4 34bb
000002e0: 0e61 36bc a5f0 413c 74a3 c23c 2fd1 b1ba
000002f0: f9a2 f7bc 053d da3b d68d 64bb 1c91 373c
00000300: bce2 09bc 2c3c 1d3c 81f5 bb3c f16d 353c
00000310: ee0c 4bbc cd96 0c3c 3962 f8bb 0ebf 7abb
00000320: 7eda 933c 6cae 8a39 d4f3 2c3c 911e cf3a
00000330: 7474 4ebb 0f26 16bc 8c3f c5bd 692f 4bbc
00000340: 8197 f43b 2da7 93bb 704d 043b 383f 103c
00000350: 49cd d7ba dd2f 9b3b 27f2 f83a a849 07bd
00000360: f508 8f3c 38c7 eaba 6a6f f5ba 0397 e43b
00000370: 87a6 7e3b 8a27 2e3b 889d c7b9 4ea4 afbb
00000380: 62ae c73b c589 88bb bd52 c33c 37af f539
00000390: a39f d43b d14a d53b a46b c8b9 fcac 29bb
000003a0: ea05 10bc fc52 993b 8c7a a0bc 6116 d6bb
000003b0: 5075 3cba 1390 11bc ffc1 dbba 1cf2 a43c
000003c0: cbd3 213c 2137 03bb cd8d 7b3c e009 29bb
000003d0: 632f 2e3c c4d2 ba3b e209 523c 8b9a 20bc
000003e0: ba6b 513a acd1 88bc 4294 7c3b 3d10 df3a
000003f0: af2b 033c 97eb d93b 60b7 1c3c 1a4e 9c3c
