models/blood/28-_manhattan_laplacian_identity.pth (torch, 27395 bytes, 3 tensors)

conv.0.weight f4 [128, 32, 1, 1]
0	0x3e0d0be5	0.13774069
1	0x3da622ea	0.08112128
2	0xbb9a0b18	-0.0047010295
3	0x3da0be2c	0.078487724
4	0x3dbc3a3f	0.09190797
5	0x3d0996b4	0.033590987
6	0xbdbbd4a1	-0.09171415
7	0xbde01b38	-0.109426916
8	0x3d21d663	0.039511096
9	0xbcfdc2ec	-0.030976735
10	0x3e073bd0	0.1320641
11	0xbe0745a2	-0.13210157
12	0xbe2072f3	-0.1566885
13	0xbbbe47fc	-0.005806921
14	0x3c1ed459	0.009694182
15	0xbe0629b3	-0.13101844
16	0xbd18c101	-0.037293438
17	0x3d4a8f9d	0.049453367
18	0x3e4684b3	0.19386558
19	0xba86be1d	-0.0010280047
20	0xbdf2b131	-0.11850203
21	0x3e1e5cdf	0.15465115
22	0xbc5985ef	-0.013276561
23	0x3ce80b47	0.02832569
24	0xbcaa09dc	-0.020756654
25	0x3e350cb3	0.17680626
26	0x3e1716f6	0.14754853
27	0xbcddf169	-0.027092652
28	0x3da1c326	0.0789855
29	0xbdc8dff1	-0.098083384
30	0x3e114a53	0.14188509
31	0x3d6bcc79	0.057568047
32	0xbcd3cb24	-0.025853701
33	0x3e18859a	0.14894715
34	0xbd231aaf	-0.03982037
35	0xbde7d02d	-0.11319003
36	0x3d7c29df	0.06156337
37	0x3c64bc55	0.0139609175
38	0xbd8e5946	-0.06950621
39	0x3dbb1094	0.091340214
40	0xbcfbd180	-0.030739546
41	0x3dc8212a	0.097719505
42	0xbd0ed69e	-0.034872644
43	0xbb946ab4	-0.0045293216
44	0x3dc12867	0.09431534
45	0x3e1f586e	0.15561077
46	0xbd526b2e	-0.051371746
47	0xbe301506	-0.1719552
48	0xbe181944	-0.14853388
49	0xbcead48a	-0.0286658
50	0x3cbdc07d	0.023163075
51	0xbd7a4296	-0.061098658
52	0xbd26fae4	-0.04076661
53	0xbdf7814c	-0.12085208
54	0x3d828e3a	0.06374784
55	0x3cfb6b83	0.030690914
56	0x3e075819	0.132172
57	0x3de3132c	0.11087641
58	0xbe13ecb0	-0.14445758
59	0x3dc58648	0.09644753
60	0xbe06b366	-0.13154373
61	0x3c6fcbd7	0.014636002
62	0x3e1f6e0a	0.1556932
63	0xbdbe0aa4	-0.09279373
64	0xbdab06d2	-0.0835091
65	0x3e0e8408	0.13917553
66	0x3c78a0e5	0.015175079
67	0x3e569983	0.20956998
68	0xbdf10f6c	-0.117705196
69	0xbe230509	-0.1591989
70	0x3c91be30	0.017790884
71	0x3e20ae0f	0.15691398
72	0xbe1d5dca	-0.15367809
73	0xbc98f81f	-0.018673
74	0xbe20cc54	-0.15702945
75	0x3e17c5a5	0.14821489
76	0x3ddb4829	0.10707123
77	0x3e9ed255	0.31019846
78	0x3cabccf9	0.020971762
79	0xbe1723aa	-0.14759699
80	0xbd8cf73c	-0.06883094
81	0x3e14369a	0.14473954
82	0x3d964ab8	0.0733847
83	0xbe75a9af	-0.2399051
84	0x3d818f30	0.06326139
85	0xbd51d229	-0.051225815
86	0x3d9fabf3	0.077964686
87	0xbe9ba7e3	-0.30401525
88	0xbdba8400	-0.09107208
89	0x3e0e9226	0.13922939
90	0xbe1fc722	-0.15603307
91	0xbe8d9668	-0.27653813
92	0x3e286414	0.16444427
93	0x3d4c5e7b	0.04989479
94	0x3e085073	0.13311939
95	0x3dcc5061	0.099762686
96	0x3e2cd589	0.16878332
97	0xbdd4e70d	-0.10395632
98	0x38e3a905	0.00010855686
99	0x3de8a63e	0.11359833
100	0xbdabea15	-0.08394257
101	0xbdcd03aa	-0.100104645
102	0xbdc99983	-0.09843733
103	0xbc7ba31f	-0.015358715
104	0x3dba576f	0.09098708
105	0x3b35b0da	0.002772382
106	0xbc75f5c1	-0.015012206
107	0x3e3148ef	0.17312978
108	0x3c2e7d4c	0.01064999
109	0x3d4c87a2	0.049934037
110	0x3d79dcea	0.061001696
111	0xbde27c87	-0.11058908
112	0x3e0fa545	0.14027889
113	0x3bb763bc	0.005596606
114	0x3dbb030b	0.0913144
115	0x3de97f0c	0.114011854
116	0xbe30407c	-0.17212099
117	0x3e10df00	0.14147568
118	0xbd17f2fe	-0.03709697
119	0xbddefd47	-0.108881526
120	0x3db5993d	0.088671185
121	0x3d00be2b	0.03143136
122	0xbd4e60ec	-0.0503854
123	0x3e0a9dcd	0.13536759
124	0x3d436711	0.047705714
125	0xbe3454fc	-0.17610544
126	0xbe0cb7ae	-0.13741943
127	0x3e0ed00c	0.13946551
128	0x3e1b4f03	0.1516686
129	0x3d27e91e	0.040993802
130	0x3cc6b752	0.024257336
131	0x3da58534	0.08082047
132	0x3e1a00c8	0.1503936
133	0xbdbe2bd3	-0.092857026
134	0x3df77a2b	0.120838486
135	0xbbeb1ad2	-0.007174828
136	0xbd65f0ad	-0.05613773
137	0x3d607f2a	0.054808773
138	0x3d5763d4	0.052585438
139	0x3c92e5f0	0.017931908
140	0x3d89d1b4	0.06729451
141	0x3df903a7	0.121589
142	0xbe2c1456	-0.16804633
143	0x3df4d2f7	0.11954301
144	0xbd5e1c3d	-0.05422615
145	0x3d1b9f4b	0.03799371
146	0xbd48b74c	-0.04900293
147	0x3caac534	0.020845987
148	0x3d84b76a	0.06480296
149	0x3cb986cb	0.022647282
150	0x3dc7071f	0.09718155
151	0xbc454920	-0.01204136
152	0x3e268cbd	0.16264625
153	0xbcc36498	-0.023851678
154	0x3e248c4a	0.16069141
155	0xbdda0d6b	-0.106470905
156	0x3c98de4d	0.018660689
157	0x3e23c6d4	0.15993816
158	0xbd88e5ab	-0.06684431
159	0xbcd8d810	-0.026470214
160	0xbd722e6b	-0.0591263
161	0xbd22c03e	-0.039734118
162	0xbd5b142c	-0.053486034
163	0xbe08cf51	-0.13360335
164	0x3daeed6e	0.0854138
165	0x3d5196a2	0.051169045
166	0xbe0db912	-0.1384013
167	0xb8cf162e	-9.8746605e-05
168	0xbe38fea1	-0.18065883
169	0x3df03b07	0.117300086
170	0xbd8bff0d	-0.068357565
171	0xbb67750b	-0.0035317566
172	0x3dec4a65	0.11537627
173	0x3ce8181f	0.028331814
174	0x3e29c0c4	0.1657744
175	0x3cb73b37	0.022367103
176	0x3e1f7c7d	0.15574832
177	0xbdf3c902	-0.119035736
178	0xbd943b24	-0.07237843
179	0xbe3613b1	-0.17780949
180	0xbdc1dbf9	-0.094657846
181	0xbd78150d	-0.06056695
182	0xbd930242	-0.07178165
183	0x3d09962c	0.03359048
184	0xbde33d32	-0.110956565
185	0x3dce8101	0.10083199
186	0xbd8b2d01	-0.06795693
187	0xbdbbafc2	-0.091643825
188	0xbcb96c18	-0.02263455
189	0xbd9854ac	-0.07438025
190	0x3df34f79	0.118803926
191	0x3db0a8f3	0.086259745
192	0x3c7a3b47	0.015272922
193	0x3d115a46	0.035486482
194	0x3e28dd41	0.16490652
195	0xbd898873	-0.06715479
196	0x3d8137cc	0.063094705
197	0x3e33f377	0.17573343
198	0x3d343f99	0.044005964
199	0x3dff2b3e	0.1245942
200	0x3dc8280d	0.09773264
201	0x3e274c51	0.16337706
202	0x3de10a6f	0.10988318
203	0x3de80009	0.11328132
204	0xbdf47b69	-0.11937601
205	0xbe8d64c3	-0.27615938
206	0x3e1f1f38	0.15539253
207	0xbd10c188	-0.035340816
208	0xbcb06ee2	-0.021537248
209	0x3d984d82	0.074366584
210	0xbda2ac34	-0.079430014
211	0xbd85da78	-0.0653581
212	0x3e2258f7	0.1585425
213	0x3df80791	0.12110818
214	0xbe2ff125	-0.17181833
215	0x3e53f968	0.2070061
216	0xbc0f8b1c	-0.008761194
217	0xbd930ffb	-0.071807824
218	0xbe1fb2d5	-0.15595563
219	0x3d82ba57	0.06383198
220	0xbdb4173e	-0.087934956
221	0x3e3ec785	0.18630798
222	0xbe44b845	-0.19210918
223	0x3e529005	0.20562752
224	0x3e094e04	0.13408667
225	0x3dc4adfe	0.09603499
226	0xbe0e62cf	-0.1390488
227	0xbdd67442	-0.10471393
228	0x3df5efec	0.12008652
229	0x3c5bc511	0.0134136835
230	0x3d82336f	0.063574664
231	0xbc96e4b0	-0.018419594
232	0xbd8da0a1	-0.06915403
233	0xbe141781	-0.14462091
234	0x3e1a4efb	0.15069191
235	0xbe205b1b	-0.15659754
236	0x3d597f7c	0.053100094
237	0x3e41cf05	0.18926628
238	0x3d1a7066	0.037704848
239	0xbe1c48d9	-0.15262164
240	0xbe10bfe6	-0.14135703
241	0x3ddaed24	0.10689762
242	0x3b4c9703	0.003121794
243	0x3e01ebc3	0.12687592
244	0xbe370715	-0.17873795
245	0x3da76a20	0.081745386
246	0xbdeb265f	-0.11481928
247	0xbcb9a3b7	-0.022661073
248	0xbdbdf3b2	-0.09274997
249	0xbd8ac1b4	-0.06775227
250	0x3dd2249e	0.102608904
251	0x3e1c7687	0.1527959
252	0xbd8feec0	-0.0702796
253	0x3e03be1a	0.12865487
254	0x3dd79425	0.10526303
255	0xbdaa196b	-0.08305629

conv.0.bias f4 [128]
0	0xbe40b2b6	-0.18818173
1	0x3e159897	0.1460899
2	0x3c28c6df	0.010301321
3	0x3d9b04a1	0.07569242
4	0xbe053540	-0.13008595
5	0x3de4570d	0.11149416
6	0x3c4efce1	0.012633533
7	0x3bb7cbf9	0.005609032
8	0xbdfb8b95	-0.122824825
9	0x3d7e5a6a	0.062097944
10	0x3da75df0	0.08172214
11	0xbd78e963	-0.06076945
12	0x3df85a02	0.12126543
13	0xbdc9168e	-0.09818755
14	0x3e1c47c8	0.15261757
15	0x3e1b7383	0.15180783
16	0xbe00df74	-0.1258524
17	0x3e144779	0.1448039
18	0xbd11f05a	-0.035629608
19	0x3d5963b6	0.053073607
20	0xbdbc2921	-0.09187532
21	0x3e2fdf60	0.17175055
22	0x3c745fdd	0.014915434
23	0xbb740a51	-0.0037237594
24	0xbdfd3de6	-0.12365322
25	0x3d51a2be	0.051180594
26	0x3db37ec9	0.08764417
27	0xbdc5a80a	-0.096511915
28	0x3dccc6de	0.099988684
29	0xbe34e243	-0.17664437
30	0xbd9276b0	-0.07151544
31	0xbdda4971	-0.10658539
32	0xbe0d510f	-0.13800453
33	0xbdc2f6fe	-0.09519766
34	0x3e2cc375	0.16871436
35	0xbe10bae8	-0.14133799
36	0x3e1d23a8	0.15345633
37	0x3dba1ede	0.09087919
38	0xbd9252a8	-0.07144672
39	0xbe255448	-0.16145432
40	0xbcd0937a	-0.025460947
41	0xbe2f93ee	-0.17146274
42	0x3e10fffc	0.1416015
43	0x3dfa512c	0.122225136
44	0x3dd935c3	0.10605957
45	0x3d94068e	0.07227813
46	0xbccd3e27	-0.02505405
47	0x3dea1e09	0.1143151
48	0xbe034465	-0.12819059
49	0xbce53313	-0.027978456
50	0x3e13acda	0.14421406
51	0xbe11baa9	-0.14231361
52	0x3cafe952	0.02147356
53	0xbde66380	-0.11249447
54	0x3e1572bf	0.14594553
55	0xbdb13fe9	-0.08654768
56	0xbda759cf	-0.081714265
57	0xbd56e3b0	-0.052463233
58	0xbe04abc7	-0.12956153
59	0x3e0bb516	0.13643298
60	0x3d01ea4e	0.03171759
61	0xbd9e5cfd	-0.0773258
62	0xbdbe17b7	-0.09281867
63	0x3e4045bb	0.187766
64	0x3de8e973	0.11372652
65	0xbe287618	-0.16451299
66	0xbe02f531	-0.12788846
67	0xbdb45205	-0.088047065
68	0xbe2d0543	-0.16896538
69	0xbe238275	-0.15967734
70	0xbe2511fd	-0.16120143
71	0xbe13ad05	-0.1442147
72	0xbe4553af	-0.19270204
73	0xbdc53dae	-0.09630905
74	0x3d8b5192	0.06802668
75	0xbd422c91	-0.047405783
76	0x3d12ab25	0.035807747
77	0xbd55b742	-0.05217672
78	0x3d82da85	0.063893355
79	0x3e31efac	0.17376584
80	0x3cf755aa	0.030192215
81	0x3dd7847e	0.10523318
82	0x3dbe85bd	0.09302852
83	0x3d6028f8	0.05472657
84	0xbdf4c335	-0.11951295
85	0xbda9187c	-0.08256623
86	0xbd92590c	-0.071458906
87	0x3d19864f	0.037481602
88	0x3e185924	0.14877754
89	0x3bfca2c5	0.0077098333
90	0xbd95d264	-0.073155195
91	0xbe275015	-0.16339143
92	0x3e362900	0.17789078
93	0xbdcd68bd	-0.10029743
94	0x3dbdc327	0.09265738
95	0x3b39a862	0.0028329124
96	0xbe0a2816	-0.13491854
97	0xbe10159e	-0.14070746
98	0x3d666dfd	0.056257237
99	0x3e20155f	0.15633152
100	0xbd55d4f3	-0.052205037
101	0x3cf76444	0.030199178
102	0x3df06b33	0.11739197
103	0x3d819124	0.063265115
104	0xbe1a0eed	-0.15044756
105	0xbe1622ef	-0.14661764
106	0xbd0540bb	-0.032532435
107	0x3d21a8e3	0.039467704
108	0xbe1e893b	-0.15482037
109	0xbd65e237	-0.05612394
110	0x3cf995f4	0.030467011
111	0x3dd62bee	0.10457598
112	0x3e120685	0.142603
113	0xbdd14af2	-0.10219373
114	0x3e4171de	0.18891093
115	0x3d0b90df	0.034073707
116	0xbdea5e8e	-0.11443816
117	0x3dbed22e	0.09317432
118	0xbdfd6ac1	-0.12373877
119	0x3d2ca987	0.04215386
120	0x3e1e709a	0.15472642
121	0xbd88ba66	-0.06676178
122	0x3e26e3c0	0.16297817
123	0x3e2debec	0.16984528
124	0x3e007c4e	0.12547418
125	0x3e205d0a	0.15660492
126	0x3e3db7e4	0.1852718
127	0xbae47314	-0.0017429315

conv.2.weight f4 [16, 128, 1, 1]
0	0xbc8f1dbd	-0.017470235
1	0x3cb287e9	0.021793323
2	0x3d2d2389	0.042270217
3	0x3c51954f	0.012791946
4	0xbc4acbae	-0.012377663
5	0x3c93b5e0	0.01803106
6	0xbbdf7440	-0.006819278
7	0xbb052540	-0.0020316392
8	0xbb515e8c	-0.0031947223
9	0x3b71a2c2	0.0036870693
10	0x3c5f3804	0.013624195
11	0xbb9df48f	-0.0048204134
12	0x3ca158b7	0.019695623
13	0xbc1ee747	-0.0096986955
14	0x3d080b42	0.03321386
15	0x3d065f96	0.032806
16	0xbb582605	-0.0032981646
17	0x3c863727	0.01638372
18	0x3bda3a80	0.006659806
19	0x3b1559af	0.0022789051
20	0x3cbc6fc3	0.02300251
21	0x3ca50ec2	0.020148639
22	0x3d1c3381	0.038135055
23	0x3d066604	0.032812133
24	0xbc152cf2	-0.009104954
25	0xbc32d0f1	-0.010914073
26	0x3cef174f	0.02918592
27	0xbc225eb8	-0.009910278
28	0x3d1aef38	0.037825793
29	0xbc5bd92c	-0.013418477
30	0xbbd59609	-0.0065181297
31	0xbcd1160d	-0.02552321
32	0xbd0fa709	-0.035071407
33	0xbcf9457a	-0.030428637
34	0x3bec2927	0.007207054
35	0x3cc5ecf7	0.024160845
36	0x3c8adda7	0.016951395
37	0x3cc72cad	0.024313295
38	0xbd18f4ab	-0.03734271
39	0x3a46a95a	0.0007578336
40	0x3cc3d799	0.023906516
41	0xbc902c17	-0.017599149
42	0x3b8015af	0.003908835
43	0x3babe555	0.0052458444
44	0x3c8b4126	0.016998839
45	0x3d03b221	0.0321523
46	0xbcc0ddaa	-0.023543198
47	0x3c1869ee	0.009302599
48	0x3bf48dc2	0.007463188
49	0xbcd1621b	-0.025559476
50	0x3a3cfcac	0.0007209282
51	0x3bdaf526	0.006682056
52	0xbafb4c7f	-0.0019172578
53	0xbc56bdbf	-0.013106762
54	0x3d299e49	0.041410718
55	0xbcc78498	-0.024355218
56	0xbc0bad3d	-0.00852519
57	0x3a20f968	0.000614068
58	0xbab5389e	-0.0013826077
59	0x3c416a36	0.011805108
60	0x3cb67d13	0.022276437
61	0xbc17d428	-0.009266891
62	0x3baaf4e0	0.0052171797
63	0x3cca69a8	0.024708584
64	0x3d41e427	0.047336724
65	0xbbc0b0f0	-0.0058804676
66	0xbae72e16	-0.0017637636
67	0xbb98458a	-0.0046469616
68	0x3b51427e	0.0031930502
69	0xbcc81011	-0.024421724
70	0x3c4b9ded	0.012427789
71	0xbc4d9e0d	-0.012549889
72	0xbc800e48	-0.01563181
73	0xbc8a241a	-0.016862918
74	0x3c94cfb3	0.018165445
75	0x3c0e7786	0.008695489
76	0xbd206c33	-0.039165687
77	0xbc9d5505	-0.01920558
78	0x3c55a2ad	0.013039273
79	0x3ca88dca	0.020575423
80	0x3c1af45e	0.009457676
81	0x3b365dda	0.0027826936
82	0xba728a3f	-0.00092521677
83	0x3c5a5150	0.0133250505
84	0xbd25b203	-0.04045297
85	0xbc610690	-0.013734475
86	0xbc4ada68	-0.012381174
87	0x3ae51d01	0.0017479957
88	0x3c66f74e	0.014097048
89	0x3b30c929	0.002697537
90	0xbd4a98c3	-0.04946209
91	0xbb691373	-0.003556457
92	0x3cb3690e	0.02190068
93	0xbc5e08b1	-0.013551877
94	0x3cb371b7	0.02190481
95	0xbcd0752b	-0.025446495
96	0x3bff67a2	0.0077943364
97	0xbc5df646	-0.013547486
98	0x3cd38dda	0.025824476
99	0x3c9c0373	0.019044613
100	0xbab21f05	-0.0013589567
101	0x3c33a0f4	0.010963667
102	0x3d25703b	0.040390234
103	0xbc761114	-0.01501872
104	0xbbe05dc3	-0.006847115
105	0xbb605cbc	-0.0034234961
106	0xbc2fded7	-0.0107342815
107	0x3c8734a0	0.016504586
108	0x3c9cb2be	0.0191282
109	0xbc908a87	-0.01764418
110	0xbb2b9741	-0.0026182684
111	0x3bba7e9b	0.005691362
112	0x3c8cb287	0.017174972
113	0x3a9ca34d	0.0011950523
114	0x3cdcdcf1	0.026960822
115	0xbc63898a	-0.013887772
116	0x3bd8cd1c	0.006616248
117	0x3c7cd2b6	0.015431097
118	0xbc71ef0b	-0.014766465
119	0x3c60e855	0.013727267
120	0x3cfa5f3a	0.030562986
121	0xbb0fd2d7	-0.0021945739
122	0x3c2b8273	0.010468113
123	0x3c28ab0e	0.010294689
124	0x3c8d630e	0.017259147
125	0x3caed2e8	0.021340802
126	0x3c86e35b	0.016465833
127	0x3c4b425f	0.012405961
128	0xbb74c31d	-0.0037347742
129	0x3cdf9d4b	0.027296683
130	0x3d3e466e	0.046453886
131	0x3cc81905	0.024425993
132	0xbba6d9f4	-0.0050919
133	0x3c34817e	0.0110172015
134	0xbce4464a	-0.027865548
135	0x3bbc3499	0.005743575
136	0x3c1cdccc	0.009574126
137	0x3baa0ded	0.0051896484
138	0x39bc27fb	0.00035887942
139	0xbc8498bd	-0.016186113
140	0x3c411406	0.011784559
141	0x3c88e023	0.01670844
142	0x3cf910e3	0.03040356
143	0x3cf7395f	0.030178724
144	0xbb926357	-0.0044674086
145	0x3cbe1082	0.02320123
146	0xbc8c1898	-0.017101571
147	0x3ba5bec1	0.00505814
148	0xbc978741	-0.018497111
149	0x3cfd6dd2	0.030936155
150	0x3c452371	0.012032376
151	0xbada6d4a	-0.0016664651
152	0xbcbd3134	-0.023094751
153	0x3b238eb9	0.0024956896
154	0x3cb7633b	0.022386184
155	0xbc4b2cd8	-0.012400828
156	0x3c16cd0f	0.009204163
157	0xbc905db3	-0.017622804
158	0xbb9c1473	-0.00476318
159	0xbb149249	-0.00226702
160	0xbca8596f	-0.020550458
161	0xbc9cfe2c	-0.019164167
162	0x3bd9b4f6	0.0066438867
163	0x3c81eec2	0.015860919
164	0x3c8127d0	0.015766054
165	0x3caaccc8	0.0208496
166	0xbd1866e1	-0.037207488
167	0xba8436f8	-0.0010087183
168	0x3beab0ba	0.0071621807
169	0xbd01890a	-0.03162483
170	0xbb4b089e	-0.0030980478
171	0x3b740d53	0.0037239387
172	0x3c3dc03e	0.011581479
173	0x3d1baaff	0.03800487
174	0xbd07f8b0	-0.03319615
175	0x3bde1ad4	0.0067781005
176	0xbba1b13f	-0.0049344595
177	0xbcf146fb	-0.029452791
178	0x3afbefbd	0.0019221228
179	0xbabbeb29	-0.0014337051
180	0xbc8877c8	-0.016658679
181	0x3c3e8036	0.011627248
182	0x3c99ec75	0.01878951
183	0xbae36965	-0.0017350136
184	0xbc92b56e	-0.017908778
185	0x3c08a491	0.008340017
186	0x3ba99fd9	0.005176526
187	0x3d1dc0d2	0.038513966
188	0x3ca6936a	0.020333964
189	0xbbafe9a3	-0.005368428
190	0x3cad314d	0.021141673
191	0x3d11fbd3	0.03564055
192	0x3d057a44	0.032587305
193	0xbc5a4480	-0.013321996
194	0xbc81c132	-0.015839193
195	0xbcb36230	-0.021897405
196	0x3a47cee2	0.00076220755
197	0x3c0621c3	0.00818676
198	0x3c06138b	0.00818337
199	0xbc521b70	-0.012823924
200	0xbc5ca06c	-0.013465982
201	0xbb5dc159	-0.0033837168
202	0x3cc3c036	0.023895364
203	0x3cbe34be	0.023218509
204	0xbd7c5837	-0.061607566
205	0xbc056065	-0.008140658
206	0xbb9851df	-0.0046484317
207	0x3c872d16	0.01650099
208	0xbd30d4ab	-0.043171566
209	0x3c4e3020	0.012584716
210	0xbb52c2cf	-0.0032159572
211	0x3c886e60	0.016654193
212	0xbb5b6c51	-0.003348131
213	0xbc0419bd	-0.008062777
214	0xbc5ad524	-0.013356481
215	0xb9da4312	-0.00041630171
216	0x3bddea17	0.0067722904
217	0x3be92570	0.0071150586
218	0xbca1b145	-0.019737849
219	0xbc124ea1	-0.008929879
220	0x3cdc8f90	0.026923925
221	0xbc9b920d	-0.01899054
222	0xba6689be	-0.0008794329
223	0xbd0c4547	-0.034245756
224	0xbbb69be8	-0.0055727847
225	0xbc653257	-0.013989053
226	0x3ced2266	0.028947067
227	0x3c85f769	0.016353326
228	0xbc7fdbec	-0.015616398
229	0x3c02f3ad	0.007992667
230	0x3d252815	0.04032143
231	0xbcaffddf	-0.02148336
232	0xbbff83f8	-0.0077977143
233	0x3c4b9754	0.012426216
234	0x3b923698	0.0044620745
235	0x3c34a816	0.011026403
236	0x3bccc79e	0.006249382
237	0xbc39b392	-0.011334317
238	0xbc04bd2c	-0.008101743
239	0x3c0bbb43	0.008528533
240	0x3c1d809f	0.009613185
241	0xbc7d73c9	-0.0154695
242	0x3ccb033a	0.024781812
243	0xbc6bf235	-0.014401008
244	0x3c38bfce	0.011276199
245	0x3b806471	0.0039182235
246	0x3c0d22cd	0.008614254
247	0x3bfc3e49	0.0076978547
248	0x3cc48eb8	0.023993835
249	0xbcd67c8a	-0.026182432
250	0x3cb1c6b9	0.021701204
251	0xbac0f4e2	-0.0014721418
252	0x3ccfdf92	0.025375161
253	0x3c84d59c	0.016215138
254	0x3c9cfa5a	0.019162346
255	0x3c198227	0.00936941
