models/blood/28-_mse_laplacian.pth (torch, 19034 bytes, 3 tensors)

conv.0.weight f4 [128, 16, 1, 1]
-0.16626781 -0.20348385 -0.08063099 -0.2105395 -0.054809213 -0.0019349513 0.05315633 -0.17198288
0.22173445 -0.21777639 -0.021436458 -0.12661429 0.2026048 -0.16856128 0.14792821 -0.054061517
0.062200375 -0.10772724 -0.15977757 -0.045327876 -0.17450091 -0.056678507 0.1878856 -0.07359953
0.064414434 0.062283468 -0.036214624 0.10139377 -0.035619047 0.14224488 -0.16525342 -0.20737238
0.15487862 -0.0049098674 -0.1462669 0.1536259 -0.2531583 -0.1200061 -0.1810569 -0.08197298
0.23792002 -0.17017153 0.12809208 0.14077286 -0.24091972 0.26321173 -0.09644919 0.13277605
0.02824382 0.16302615 0.23483661 0.32215235 -0.016086835 0.17472401 -0.072017856 -0.04164979
0.027526323 -0.02033208 -0.07734345 -0.11138266 0.00826027 0.040166475 -0.040402465 0.12540141
-0.20275874 -0.032347128 -0.12853238 0.055727635 -0.19393249 0.08127983 -0.22836293 -0.06544009
-0.16670527 -0.18816645 -0.16963181 0.12727252 0.19653016 -0.11434873 -0.13083631 -0.20163777
-0.08893673 -0.09364733 0.17785545 -0.03247717 0.13251892 -0.23286906 0.08874807 0.15826613
0.19317506 0.20529999 0.15905014 -0.15697387 -0.09571013 0.15098418 0.12011176 0.06274826
-0.15019424 -0.14592837 -0.082164675 -0.19283992 -0.06649912 -0.1720103 0.20520376 0.2291503
-0.2004344 0.11214856 -0.11795853 0.0246174 -0.058832448 0.17267486 -0.058265388 0.030470401
-0.18237732 0.156905 -0.2243584 -0.2131724 -0.1986471 -0.051135823 0.09670365 0.024444217
0.07966095 0.14285208 -0.03803509 0.15215802 0.20583922 -0.043194875 0.08758828 0.038510032
0.18269782 0.028095596 0.14989881 0.21524176 0.0027511597 0.08644023 -0.2553102 -0.009169688
-0.20261756 -0.19656695 -0.16844134 -0.006199103 0.2024703 -0.15363915 -0.066940725 0.11336168
-0.0404374 0.05986336 -0.12703013 -0.265259 -0.050914537 -0.18848395 0.14680323 0.056935173
0.041358083 0.072803885 -0.051773597 0.0009623109 -0.19756459 0.16872111 0.09664363 0.12960266
-0.07876248 -0.06570849 -0.12113374 0.055216096 0.15632527 0.10960216 0.029172108 -0.1275898
-0.042066813 0.060330164 -0.1416152 0.13688298 0.21854505 -0.20262757 0.06438188 0.0063783387
0.13596861 0.1414053 -0.1802176 -0.12553732 -0.25082302 -0.043195173 0.17678007 0.0028135877
0.08075253 0.078300685 0.13486196 -0.095139876 -0.10698863 0.02427777 -0.17407273 0.09402714
0.06050888 0.22814983 0.18079968 0.08517845 -0.0019904554 0.15615217 0.20696859 -0.07141056
0.14045876 0.040167917 0.10240552 -0.11760485 -0.2632974 0.0037747445 -0.05593391 0.17809407
-0.11886314 0.09074 0.037939582 0.23973213 -0.21444353 0.07001267 -0.22218356 0.24213435
-0.07711843 -0.1309024 0.1326236 -0.12522897 -0.08109282 -0.1662544 -0.1444447 0.19657703
0.109832294 0.0864081 0.13439398 0.143722 -0.20194824 0.027642109 0.050542768 -0.0034180717
-0.11328572 0.042802304 0.054607634 -0.13999017 -0.21138611 -0.20588072 0.23504837 0.21288289
0.25521657 0.06127376 0.22806403 0.012494687 -0.20003463 -0.17748956 -0.06611148 -0.026624957
0.15312496 -0.16039294 -0.019079292 0.11825919 -0.19437902 -0.07929221 -0.10891741 0.110663526
00000000: 1c42 2abe 125e 50be dc21 a5bd ab97 57be
00000010: a07f 60bd 319e fdba 74ba 593d 481c 30be
00000020: 5b0e 633e c600 5fbe 839b afbc 2da7 01be
00000030: a277 4f3e 549b 2cbe 7e7a 173e 9c6f 5dbd
00000040: d2c5 7e3d 19a0 dcbd bb9c 23be b9a9 39bd
00000050: 5eb0 32be b927 68bd 1565 403e 5abb 96bd
00000060: b7eb 833d f31c 7f3d c955 14bd 89a7 cf3d
00000070: 47e5 11bd a4a8 113e 3138 29be 6d59 54be
00000080: 8098 1e3e f4e2 a0bb fdc6 15be 1c50 1d3e
00000090: f79d 81be c2c5 f5bd fb66 39be 73e1 a7bd
000000a0: 4ea1 733e 7241 2ebe 922a 033e c326 103e
000000b0: a9b3 76be b0c3 863e 2787 c5bd 72f6 073e
000000c0: 955f e73c 54f0 263e 0279 703e 27f1 a43e
000000d0: 8ac8 83bc daea 323e 197e 93bd f898 2abd
000000e0: e27e e13c 768f a6bc 3e66 9ebd 981c e4bd
000000f0: 1556 073c 9a85 243d 0e7d 25bd 3a69 003e
00000100: fd9f 4fbe 6c7e 04bd fe9d 03be a942 643d
00000110: 3d96 46be 0a76 a63d f9d7 69be 7405 86bd
00000120: c9b4 2abe b5ae 40be f6b3 2dbe ba53 023e
00000130: 343f 493e ab2f eabd f4f9 05be 227a 4ebe
00000140: 7624 b6bd 2cca bfbd bd1f 363e c806 05bd
00000150: 0ab3 073e 3a75 6ebe 8cc1 b53d 8410 223e
00000160: afcf 453e 293a 523e 0ade 223e c2bd 20be
00000170: ac03 c4bd 999b 1a3e 28fd f53d 2982 803d
00000180: 85cc 19be 3f6e 15be f445 a8bd d477 45be
00000190: b130 88bd 7823 30be ef20 523e 60a6 6a3e
000001a0: ad3e 4dbe 25ae e53d 3e94 f1bd 6eaa c93c
000001b0: 4bfa 70bd aed1 303e b0a7 6ebd 109d f93c
000001c0: 1fc1 3abe b4ab 203e 35be 65be de49 5abe
000001d0: 256a 4bbe cc73 51bd 900c c63d 3d3f c83c
000001e0: 4825 a33d d147 123e afca 1bbd 50cf 1b3e
000001f0: 84c7 523e 1ced 30bd 7c61 b33d b2bc 1d3d
00000200: 2315 3b3e bc28 e63c 137f 193e 5668 5c3e
00000210: cd4c 343b 9307 b13d 05b8 82be 763c 16bc
00000220: fa7a 4fbe d948 49be e37b 2cbe d821 cbbb
00000230: 6054 4f3e 9553 1dbe 3818 89bd 2b2a e83d
00000240: b0a1 25bd 4833 753d 3014 02be 07d0 87be
00000250: c38b 50bd f001 41be 9653 163e db34 693d
00000260: 1867 293d 341a 953d 8d10 54bd 9743 7c3a
00000270: 5f4e 4abe 3ac5 2c3e 18ed c53d 8fb6 043e
00000280: 394e a1bd 2c92 86bd f714 f8bd 462a 623d
00000290: bb13 203e 1977 e03d 58fa ee3c e7a6 02be
000002a0: 404e 2cbd c31c 773d 9303 11be 0d2b 0c3e
000002b0: 46ca 5f3e 9a7d 4fbe a6da 833d 6201 d13b
000002c0: 5b3b 0b3e 8dcc 103e f68a 38be db8c 00be
000002d0: e06b 80be 6ced 30bd d605 353e 2b64 383b
000002e0: 9561 a53d 1c5c a03d 4119 0a3e b2d8 c2bd
000002f0: db1c dbbd 2de2 c63c 1f40 32be 4d91 c03d
00000300: 29d8 773d 1ca0 693e 8d23 393e 0a72 ae3d
00000310: 4d72 02bb 5be6 1f3e 93ef 533e b33f 92bd
00000320: 6cd4 0f3e 1d87 243d fcb9 d13d d0da f0bd
00000330: ebce 86be b461 773b f51a 65bd 4b5e 363e
00000340: 856e f3bd e5d5 b93d 8966 1b3d 577c 753e
00000350: 1697 5bbe cd62 8f3d 1684 63be 11f2 773e
00000360: 44f0 9dbd 470b 06be 7bce 073e 063c 00be
00000370: fe13 a6bd 983e 2abe 50e9 13be 7d4b 493e
00000380: c1ef e03d bbf6 b03d 939e 093e dc2b 133e
00000390: 85cb 4ebe b471 e23c ef05 4f3d ba01 60bb
000003a0: 5802 e8bd 7851 2f3d 41ac 5f3d 9559 0fbe
000003b0: 9a75 58be 65d2 52be 85b0 703e f9fd 593e
000003c0: bfab 823e 32fa 7a3d 9e89 693e 84b6 4c3c
000003d0: e1d5 4cbe d3bf 35be 7565 87bd 951c dabc
000003e0: cacc 1c3e 0c3e 24be 2d4c 9cbc e031 f23d
000003f0: 4b0b 47be f463 a2bd 1710 dfbd 8fa3 e23d

conv.0.bias f4 [128]
0.07207341 -0.14362481 -0.030113336 -0.05521485 0.07840248 0.03693404 -0.060168378 -0.21210432
0.23244183 0.13739832 -0.10019574 -0.19519322 0.056685213 -0.08428793 -0.06510934 -0.1457764
-0.020566158 -0.20523566 0.0036890667 -0.18000895 -0.21908829 0.027824739 0.02696687 -0.0932146
0.14218836 -0.07947942 0.0081203915 -0.028403461 -0.23675267 -0.15197867 -0.18523476 0.22383755
0.08042348 0.12378418 0.20960534 0.051193275 -0.19925505 0.15757854 -0.13770498 -0.1673134
-0.2806933 0.12019843 0.022528568 -0.1152946 -0.08639437 -0.030269148 0.026567273 -0.23745653
-0.2254117 -0.17451197 0.18078998 -0.17921416 -0.07680974 0.10841499 -0.1934868 -0.23696195
0.0051603145 -0.23940642 -0.07642796 0.20894368 0.063114 -0.041503504 -0.07842658 0.02862363
-0.22993639 -0.26587933 0.055004437 0.063938305 -0.08409474 0.08782876 -0.081222884 0.23801589
-0.043315716 -0.11798274 0.16399135 -0.24984965 -0.005559116 0.015695192 0.18413782 0.035014212
0.2200089 -0.19193155 0.06970909 -0.019771367 -0.27883095 -0.026201405 0.20385028 0.027367873
-0.09969068 -0.18148638 -0.24463347 -0.066271 0.15333691 0.11398169 0.085726514 -0.19127125
-0.01878131 0.108668305 0.03991029 -0.19368607 -0.01535695 -0.0059465463 -0.035684578 0.08593726
-0.12399636 -0.25070986 0.1875783 0.12591264 -0.23526785 -0.09666148 0.12353366 -0.21173464
-0.08698693 0.1472 -0.015132881 0.20167167 0.16765581 -0.0653022 -0.28629774 0.20396721
0.08215082 -0.11144538 0.18857084 -0.1056314 -0.005470986 -0.026983628 -0.058828566 -0.033031803
00000000: 399b 933d 6212 13be 3eb0 f6bc f728 62bd
00000010: 7b91 a03d 2648 173d 1e73 76bd e031 59be
00000020: 3b05 6e3e 25b2 0c3e 6d33 cdbd bbe0 47be
00000030: c12e 683d 269f acbd 0c58 85bd 6946 15be
00000040: 5c7a a8bc 4c29 52be 45c4 713b 4454 38be
00000050: ae58 60be b5f0 e33c a0e9 dc3c 4ce7 bebd
00000060: d399 113e 1bc6 a2bd 640b 053c 60ae e8bc
00000070: 4b6f 72be 4ca0 1bbe 2eae 3dbe ac35 653e
00000080: 11b5 a43d 8f82 fd3d c8a2 563e 0ab0 513d
00000090: 8409 4cbe 455c 213e 8902 0dbe 3454 2bbe
000000a0: 08b7 8fbe 982a f63d d58d b83c 931f ecbd
000000b0: 88ef b0bd 01f7 f7bc 9ca3 d93c ce27 73be
000000c0: 53d2 66be 44b3 32be 0221 393e eb83 37be
000000d0: 6d4e 9dbd ae08 de3d 6721 46be 27a6 72be
000000e0: db17 a93b f526 75be 4386 9cbd 55f5 553e
000000f0: ea41 813d 94ff 29bd 1d9e a0bd 1a7c ea3c
00000100: 7274 6bbe 5621 88be 554c 613d 16f2 823d
00000110: dd39 acbd 91df b33d 2f58 a6bd 70ba 733e
00000120: d26b 31bd efa0 f1bd 59ed 273e 96d8 7fbe
00000130: 3f29 b6bb 3493 803c a08e 3c3e 106b 0f3d
00000140: 034a 613e b489 44be a4c3 8e3d 90f7 a1bc
00000150: eec2 8ebe 54a4 d6bc 21be 503e 9732 e03c
00000160: a12a ccbd 91d7 39be 3281 7abe 17b9 87bd
00000170: 5a04 1d3e 3b6f e93d 6291 af3d 9cdc 43be
00000180: 43db 99bc 7d8d de3d f978 233d a455 46be
00000190: b89b 7bbc 3fdb c2bb fe29 12bd e0ff af3d
000001a0: cef1 fdbd 0b5d 80be 8714 403e 3eef 003e
000001b0: 0eea 70be 74f6 c5bd 37ff fc3d f7d0 58be
000001c0: 3426 b2bd 99bb 163e e7ef 77bc 0583 4e3e
000001d0: f7ad 2b3e 29bd 85bd 9e95 92be c8dc 503e
000001e0: b03e a83d 7a3d e4bd b718 413e 4755 d8bd
000001f0: f545 b3bb c50c ddbc 39f6 70bd 5b4c 07bd

conv.2.weight f4 [16, 128, 1, 1]
-0.005564172 0.0071205823 -0.026554931 0.01635339 -0.004936671 -0.0055235913 -0.0015071589 -0.012773287
0.008757917 0.011442102 -0.012749306 -0.0012341487 -2.4396262e-05 -0.02341681 0.004050377 0.014056014
-0.0077964347 0.024109218 -0.02667064 0.023078594 -0.005461836 -0.008453435 -0.004294308 0.00786961
0.0047633774 -0.019258764 -0.000245603 -0.009358975 0.013121985 0.0137712145 0.0104449205 0.016181318
0.007022899 0.0073086526 0.01940077 -0.0012980584 -0.0013201807 -0.0036745716 -0.006977271 -0.0012622596
0.020881243 -0.0037683835 -0.013680706 -0.022411058 -0.011792559 -0.013414871 -0.010897968 -0.007368549
0.008009604 0.018978855 0.010621617 0.0044728555 -0.019556537 0.008893923 0.018175917 0.007976122
-0.005946072 -0.004702339 -0.004989091 0.0026426292 -0.0041599255 -0.013533887 -0.012418642 0.00265868
0.0052902168 -0.005269814 0.011414362 0.0023138407 -0.04450723 0.011241873 0.0107594775 0.015814766
-0.02689653 0.017389094 0.010716354 0.012456635 -0.007190121 -0.0030903604 0.006285169 0.005063194
0.012468616 0.010647177 0.0017101301 -0.014047098 -0.0011499402 -0.020380888 0.009976 0.042497754
0.012569008 0.015291224 -0.00829336 -0.0019812905 0.0052589923 -4.7295907e-05 -0.0023756127 0.009579338
-0.0370714 0.0061928113 0.0020760046 -0.0035422384 -0.007553722 -0.010859915 -0.016309308 -0.009580745
-0.0054617114 -0.013802553 0.011270478 0.01117465 0.027259504 -0.01219024 0.008950181 -0.0018022147
-0.029576454 0.015600429 -0.01701872 0.0067237355 0.006205956 -0.0177315 0.010427554 0.0027537516
-0.014702967 -0.018571362 0.0061157225 -0.008305043 -0.0131796915 -0.01801955 0.011960506 0.016125038
-0.0018517525 0.0024062267 -0.025776926 0.024454815 -0.0026461005 -0.010219146 -0.0009738473 0.0075261598
-0.0026360797 0.013602275 -0.010648667 0.007026681 0.0039914395 -0.01390587 0.0054184236 -0.005288439
-0.0032985786 0.019986032 -0.00899779 0.010944695 0.002139058 -0.007581433 0.008274948 0.009285691
0.0038811073 -0.024478974 -0.008056489 0.025491793 -0.00328283 0.006735293 0.0012927055 0.008781058
0.012640671 -0.005352017 0.017428633 -0.0006219285 0.014259806 -0.005490385 -0.0012607718 -0.0034286687
0.014525862 0.016285857 -0.01289374 -0.02681509 -0.013395932 -0.014030417 -0.007277541 -0.00235643
0.0070860763 0.014997784 -0.0015285386 0.006164177 -0.023554802 -0.0097298715 0.019990683 0.005295233
-3.174375e-05 -0.014469069 -0.006398513 0.0018942761 0.001012957 -0.014085452 -0.014381943 -0.0123355845
-0.034750186 0.0012025893 0.01968466 0.0066034715 0.0019180039 0.013295642 0.006264225 0.024428312
-0.0017856965 0.011267972 0.016611787 0.013005121 -0.0076682847 -0.0048525813 0.0056711477 -0.007200934
0.0004971104 0.016336173 0.0015794187 -0.022380698 -0.0008440223 -0.010710322 0.010719553 0.02488133
0.016969562 0.013312992 -0.0010485369 -0.009883049 0.019410454 -0.0008743625 0.001589007 0.0064702313
-0.04206799 0.003954539 -0.0012917278 -0.007385492 -0.0043125125 -0.006782793 -0.010727986 0.007081648
-0.00790651 -0.015371651 0.0027334732 0.010937555 0.024111325 -0.019457923 0.018560192 0.014996667
-0.008270924 0.008660798 -0.010480393 0.011594533 0.00896637 -0.02897842 -0.004201761 0.0012838036
-0.017753422 -0.018224614 -0.0024055298 -0.0054308143 -0.0128418105 -0.0024409238 -0.0003316264 -0.015650237
00000000: a853 b6bb c653 e93b ba89 d9bc 8bf7 853c
00000010: ccc3 a1bb 3eff b4bb dc8b c5ba 0c47 51bc
00000020: 5e7d 0f3c a777 3b3c 77e2 50bc 29c3 a1ba
00000030: 93a6 ccb7 9cd4 bfbc 06b9 843b 324b 663c
00000040: 3c79 ffbb b280 c53c 637c dabc 520f bd3c
00000050: 33f9 b2bb 4780 0abc 44b7 8cbb 89ef 003c
00000060: 1b16 9c3b 8ec4 9dbc 47c4 80b9 6356 19bc
00000070: 98fd 563c a9a0 613c 2c21 2b3c af8e 843c
00000080: 5920 e63b 6c7d ef3b 5dee 9e3c 9d23 aaba
00000090: ea09 adba 15d1 70bb 97a1 e4bb 6772 a5ba
000000a0: 240f ab3c fcf6 76bb 0a25 60bc 6597 b7bc
000000b0: 9435 41bc 0cca 5bbc 648d 32bc de73 f1bb
000000c0: b73a 033c 8b79 9b3c 4a06 2e3c 0891 923b
000000d0: 0835 a0bc d1b7 113c a9e5 943c 48ae 023c
000000e0: 44d7 c2bb 1416 9abb 877b a3bb f62f 2d3b
000000f0: fc4f 88bb 3dbd 5dbc 8f77 4bbc 403d 2e3b
00000100: 8e59 ad3b 67ae acbb 4e03 3b3c cea3 173b
00000110: 374d 36bd d52f 383c 8548 303c f88d 813c
00000120: 1d56 dcbc 9373 8e3c a593 2f3c ea16 4c3c
00000130: 1b9b ebbb a587 4abb d2f3 cd3b 26e9 a53b
00000140: 2a49 4c3c 7f71 2e3c 7226 e03a cd25 66bc
00000150: 97b9 96ba d2f5 a6bc 6072 233c 2012 2e3d
00000160: 3eee 4d3c 0b88 7a3c dfe0 07bc 8ad8 01bb
00000170: a053 ac3b 985f 46b8 2bb0 1bbb a8f2 1c3c
00000180: 2ed8 17bd 11ed ca3b 940d 083b e624 68bb
00000190: 3685 f7bb c9ed 31bc 199b 85bc 8ff8 1cbc
000001a0: 28f8 b2bb 1a24 62bc d0a7 383c e115 373c
000001b0: 534f df3c 93b9 47bc c8a3 123c 4a38 ecba
000001c0: 524a f2bc f198 7f3c d86a 8bbc c852 dc3b
000001d0: 555b cb3b a741 91bc 55d8 2a3c 4978 343b
000001e0: b7e4 70bc f822 98bc 6666 c83b e011 08bc
000001f0: a2ef 57bc bc9d 93bc 00f6 433c a818 843c
00000200: 81b6 f2ba c9b1 1d3b 222a d3bc 7755 c83c
00000210: 336a 2dbb 346e 27bc c949 7fba 019e f63b
00000220: 14c2 2cbb 14dc 5e3c bf77 2ebc 1340 e63b
00000230: 9fca 823b 72d5 63bc 088d b13b a44a adbb
00000240: f72c 58bb bfb9 a33c 776b 13bc 6151 333c
00000250: 702f 0c3b ab6d f8bb a693 073c 0323 183c
00000260: 2d5a 7e3b 2188 c8bc 5dff 03bc 2ad4 d03c
00000270: bf24 57bb bcb3 dc3b 0070 a93a 6dde 0f3c
00000280: d11a 4f3c f95f afbb 7ec6 8e3c ea08 23ba
00000290: f6a1 693c b0e8 b3bb 7b40 a5ba 84b3 60bb
000002a0: e2fd 6d3c eb69 853c 4440 53bc 52ab dbbc
000002b0: 9c7a 5bbc d6df 65bc 7078 eebb 566e 1abb
000002c0: 5132 e83b 44b9 753c 3f59 c8ba ddfc c93b
000002d0: 00f6 c0bc 0a6a 1fbc 80c3 a33c a283 ad3b
000002e0: 9824 05b8 ad0f 6dbc 9eaa d1bb 5c49 f83a
000002f0: 32c5 843a abc6 66bc 3ea2 6bbc 311b 4abc
00000300: 3656 0ebd 33a0 9d3a b941 a13c ef61 d83b
00000310: 8865 fb3a f7d5 593c 2144 cd3b e21d c83c
00000320: 080e eaba 4d9d 383c 7115 883c 6e13 553c
00000330: 3c46 fbbb 6702 9fbb 09d5 b93b d0f5 ebbb
00000340: 8450 023a 70d3 853c 7f04 cf3a ba57 b7bc
00000350: 6141 5dba 597a 2fbc 10a1 2f3c eed3 cb3c
00000360: c003 8b3c bc1e 5a3c 0f6f 89ba 83ec 21bc
00000370: ac02 9f3c 7935 65ba 3a46 d03a 3c04 d43b
00000380: 7c4f 2cbd 1495 813b 314f a9ba ff01 f2bb
00000390: fa4f 8dbb 3142 debb 6fc4 2fbc 2b0d e83b
000003a0: 4e8a 01bc 61d9 7bbc 1224 333b 6e33 333c
000003b0: 1d85 c53c 3966 9fbc 8b0b 983c 95b4 753c
000003c0: c582 07bc 05e6 0d3c f4b5 2bbc fff6 3d3c
000003d0: aee7 123c 2764 edbc edae 89bb 4d45 a83a
000003e0: a06f 91bc c94b 95bc 18a6 1dbb f9f4 b1bb
000003f0: 7566 52bc e8f7 1fbb 24de adb9 ed34 80bc
