models/blood/28-_combined_ssim_l1_gaussian_identity.pth (torch, 27437 bytes, 3 tensors)

conv.0.weight f4 [128, 32, 1, 1]
00000000: 6ec2 7a3d 13eb 1abe c00b cd3d 12ed 2ebe
00000010: a61e 8b3b 7131 a43d a286 24be ef91 db3d
00000020: df36 333e bf18 243e 39c6 403d fef9 e63d
00000030: 49e5 2bbe 2174 21bd 0b79 b13d f6f9 03bc
00000040: b378 aebb 860c 9abd d16c 8fbb 17d4 a83d
00000050: 82ce cabd 713d afbd 52c7 efbc feac ee3d
00000060: 4f66 083e 8cc2 aebd d1fe 54bd 8f5e 0fbe
00000070: 23cf 8b3d 25e4 9dbd 8e4a 10bc 8c4b ec3d
00000080: 0c9c c8bd 52e4 023e f6f1 58be 96f4 113c
00000090: 95e3 01be 6ad9 0bbe a44d 2c3e 4b4b 123e
000000a0: fec7 d5bb 478b f13c 8625 f83d 5fef 803d
000000b0: 594f 03be 5033 463d 4391 3a3d 8e65 c4bd
000000c0: be30 5bbd 107c 8e3d b7ce d93c cc74 223e
000000d0: 1f80 e6bd dcf0 f6bd de8d e2bd 336f 473e
000000e0: c2f9 dc3d 424d 02be d0bc 0fbe c1fa eb3d
000000f0: 1502 9fbd ad5a 1f3d cfc9 1cbd e073 82bd
00000100: e710 3c3d f917 af3a 598e 39bd f10c 48bc
00000110: d713 28bd 413c 36be d45e 29bd 2fff debd
00000120: 68f1 71bd 892a e6bb d571 a23c b7cc 5ebc
00000130: 30a5 25bb a116 bdbd 9369 233d 8b96 b3bd
00000140: 8bad 58bd ba26 42be d8e6 253e 1d46 73bd
00000150: 73c5 673d 8de0 823c 283b b6bd 89bc 47bc
00000160: 0269 3c3e 183a 14be 95fc 9bbd 886d 6cbc
00000170: 36d1 29be dec0 4bbe f5eb 18bc 634c c7bd
00000180: 2ff7 063e d536 f93d 1055 5fbd 5b02 eb3c
00000190: aae9 31be 53dc 74bd 41ad ffbd a31f 36be
000001a0: 8450 a9bd ded7 3a3d 2baa b4bd b226 223e
000001b0: efc5 f23d 480a 61ba 23c5 b2bc e20b 3bbe
000001c0: 2d7f ad3b 0f2a 28be 4648 e63d ebcf 333d
000001d0: 952a 113e 443c ed3d 7bfb 1abe 1041 1d3e
000001e0: 36b6 1a3e 3e50 1a3e ecc5 883d 8c8f 85bd
000001f0: 1420 53be 0f1d 693d a6d9 4a3d 85d4 0dbe
00000200: adba 41be 72dc d5bd d577 0f3e 677e 2f3d
00000210: f93f cfbc 4ada 353b 8478 39be 5b8f cfbd
00000220: 5c58 eb3d ece1 9bbd de73 b1bd 6b93 f6bd
00000230: f41b 483d 1f8d 263d ec4a f83d c8fb 0bbe
00000240: 84f6 bd3d af3f 15be 5188 1ebe 0a70 eebc
00000250: 6a7c cd3d 9547 653d 31ce d8bb ba3e f9bc
00000260: 86fa b33d 543b 23be a2a1 8d3c ccc3 943d
00000270: a9e5 a43c 1cf7 4ebe 70e6 46bd d9ec ba3d
00000280: 8deb c9bc 72ec ffbd 7e90 fbbd 7d77 19be
00000290: 3529 0f3d 179a 063e 1c8a fabd 2fb0 8cbc
000002a0: b01e 1fba 6480 ef3c 53a2 c13d 281c e7bd
000002b0: 45f9 293c 9cee 3f3d 5e65 ec3d 952d 023d
000002c0: ce67 2cbd d9b5 e73d 6565 2ebe bf50 42bd
000002d0: 3c24 dd3d a76f ca3d 5529 343e 38fd c43d
000002e0: bfc2 e7bd dedc 24be 6330 7e3d 5524 283e
000002f0: 1d24 d6bd c8fd 0d3e c8ad f1bc 5456 e33c
00000300: 9a5a 573d 4aa9 26bc 4414 a0bc f5ac 0a3e
00000310: 3b13 69bd 3d08 2b3d 9812 8fbd 9afb 26bc
00000320: 49e5 29bc e186 b33d 6262 1fbe 5db8 24be
00000330: c161 093e ec20 363e 319e 90bd 6b41 303e
00000340: a45b 80bd 0b16 8f3c da02 bdbd 9728 193e
00000350: 2f59 16bd 4d9d 4e3d 2e5f 583d c747 d63d
00000360: 8b8f d7bd e5a2 543e 2ee2 433d 800d bf3d
00000370: 4222 eb3d a491 02be ace1 4abc 9f56 cdbd
00000380: bec0 1abe 45d5 00be 8359 163d 8da9 343e
00000390: 4cb1 a1bb 196a 1a3d a50f 823d e6ca 993d
000003a0: 1011 073d 459d 203e ac23 40be 57c3 15be
000003b0: 613e 2e3e 79ec 183d e5b6 323e b275 943d
000003c0: e1c8 a8bc cb39 eebd b7b3 c2bc e5f1 243e
000003d0: cf68 473d d174 193e 04fb 77bd f2d7 993d
000003e0: 55a2 e73d a49a 0c3e 3f80 86ba ffff ffba
000003f0: 740f 133d ca11 47bd 5acd 50be 6690 06bc
0.06122058 -0.15128736 0.10012007 -0.17082623 0.004245597 0.08017243 -0.16066983 0.10721194
0.175014 0.16025065 0.04706404 0.11278151 -0.16786684 -0.03941739 0.08665665 -0.008055201
-0.005324447 -0.0752192 -0.0043769856 0.08243578 -0.099026695 -0.08556641 -0.029269848 0.116540894
0.13320278 -0.085332006 -0.052000824 -0.14000915 0.068266176 -0.07709531 -0.008806838 0.11537847
-0.097953886 0.1278241 -0.21186051 0.0089084115 -0.12684472 -0.13657156 0.16826493 0.14286534
-0.006524085 0.029485358 0.12116532 0.062956564 -0.12823237 0.04838878 0.04554869 -0.095896825
-0.05351328 0.06957257 0.026587827 0.15864867 -0.11254906 -0.12057659 -0.11062215 0.19476013
0.10789825 -0.12724784 -0.1403687 0.11522437 -0.07764069 0.038904835 -0.038278397 -0.06369758
0.045914557 0.0013358585 -0.04530177 -0.012210117 -0.041034546 -0.17796423 -0.0413502 -0.10888516
-0.059068114 -0.0070241136 0.01982967 -0.0135986125 -0.0025275461 -0.09232832 0.039895605 -0.08768948
-0.05289988 -0.18960086 0.16201341 -0.059393037 0.056584787 0.015976215 -0.08898002 -0.012190946
0.18399432 -0.14475286 -0.076165356 -0.014430411 -0.16583714 -0.19897792 -0.0093336 -0.097313665
0.1318023 0.121686615 -0.05452448 0.028687647 -0.17374292 -0.05978043 -0.124842174 -0.17785506
-0.0826731 0.045616023 -0.088215195 0.15835074 0.11854159 -0.0008584601 -0.021822518 -0.18266252
0.0052947016 -0.16422294 0.11244254 0.043899458 0.141764 0.115837604 -0.15134995 0.1535685
0.1510857 0.15069672 0.066783756 -0.0652152 -0.20617706 0.056912478 0.049523972 -0.13850601
-0.18918867 -0.10442437 0.14010556 0.042845156 -0.02529906 0.0027748519 -0.1811238 -0.10134765
0.114914626 -0.076114506 -0.08664678 -0.120398365 0.048854783 0.040661927 0.12123665 -0.13670266
0.09275535 -0.14575075 -0.15481688 -0.029106159 0.10033496 0.05597647 -0.006616377 -0.030425418
0.08788018 -0.159406 0.017288987 0.07263908 0.020129042 -0.20211452 -0.048559606 0.09127206
-0.024648452 -0.1249627 -0.12283419 -0.14986987 0.034951407 0.13144718 -0.122333735 -0.017173855
-0.00060699414 0.029236026 0.09454789 -0.11284667 0.010374372 0.046858415 0.11542772 0.03178175
-0.042091183 0.113139816 -0.17030866 -0.047440287 0.10797927 0.09884577 0.17593892 0.0961861
-0.11316442 -0.16099879 0.062057864 0.1642011 -0.10456107 0.13866341 -0.02950181 0.027751125
0.05257664 -0.010172198 -0.019540913 0.1354254 -0.056903105 0.041755904 -0.06985968 -0.010191822
-0.010369607 0.087659605 -0.15564874 -0.16085954 0.13416196 0.17785996 -0.070614226 0.17212455
-0.06267479 0.017466566 -0.092290595 0.1495689 -0.036706146 0.050442982 0.052825145 0.10462909
-0.105254255 0.20765264 0.047823124 0.09328747 0.114811435 -0.1275087 -0.012382906 -0.10026287
-0.15112588 -0.12581356 0.03670646 0.17642803 -0.0049344655 0.03769884 0.0635064 0.07509403
0.032975256 0.15684994 -0.18763608 -0.14625297 0.17015983 0.037334893 0.17452581 0.07249011
-0.020603599 -0.11632117 -0.023767335 0.161079 0.048683938 0.14985968 -0.06054212 0.075118914
0.11310259 0.13730866 -0.0010261609 -0.0019531249 0.03590341 -0.04860095 -0.20390835 -0.008213138

conv.0.bias f4 [128]
00000000: d1ea f03d 3db7 933b 99c8 183d a294 09be
00000010: 6f06 5e3c 11a5 79bd 8d35 0d3c 75f7 ba3d
00000020: 55e3 203d b245 febd 4d52 d83d 61a9 37be
00000030: 134a 2e3e 3b00 e23d f39d 15be 16ff 05be
00000040: 05f9 503d e15a 3f3e e016 1a3e de81 423e
00000050: 9cd1 023e ba38 9bbd ab23 603d a39a 4fbe
00000060: a2dc 18be 5cfb 923d 91bd 88bc a321 30be
00000070: fcf9 00be d19c 033e cc46 0cbe 9fa8 26be
00000080: 9022 49be 7f56 a1bd c39e 3d3e 9dbd bd3d
00000090: 68a4 00be f303 edbd edc3 283e 36e3 72bc
000000a0: 5b34 463c de8d 5abe 3a58 b13d 504a 1a3e
000000b0: 14b1 343d df68 e63d 91ec 9038 c8c2 233d
000000c0: e95d d5bd e923 303e ba4f 42be dece fdbd
000000d0: 3281 6c3d e925 2c3d a544 1bbe 6a05 183d
000000e0: cd1c b03d 0105 ba3d 853d 133e 89f4 093d
000000f0: 4cb0 09be 59f8 18be e2e3 3ebe df29 0dbe
00000100: ccb5 a3bd c159 493e cc4c 1ebe 1fe2 eb3d
00000110: 0c89 34be cffd ad3d d1fe e53d 2684 00bd
00000120: ded0 0c3e eb88 093e d917 cc3c 4d09 c73d
00000130: bc55 0f3d 902d d3bd 1388 1a3e abf8 353e
00000140: 102b fe3d c94b 3ebe cbb7 233e 7050 223e
00000150: 27be 003e ca1f 5bbd a19a a1bd 765d 00be
00000160: 94bc f8bd 937b 093e 7341 24be bab7 363e
00000170: 819a 303e 74cb 86bd 2b7e 15be 3d7e 3b3e
00000180: 27bf 8a3c 3bba 53bd 4c04 2d3e 6f37 713d
00000190: 4a69 e3bd ecd3 01bc 6581 2d3e 75f0 dc3d
000001a0: c560 343e a79c 493d 719e 4c3e fcf7 8e3d
000001b0: a444 6ebd 8a94 343d f552 0abe d29f 04be
000001c0: ea00 1dbe 96d7 383e c32e 123e 3849 133e
000001d0: 2559 eabd c5a4 b03d e7f7 3bbe 1df5 3e3e
000001e0: 92e0 e23d 2946 2dbe 1d15 3ebe f737 0bbd
000001f0: 1be8 0d3c 7b77 29be 6ec6 34bd 975a 52bd
0.11763538 0.0045079277 0.03730068 -0.13435605 0.013551339 -0.060948435 0.0086187245 0.0912923
0.0392793 -0.12415637 0.10562573 -0.17935707 0.17020445 0.110352 -0.14611034 -0.13085589
0.051018734 0.18687011 0.15047789 0.18994853 0.12775272 -0.07579179 0.054721516 -0.20273833
-0.14927915 0.07176849 -0.016691955 -0.17200331 -0.12595361 0.1285279 -0.13698882 -0.16275261
-0.19642091 -0.07877826 0.18517594 0.092646815 -0.12562716 -0.11573019 0.1648099 -0.014824679
0.012097443 -0.2134318 0.08659406 0.1506741 0.044114187 0.11250471 6.910519e-05 0.03998068
-0.104183026 0.17201199 -0.18975726 -0.123929724 0.057740398 0.04202834 -0.15162905 0.03711454
0.08599243 0.09082986 0.14378937 0.033680473 -0.13446158 -0.14938487 -0.18641618 -0.13785504
-0.079936594 0.19663145 -0.15458983 0.115177386 -0.17630404 0.08495676 0.11230243 -0.031376027
0.13751552 0.13431136 0.024913715 0.09718571 0.034993872 -0.10311425 0.1509097 0.1777064
0.12410557 -0.18583597 0.1598808 0.15850997 0.12572537 -0.053497113 -0.07890821 -0.12535653
-0.121453434 0.13426046 -0.16040592 0.17843524 0.17246439 -0.06581774 -0.1459891 0.18309875
0.016936852 -0.051691275 0.1689617 0.058890756 -0.11104067 -0.007924061 0.16943891 0.10788051
0.1761504 0.04922166 0.19982316 0.06980893 -0.05817093 0.04408697 -0.13508208 -0.12951592
-0.1533238 0.1805099 0.1427565 0.143834 -0.11442784 0.08625177 -0.18356286 0.18648191
0.1107799 -0.16921295 -0.18562742 -0.03398892 0.008661295 -0.16549484 -0.04413455 -0.051355924

conv.2.weight f4 [16, 128, 1, 1]
00000000: ad85 1e3c 9357 8c3a 463c eabb e324 adbd
00000010: ff42 b33b 3468 05bc 9096 d43b 0186 1d3d
00000020: 3db3 0dbb 1f07 77bc 6a22 eb3c 31f7 1d3c
00000030: 74c7 ec3c d7de 323d 7ac6 7abc b268 80bb
00000040: 55e7 093c 3eab 6f3d fcc9 c53c 8f6a d33c
00000050: 8c1c 23bc 88f5 84bc bb3e d43b 7f4b 403d
00000060: 5d8f 78bc 1b6a bdbc 07fe acbc a3ac 2dbc
00000070: 936d ea3b d826 3b3d 28dd 91bd ffe5 b53c
00000080: 3334 43bc 60eb 8e3b 83f2 0a3d bc2b 0f3c
00000090: 969f 403b ecbc 03bc acb3 b83c 750b c0bc
000000a0: be69 83bc 17e4 cdbc 76fc 153d b28c db3b
000000b0: 7d3c 473b d74b 193c 1104 02bc 2be4 5f3d
000000c0: e0d4 0a3c 71e6 1a3c 14f4 bcbc a96f 7bbc
000000d0: 76a3 a6bb c350 9cbc 7e24 4d3c 2dc9 873a
000000e0: b697 5e3c 6e26 f83b 87ba a93c 9d09 d63c
000000f0: 60f1 58bc b80e 25bc 0988 5abc 2ed8 76bd
00000100: 39e8 a5bb 2c83 353d 152a 3bbc f631 23bd
00000110: fcb7 78bb f240 0e3d 6bc1 3e3b 8799 a3bc
00000120: 544c b53b 576b 9c3a ed41 8b3c 7f9e c33c
00000130: 9b79 e93c 48b8 84bc db25 1c3d 2992 16bc
00000140: 7471 1e3c 7f80 543c 106d b6bb c3aa a43b
00000150: ea64 f53c f96a 85bc 470e dcbb 37f1 4bbc
00000160: e1da c33c 56e4 043c 7191 06bd 5924 b63c
00000170: f47b 88bc 5af9 23bd 10ec 68bb 6166 093d
00000180: 2342 163d 411a 39bd b587 813c 70f9 1fbc
00000190: 9cbf 79bd 1d2d 2a3c fa33 2e3d 29cd d03c
000001a0: d0d8 ed3c 64ac ef3b 5651 ac3c fb17 393c
000001b0: 0e12 b9bc 3ea7 b2bc b988 9cba e01a 9c3b
000001c0: dbbe 613c 6d55 fa3c 5d8f 08bc f341 c23c
000001d0: 9d36 ecbc 09f3 e4bb 83f5 15ba 9a22 2bbc
000001e0: 3368 2c3c 476c e3bb 3587 ba3b 78e9 b53b
000001f0: bfa7 873a 4014 673d 3a5d d13b d32c 91bb
00000200: 5be8 fc3b b4a8 933c 14d5 8bbc b7fd acbd
00000210: 52fc 893b 05e1 553b c281 cb3a 2b87 073d
00000220: bf3a 913b ee75 88bc 66a0 013d d809 64bc
00000230: c78a 0b3d 7301 ee3c ee77 35bc e9a1 24bc
00000240: 1ffb fe3b 19ed 2c3d b14f d23c be01 d03b
00000250: 8824 5cbc 9ac9 4bbc 6af4 473a f1a6 373d
00000260: 5ca7 8ebc e38d 99bc d3fc 8ebc 8b01 eabc
00000270: 94b7 4b3a 4361 3d3d 3d13 87bd 642e a63c
00000280: aa1f 08ba af28 983b 0b97 c23c d749 073c
00000290: 04f3 173c 0c4e 5d39 2601 d23c 5f4d b6bc
000002a0: 3670 d8bc bcb6 8dbc 785b 063d 70fd 303c
000002b0: fbd9 9a3b ce0e 2e3c c15c 313c 7fee 4e3d
000002c0: d80b f13b 38c6 8d3c 5577 cfbc 30da 28bc
000002d0: 62f9 f8bb cac7 5dbb 7450 e4bc b7c5 7eba
000002e0: 615e a53c bf40 793c 8a28 393c 8597 3f3a
000002f0: 243e a1bc 22d9 06bc 72ec 0cbc cc62 37bd
00000300: d602 83bc c2cd 783d 19ac 5abc 6bc1 90bc
00000310: ffe4 d2bb 1bd4 193d 561d 9b3b 3694 e2bc
00000320: d445 653c 15d5 d1bc 9eda ae3b 5b9e bf3c
00000330: bf30 973c 203b 8abc d5cc 143d 84de b0bc
00000340: 6771 c33c d7bf 383c fd4e 80bb 93cb 2a3c
00000350: 3aea b73c a903 49bc 3058 31bc 8129 9cbc
00000360: dd19 983b 8f37 823b 7c0e 01bd 96b1 ca3c
00000370: 9486 933c 8bb4 1abd a752 b8bb 3cce 3e3d
00000380: 0721 873d 7eec 31bd a440 e03c 08ce 9f3b
00000390: b0ec 0abd fcae 0e3b 80f8 193d d7a3 a73c
000003a0: 798f 113d 7640 b2bb 3fa0 b03b 0671 1c3c
000003b0: 0f50 cabc 6934 8abc 2e47 2dbc 5e4c 4dbb
000003c0: 64f1 ad3a b454 c23c 37f6 0f3b ba2c 993a
000003d0: 308e 68bd 7453 82bc e99f a13a ee4a 92bc
000003e0: 3d26 2e3c e6e1 49bc ef62 553a 5c9a 023c
000003f0: 995a 67bb d07f 623d f9e7 873c 7696 26bc
0.0096754255 0.0010707251 -0.0071482984 -0.08454301 0.005470633 -0.00814252 0.006487675 0.038457874
-0.0021621727 -0.015077381 0.028702933 0.009641455 0.0289037 0.043669548 -0.01530611 -0.0039187307
0.00841697 0.05851292 0.024144165 0.025807647 -0.009955537 -0.01623036 0.0064772046 0.046947
-0.015170899 -0.023121884 -0.021117223 -0.010600242 0.0071541755 0.04569134 -0.0712226 0.022204397
-0.011914301 0.004361555 0.033922683 0.008738454 0.0029391996 -0.008040648 0.022546612 -0.023442963
-0.016041633 -0.025133176 0.03661772 0.006700122 0.0030401044 0.0093564605 -0.00793554 0.054660957
0.008473605 0.009454356 -0.023065604 -0.015346446 -0.005085404 -0.019081479 0.012520907 0.0010359638
0.013585975 0.0075729406 0.020718826 0.02612763 -0.013241142 -0.01007431 -0.013338097 -0.06026476
-0.0050630835 0.04431455 -0.011423607 -0.03984257 -0.003795146 0.034729905 0.0029106985 -0.019970668
0.0055327807 0.0011933845 0.01699921 0.023879288 0.028500369 -0.016201153 0.03812204 -0.009190121
0.009670604 0.012970089 -0.0055672005 0.005025239 0.029955346 -0.01628636 -0.006715569 -0.012447647
0.02390808 0.00811108 -0.032853547 0.022234129 -0.016660668 -0.040032722 -0.0035541095 0.0335449
0.036684167 -0.045191053 0.01581178 -0.00976406 -0.06097375 0.010386732 0.042530037 0.025488453
0.029034048 0.0073142517 0.021034878 0.011297221 -0.022591617 -0.021808263 -0.0011942602 0.004763946
0.013778414 0.030558312 -0.008334962 0.023713088 -0.028834635 -0.00698698 -0.0005720483 -0.010445261
0.01052289 -0.006940398 0.0056923875 0.0055515133 0.0010349675 0.056415796 0.0063892873 -0.0044303923
0.0077181286 0.01802478 -0.017069377 -0.0844683 0.004210987 0.0032635343 0.0015526342 0.03308789
0.004432052 -0.016657796 0.03164711 -0.013918363 0.034067895 0.029053425 -0.011075957 -0.010048368
0.007781401 0.0422183 0.025672765 0.006347864 -0.013436444 -0.012438202 0.0007627668 0.044836942
-0.017413788 -0.018744415 -0.01745454 -0.028565189 0.0007771191 0.046235334 -0.06595466 0.020285793
-0.00051927066 0.0046435217 0.023753664 0.008257351 0.009274248 0.00021105277 0.025635313 -0.02225369
-0.026420694 -0.017299049 0.032802075 0.010802612 0.0047256923 0.010623647 0.010825337 0.050520416
0.007356148 0.017306432 -0.025325457 -0.010305926 -0.007598088 -0.0033841007 -0.027870394 -0.0009718793
0.020186605 0.015213191 0.011301169 0.000730865 -0.019682951 -0.008230479 -0.008601295 -0.044771954
-0.015992563 0.0607431 -0.013346695 -0.017670354 -0.00643599 0.037555795 0.0047337217 -0.027658563
0.013993699 -0.0256143 0.00533612 0.02339094 0.018455861 -0.016873896 0.036328156 -0.021590479
0.023857785 0.011276207 -0.003915666 0.010424512 0.022450555 -0.012268939 -0.010824248 -0.01906276
0.004641755 0.0039739083 -0.031507954 0.024742883 0.018008508 -0.037769835 -0.0056250873 0.0465834
0.06598096 -0.043438427 0.027374573 0.0048768558 -0.03391713 0.002177178 0.037590504 0.020463867
0.035537217 -0.0054398132 0.0053901966 0.009548431 -0.024696378 -0.016870694 -0.010576053 -0.0031326036
0.0013270793 0.02372203 0.0021966824 0.0011686303 -0.056776226 -0.015908934 0.0012330982 -0.017857995
0.010629234 -0.012321925 0.00081400474 0.007971372 -0.0035301803 0.055297673 0.016590105 -0.010167709
