models/blood/28-_hinge_laplacian.pth (torch, 19048 bytes, 3 tensors)

conv.0.weight f4 [128, 16, 1, 1]
0	0xbd9b177f	-0.07572841
1	0x3dc0d736	0.09416048
2	0x3e770f4c	0.24126929
3	0x3e534652	0.20632294
4	0xbe67fa10	-0.22653985
5	0xbe167166	-0.14691696
6	0xbd4d4f82	-0.050124653
7	0xbd8e3d95	-0.069453396
8	0xbe8ea569	-0.27860573
9	0xbe6582f2	-0.22413233
10	0x3bb2a75f	0.005452081
11	0x3e76d428	0.24104369
12	0x3dd3ac0d	0.103355505
13	0xbe270f33	-0.16314392
14	0x3e789153	0.24274187
15	0xbd0102c3	-0.031496774
16	0xbdbb1666	-0.091351315
17	0x3e8147ee	0.2525019
18	0x3e80fe82	0.25194174
19	0x3df7bbc6	0.12096362
20	0x3db37d23	0.08764102
21	0x3e063c3d	0.13108917
22	0xbbbd9e22	-0.005786673
23	0xbe4887d5	-0.19583066
24	0xbdebfff2	-0.11523427
25	0xbda7a7bf	-0.08186292
26	0xbe6a83dd	-0.22901864
27	0xbdf67a22	-0.12035014
28	0xbe28d443	-0.16487221
29	0x3e6e1b23	0.2325254
30	0x3e07dcab	0.13267772
31	0x3df0e1e6	0.11761837
32	0x3e322ee7	0.17400704
33	0xbe671c76	-0.2256945
34	0x3d6de44a	0.05807904
35	0xbe0e06d4	-0.13869792
36	0xbdd69f52	-0.10479607
37	0xba816960	-0.0009873323
38	0xbd26d701	-0.040732387
39	0x3de1a833	0.110184096
40	0xbe5ff90a	-0.21872345
41	0xbba2a64f	-0.004963673
42	0xbd771837	-0.060325827
43	0x3e51cf81	0.20489313
44	0xbe43f95a	-0.19138089
45	0xbd587120	-0.05284226
46	0x3e7ce7b7	0.24697767
47	0xbe26456c	-0.1623742
48	0xbd047277	-0.032335725
49	0x3e881be1	0.2658377
50	0xbcfd5c0f	-0.030927686
51	0xbd024c18	-0.03181085
52	0xbd0a5ac2	-0.03377796
53	0xbddde384	-0.10834411
54	0x3e24e41d	0.16102643
55	0x3cb41ef9	0.021987425
56	0x3e3d4dac	0.1848666
57	0xbe103e37	-0.14086233
58	0x3e1c3e23	0.15258078
59	0x3e055115	0.13019212
60	0xbe1fac78	-0.15593135
61	0xbe24bb10	-0.16086984
62	0x3e6d0fac	0.2315051
63	0x3e2785d9	0.16359653
64	0x3e56eaeb	0.20988052
65	0xbe57be82	-0.21068767
66	0xbe4c2420	-0.19935656
67	0x3e15b9ee	0.14621708
68	0x3d8d089a	0.06886406
69	0x3d8281b2	0.06372394
70	0x3e23e80a	0.16006485
71	0x3b5b49b8	0.0033460688
72	0xbd92e184	-0.0717192
73	0xbd9c8bb1	-0.076438315
74	0xbe09832f	-0.13428949
75	0xbd1fe2fd	-0.039034832
76	0xbd109cba	-0.035305716
77	0xbc56eddc	-0.0131182335
78	0xbe222705	-0.15835197
79	0x3d097001	0.03355408
80	0x3e37230e	0.17884466
81	0x3e45736c	0.19282311
82	0xbe48b14b	-0.19598882
83	0x3e83ae91	0.2571912
84	0xbe31246b	-0.17299049
85	0x3dcd158c	0.10013875
86	0x3bef3507	0.0073000225
87	0x3d6ccbe5	0.057811636
88	0xbd203cfa	-0.03912065
89	0x3e010468	0.12599337
90	0x3da9fa61	0.08299709
91	0xbd550710	-0.05200869
92	0xbd364b2f	-0.044505294
93	0x3e542026	0.20715389
94	0x3e09c63b	0.13454525
95	0x3e10628b	0.14100091
96	0xbdbcdd29	-0.092218705
97	0xbe151999	-0.14560546
98	0x3e6a849c	0.22902149
99	0xbdda2028	-0.106506646
100	0x3d2271ec	0.039659426
101	0x3c87e6e9	0.016589599
102	0x3e04b34b	0.1295902
103	0x3e434d1c	0.19072384
104	0xbbde492c	-0.006783625
105	0x3d04719b	0.032334905
106	0xbd175c99	-0.036953542
107	0xbdacc8a6	-0.08436708
108	0xbe52a0e4	-0.20569187
109	0x3de1a266	0.11017303
110	0xbe1e575a	-0.1546301
111	0x3d718aa0	0.058970094
112	0xbdffb701	-0.12486077
113	0xbe5d8d04	-0.21635824
114	0x3e17e2b7	0.14832579
115	0x3e001b3f	0.12510394
116	0xbe08e5d3	-0.13368921
117	0xbde495bb	-0.11161371
118	0xb90ce8f3	-0.00013438221
119	0xbd7270d7	-0.059189644
120	0xbdf9cd35	-0.12197343
121	0x3b9f6965	0.004864859
122	0xbdb50c8f	-0.08840286
123	0x3d987e1f	0.07445931
124	0xbdaa5b3d	-0.083181836
125	0xbdd6aad0	-0.10481799
126	0xbe68a680	-0.22719765
127	0xbe5419c4	-0.20712954
128	0xbdd04b78	-0.101706445
129	0xbe09167b	-0.13387482
130	0xbe2edb94	-0.1707595
131	0xbd4f07cb	-0.05054454
132	0xbbafa993	-0.005360791
133	0x3e867586	0.26261538
134	0x3ccf0d6d	0.025274957
135	0x3d932d5b	0.07186385
136	0xbe7498fe	-0.23886487
137	0xbe200f7b	-0.15630905
138	0xbe5a21b5	-0.2130192
139	0x3d7482ee	0.059695177
140	0xbe6413fc	-0.22273248
141	0xbd2e304c	-0.04252653
142	0x3d273526	0.04082217
143	0x3d8af17c	0.06784341
144	0xbe10b1bf	-0.14130305
145	0xbe839dd8	-0.25706363
146	0x3be50941	0.0069896285
147	0x3e0c4b3c	0.13700575
148	0x3d83a176	0.064272806
149	0x3e873078	0.26404166
150	0x3e831935	0.2560517
151	0xbe9b1607	-0.30290243
152	0x3dfa5951	0.12224067
153	0xbe47bbcd	-0.19505234
154	0x3d53ebc2	0.051738508
155	0x3e80ed16	0.25180882
156	0x3dce6732	0.10078277
157	0x3c65992b	0.014013569
158	0xbd9dcde2	-0.07705285
159	0xbd9f7c9c	-0.07787439
160	0xbda6c9d9	-0.08143968
161	0xbe64b51b	-0.22334711
162	0x3e37d2ca	0.17951503
163	0x3de28268	0.11060029
164	0x3e2fe20c	0.17176074
165	0x3e1e6b36	0.15470585
166	0x3e25fcfa	0.16209784
167	0xbe65d3fa	-0.22444144
168	0x3e5a4d6a	0.21318594
169	0xbe48a03d	-0.19592376
170	0x3d75b777	0.05998942
171	0x3e76bf9a	0.24096528
172	0x3cff1373	0.031137204
173	0x3df601a9	0.120120354
174	0xbe18a589	-0.14906897
175	0xbe0b4b53	-0.13602953
176	0xbe342740	-0.17593098
177	0xbe3a857c	-0.18214983
178	0xbe95b86f	-0.29242274
179	0xbe30e0f6	-0.17273316
180	0xbd2a0058	-0.041504234
181	0xbe079861	-0.13241722
182	0x3e7dd373	0.24787693
183	0x3c9d4f18	0.019202754
184	0xbb007ea4	-0.0019606734
185	0x3d2be28e	0.041964106
186	0xbe47083e	-0.19436738
187	0x3e7de2d4	0.2479356
188	0xbde9a0c6	-0.11407618
189	0x3e312bb3	0.17301826
190	0x3d88d08c	0.06680402
191	0x3e89fa43	0.26948747
192	0xbb114e10	-0.0022171773
193	0x3ddc071d	0.10743544
194	0x3d4bd6b6	0.04976531
195	0xbe15d1b8	-0.14630783
196	0xbe258e90	-0.16167665
197	0xbe731b15	-0.237408
198	0xbe853672	-0.260181
199	0xbda20a93	-0.07912173
200	0xbe4ad455	-0.1980756
201	0xbda291e8	-0.07937986
202	0x3ceb6fb8	0.028739795
203	0x3e0322b1	0.12806202
204	0xbca6d0dc	-0.020363264
205	0x3e283238	0.16425407
206	0xbde78c2c	-0.113060325
207	0x3e44f041	0.19232275
208	0xbce55cb7	-0.027998311
209	0x3e0d010e	0.13769934
210	0x3e26b577	0.16280161
211	0xbe6f1314	-0.23347121
212	0x3dcdc618	0.10047549
213	0x3d1eb34d	0.038745213
214	0x3cc02597	0.023455424
215	0xbd61985b	-0.055076938
216	0x3e20f2ab	0.1571757
217	0xbe58c7de	-0.21169993
218	0x3e796f56	0.24358878
219	0xbe3f8580	-0.1870327
220	0xbe3d95ef	-0.18514226
221	0xbe4622ac	-0.19349164
222	0xbe0d89da	-0.13822117
223	0xbe74e59c	-0.23915714
224	0xbdaf1c5f	-0.08550333
225	0xbe652161	-0.22376014
226	0xbdb4eab2	-0.08833827
227	0x3d884595	0.06653897
228	0xbaa93b63	-0.0012911375
229	0xbcb14e86	-0.021643888
230	0xbe331424	-0.17488152
231	0x3e00bd30	0.1257217
232	0xbd4ee79b	-0.050513845
233	0x3dc83bdf	0.097770445
234	0x3e6cf8e0	0.23141813
235	0xbd07eb03	-0.03318311
236	0xbd42b1f6	-0.047532998
237	0xbe1a79fa	-0.15085593
238	0x3e726991	0.23673083
239	0xbe44d239	-0.19220819
240	0x3e7c646c	0.24647683
241	0x3e362807	0.17788707
242	0x3cff31b3	0.031151628
243	0x3da0f162	0.0785854
244	0x3c447901	0.01199174
245	0x3e1ffeda	0.15624562
246	0xbb3de844	-0.0028977552
247	0x3d833f84	0.06408599
248	0xbe0d6682	-0.13808635
249	0x3ccadebb	0.02476441
250	0x3d4567fe	0.048194878
251	0x3e02d995	0.12778313
252	0x3d8cde04	0.068782836
253	0xbd167724	-0.036734715
254	0xbda0d4ac	-0.07853064
255	0xbe586f2c	-0.21136159

conv.0.bias f4 [128]
0	0xbe36d67c	-0.17855257
1	0x3d5aa1a0	0.053376794
2	0x3e09d120	0.13458681
3	0xbe5e8abf	-0.21732615
4	0x3d0c7269	0.034288798
5	0xbe643dc2	-0.22289184
6	0xbdfe434c	-0.124151796
7	0x3e198b8f	0.14994644
8	0xbdb6c714	-0.0892469
9	0xbca8c6fa	-0.020602692
10	0x3d127ac4	0.03576161
11	0xbdccfe05	-0.10009388
12	0x3d78373d	0.060599554
13	0xbdd20407	-0.102546744
14	0x3d814817	0.06312578
15	0x3e476ed4	0.19475871
16	0xbd367ddc	-0.044553623
17	0x3e56e961	0.20987464
18	0x3d6773a6	0.056506775
19	0xbdfe4985	-0.124163665
20	0xbdc6ec3e	-0.09713028
21	0xbdf0c0c0	-0.11755514
22	0x3e3a4baf	0.18192933
23	0x3dce1c4c	0.10063991
24	0xbd8fc030	-0.07019079
25	0x3d9877fa	0.07444759
26	0xbe75c6f4	-0.24001676
27	0xbc61a68d	-0.013772619
28	0x3d9efe89	0.077633925
29	0x3c06c770	0.008226261
30	0xbd50ea70	-0.051004827
31	0x3e3ddb3a	0.1854066
32	0xbb9e43d2	-0.004829862
33	0x3d040a9c	0.03223668
34	0xbdf1e94d	-0.11812077
35	0x3ddf0e61	0.108914144
36	0x3e16cdb5	0.14726909
37	0xbd86b6ad	-0.065778114
38	0xbe55222a	-0.20813814
39	0xbd2fbbf2	-0.042903848
40	0x3e0cf155	0.13763936
41	0x3e3007ee	0.17190525
42	0x3e135c58	0.14390695
43	0xbe6c7dcf	-0.23094867
44	0xbb79323e	-0.0038024331
45	0xbe76b6f1	-0.24093224
46	0x3e219291	0.15778567
47	0x3e3e9dae	0.18614838
48	0x3c9221c1	0.01783836
49	0xbe3c1f88	-0.18371403
50	0xbe26b371	-0.16279389
51	0x3de35ec7	0.11102062
52	0xbd4bff1a	-0.04980383
53	0x3dc5d9fa	0.09660716
54	0xbd55f635	-0.052236754
55	0xbe0c6422	-0.13710073
56	0x3db6b81a	0.08921833
57	0xbe3385ce	-0.17531511
58	0xbde74964	-0.11293295
59	0xbe63b385	-0.2223645
60	0x3e285642	0.16439155
61	0xbc3042e3	-0.010758135
62	0xbddd722e	-0.10812794
63	0xbc5b62c9	-0.013390251
64	0x3d916201	0.07098771
65	0xbc54923b	-0.012974317
66	0x3d83264e	0.064037904
67	0x3e1418ef	0.14462636
68	0xbd6a975e	-0.05727326
69	0x3d3c1953	0.04592259
70	0x3d1a060f	0.037603434
71	0xbcac7b5e	-0.02105492
72	0x3e2f7ab2	0.17136648
73	0xbddaefce	-0.1069027
74	0xbe004ff2	-0.12530497
75	0xbe76d3a8	-0.24104178
76	0x3e1df81e	0.1542668
77	0xbcd8d928	-0.026470736
78	0xbe80be79	-0.2514532
79	0x3e4732a1	0.19452907
80	0xbe5ca269	-0.2154633
81	0x3e38b9cc	0.18039626
82	0x38eea283	0.000113789945
83	0x3ddb74f0	0.107156634
84	0x3e391e2a	0.18077913
85	0xbe0d9d7b	-0.13829605
86	0x3d914d10	0.07094777
87	0xbd981e09	-0.07427604
88	0x3dd2b1a7	0.10287791
89	0x3e22a11b	0.1588177
90	0xbcc773d1	-0.024347218
91	0x3dd276a8	0.10276538
92	0xbe200ecd	-0.15630646
93	0x3e6ab226	0.2291952
94	0xbe5ba28d	-0.21448727
95	0x3e69f86f	0.22848676
96	0x3e1ba42b	0.15199344
97	0x3e54756c	0.20747918
98	0xbdd7503d	-0.10513351
99	0x3d4d0db4	0.050061896
100	0xbd347a69	-0.044062052
101	0x3d8e51b6	0.06949179
102	0x3baaf81a	0.0052175643
103	0xbe896e25	-0.26841846
104	0xbd8ae26c	-0.06781468
105	0x3dc8b831	0.09800757
106	0xbdf5656c	-0.11982235
107	0xbd896db4	-0.06710377
108	0xbdcbba36	-0.09947626
109	0x3d9f7fff	0.07788085
110	0x3e2d8674	0.16945821
111	0x3d84319f	0.06454777
112	0xbe0200a5	-0.12695558
113	0xbe5db9bd	-0.21652885
114	0xbe20595a	-0.15659085
115	0x3e620bed	0.22074862
116	0xbca18bcf	-0.019719986
117	0xbe77700a	-0.24163833
118	0xbe890012	-0.26757866
119	0x3ba98899	0.0051737544
120	0x3c1de96a	0.00963817
121	0x3e5f4937	0.21805273
122	0x3caa5a20	0.020794928
123	0xbdee092b	-0.116228424
124	0x3e071845	0.13192852
125	0xbda106e0	-0.078626394
126	0xbda1f920	-0.07908845
127	0x3e5b0155	0.21387227

conv.2.weight f4 [16, 128, 1, 1]
0	0xbbc4cda4	-0.0060059596
1	0xbc2743ab	-0.010209004
2	0x3c3b8d91	0.011447326
3	0x3911358f	0.0001384823
4	0x3c14392b	0.009046833
5	0x3cc1f893	0.0236781
6	0xbc636feb	-0.013881664
7	0x3af08de3	0.0018352832
8	0xbcff05a6	-0.031130623
9	0xbcb41cf4	-0.021986462
10	0xbbf70d8f	-0.007539458
11	0xbc89f7ea	-0.016841847
12	0x3b87ff49	0.0041503054
13	0xbb84eb42	-0.004056365
14	0x3ab129ec	0.0013516522
15	0x3c06b3ab	0.008221547
16	0xbc915074	-0.017738558
17	0x3c3ca669	0.011514285
18	0x3aa88146	0.0012855909
19	0xbc555319	-0.0130203
20	0x3b8d4693	0.0043113916
21	0xbabca36b	-0.0014391964
22	0x3b25a51f	0.0025275422
23	0x3c05708a	0.008144507
24	0xbcd81b2a	-0.02638014
25	0x3c0dac02	0.008646967
26	0x3bafdb8f	0.0053667496
27	0xbcdda4c3	-0.027056104
28	0x3b675485	0.003529818
29	0xbbcb0c88	-0.006196562
30	0xbc653e40	-0.013991892
31	0x3c8deea3	0.017325705
32	0xbcee1aee	-0.029065575
33	0x3c26a346	0.010170763
34	0x3ae5df52	0.0017537868
35	0xbb6908c1	-0.0035558196
36	0xbb853504	-0.004065158
37	0xbc16dfe0	-0.009208649
38	0x3c48e17e	0.012260793
39	0xbbcce6a6	-0.0062530814
40	0x3ab42b70	0.0013745856
41	0x3bc08a20	0.005875841
42	0x3b2441bf	0.0025063602
43	0x3ca58a44	0.020207532
44	0x3c0d13fa	0.00861072
45	0x3a7080d1	0.00091744686
46	0x3b7d0e43	0.0038613237
47	0x3c45a283	0.012062672
48	0xbc798f03	-0.015231851
49	0x3b7db617	0.003871327
50	0xba934707	-0.0011236378
51	0x3a8c96ef	0.0010726134
52	0x3c05e96f	0.008173331
53	0x3c3e5a28	0.011618175
54	0xbab16b08	-0.0013535926
55	0xbcde5d31	-0.027144047
56	0x3c66a46d	0.014077288
57	0x3b6667be	0.003515705
58	0xbb5a36a0	-0.003329672
59	0x3c8d8a1a	0.017277766
60	0x3bba1920	0.0056792647
61	0xbb0e02b9	-0.0021669103
62	0x3b8c78da	0.0042868676
63	0xbcadff2b	-0.021239838
64	0xbaaf75e8	-0.0013386579
65	0xbcce70d7	-0.02520029
66	0xbb6b8649	-0.0035938194
67	0x3bbd31a8	0.0057737418
68	0xbc15582b	-0.009115259
69	0x3bf5f593	0.0075060814
70	0xbb467e8d	-0.0030287832
71	0xbd3caf0f	-0.046065386
72	0xbb5212db	-0.0032054696
73	0xbc483ae7	-0.012221075
74	0x3c1d6bbb	0.0096082045
75	0x3cb02959	0.021504091
76	0x3bc9b7aa	0.0061559277
77	0xbc3730ed	-0.011181098
78	0x3c2035ba	0.009778434
79	0x3c27fb4b	0.010252784
80	0xbc12ac8d	-0.008952272
81	0x3b360088	0.0027771313
82	0xbce5ea6b	-0.02806588
83	0x3c395eb4	0.011314083
84	0x3bad839b	0.0052952296
85	0xbade0f34	-0.0016941787
86	0x3c953275	0.018212536
87	0xbce9a0a2	-0.028518979
88	0x3a997dff	0.0011710523
89	0x3c412f71	0.011791096
90	0xbbe56a0c	-0.007001167
91	0x3b99119c	0.0046712887
92	0x3c378c02	0.011202814
93	0x3cc31e6c	0.023818217
94	0x3c37c9e0	0.011217564
95	0x3beaba32	0.0071633095
96	0x3bde6447	0.0067868563
97	0x3bc66e0b	0.0060555986
98	0xbcad562d	-0.021159256
99	0x3c961fe3	0.018325752
100	0xbd334c35	-0.04377385
101	0x3c0455ce	0.008077098
102	0x3c77a5f6	0.015115252
103	0x3c5ae0e4	0.013359282
104	0xbba1c72d	-0.0049370737
105	0x3b22905a	0.0024805279
106	0xbcbb07e7	-0.022830917
107	0x3b044f8f	0.0020189022
108	0x3b64180f	0.003480438
109	0x3aa898fc	0.0012862976
110	0x3b92efcc	0.0044841524
111	0xbb2bae1f	-0.0026196314
112	0xbb9f76ee	-0.0048664724
113	0xbc8e0fb8	-0.01734148
114	0xba8c76bc	-0.0010716538
115	0x3af25d35	0.0018490913
116	0xbc53ef4b	-0.01293547
117	0x3b72248d	0.0036948055
118	0x3b4963e0	0.0030729696
119	0x3c9b812d	0.018982494
120	0xbb7b99eb	-0.0038391303
121	0x3c238580	0.009980559
122	0x3c1b43c9	0.00947661
123	0xbbcd5de0	-0.0062672943
124	0x3b35b73c	0.0027727624
125	0xbb9fc2fa	-0.004875538
126	0xbc396d27	-0.011317528
127	0x3bd9a4a7	0.0066419425
128	0xbb8adb32	-0.004237556
129	0x3c090f21	0.008365423
130	0x39d65254	0.000408786
131	0x3cacb8c6	0.0210842
132	0xba08fcb2	-0.0005225643
133	0x3c319224	0.010838065
134	0xbc956e84	-0.018241175
135	0x3b5ed293	0.0034000024
136	0xbcd9316f	-0.02651283
137	0xbd153572	-0.036427923
138	0xbc158e34	-0.009128142
139	0xbcb67d8a	-0.022276659
140	0x3c1d6ade	0.009607999
141	0x3b09084c	0.0020909486
142	0xbb4b0135	-0.0030976061
143	0x3c472bba	0.012156421
144	0xbc305614	-0.01076271
145	0x3c6a7999	0.014311218
146	0x3bba1e2d	0.0056798668
147	0xbc90b00c	-0.01766207
148	0xbc8d584d	-0.01725402
149	0xbc611a88	-0.013739236
150	0x3a8d0a52	0.0010760522
151	0x3c1f3b25	0.009718691
152	0xbcc56205	-0.02409459
153	0x3bc71a12	0.006076106
154	0xbc921571	-0.01783249
155	0xbc92e61b	-0.017931988
156	0x3b58882e	0.0033040154
157	0x3ab06df7	0.0013460506
158	0x3b042d01	0.0020168426
159	0x3c4138c9	0.011793324
160	0xbc96cab3	-0.018407201
161	0x3c9f6905	0.019459257
162	0x3c882503	0.016619211
163	0xba5c46fb	-0.0008402911
164	0x3c2b5dc3	0.010459366
165	0xbba9bf45	-0.005180272
166	0x3c9e2a04	0.019307144
167	0x3b2f0791	0.002670739
168	0x3c896e19	0.016776131
169	0x3ba0e7c8	0.004910443
170	0x3c2eadf6	0.010661593
171	0x3c99415f	0.01870793
172	0x3c332350	0.010933712
173	0x3bba71dd	0.005689843
174	0x3b625462	0.003453516
175	0x3c441f71	0.011970387
176	0xbcf2fcb8	-0.029661521
177	0xbb24f1dd	-0.0025168576
178	0xbb982a58	-0.0046437196
179	0x3c04fc34	0.008116771
180	0x3b64c7c9	0.003490912
181	0xbb6f79e9	-0.003654117
182	0xbaec81b7	-0.0018044029
183	0xbc95cb99	-0.01828556
184	0x3b995609	0.0046794456
185	0xbba20e9e	-0.00494559
186	0xbb0ef2de	-0.002181224
187	0x3a3caf6b	0.000719777
188	0x3baaceb2	0.0052126283
189	0xbc2146d6	-0.009843549
190	0x3c876103	0.016525751
191	0xbc93f751	-0.018062266
192	0xba8e6a08	-0.001086534
193	0xbcae24d7	-0.021257801
194	0xbbfb0afb	-0.007661221
195	0xbbcb8f68	-0.0062121637
196	0xbcbcabe5	-0.023031184
197	0xbb6a5b37	-0.0035759935
198	0xbbf78fe7	-0.0075549963
199	0xbc744fba	-0.014911586
200	0xbba3d927	-0.005000252
201	0xbbb3dbb7	-0.0054888385
202	0x3bbc7c4a	0.005752121
203	0x3ca78ed9	0.020453857
204	0xbb75f5d5	-0.003753056
205	0xbb5117b0	-0.0031904988
206	0x3cec9669	0.028880315
207	0x3c3a39cd	0.01136632
208	0x3c23746d	0.009976489
209	0x3c46b5a9	0.012128272
210	0xbc42856f	-0.011872633
211	0x3b1338f0	0.0022464357
212	0x3ab41f23	0.001374219
213	0x3b8803bd	0.0041508363
214	0x3c59cdb4	0.013293672
215	0xbccd51e6	-0.025063466
216	0x3aa9fd6a	0.00129692
217	0x3ba4b604	0.0050265808
218	0xbbec8884	-0.0072184224
219	0x3c1b2ba1	0.009470851
220	0x3be3104d	0.0069294334
221	0x3c377010	0.011196151
222	0x3c62cc16	0.013842603
223	0x3bf47390	0.007460065
224	0x3c057945	0.008146589
225	0x3be10ac4	0.0068677384
226	0xbc89541c	-0.01676374
227	0x3c4d4ec6	0.012530988
228	0xbca81cee	-0.020521607
229	0x3a9b7b35	0.001186228
230	0x3c0a6521	0.008446963
231	0x3a0992f7	0.0005248035
232	0xbbc49803	-0.0059995665
233	0x3c398e45	0.011325424
234	0xbbb1709d	-0.005415036
235	0x3aee3752	0.0018174446
236	0xbcaabf5a	-0.020843197
237	0x3b84565c	0.004038615
238	0x3bbe1de5	0.0058019035
239	0xbbad6d5a	-0.0052925767
240	0xbc67c3a8	-0.014145769
241	0xbcb88c1b	-0.022527745
242	0xbc09073d	-0.008363542
243	0x3b23a1b5	0.002496821
244	0xbcae6ee5	-0.021293113
245	0xbc07ef57	-0.008296809
246	0x399ad843	0.00029534296
247	0x3bf339bb	0.0074226535
248	0xbc0dc3f4	-0.008652676
249	0x3b211939	0.0024581684
250	0x3c618809	0.013765343
251	0xbb310e88	-0.0027016718
252	0xbb704e75	-0.0036667858
253	0xbbfb4171	-0.0076677133
254	0xbb760f02	-0.0037545566
255	0x3b7232ee	0.0036956626
