models/blood/28-_mse_gaussian_identity.pth (torch, 27346 bytes, 3 tensors)

conv.0.weight f4 [128, 32, 1, 1]
000000 a2 0b fd bd 8b 1e d1 3d 2d cc 2d 3e d2 3b ea 3c
       -0.123557344 0.10210904 0.16972418 0.028592978
000010 51 9b 18 be 0a f7 af bd 31 9c 70 3d 9f d6 c1 bd
       -0.14902999 -0.08592041 0.058742706 -0.09464764
000020 fe 4c 1c bd 17 93 d7 bd 4d 76 97 3c b9 68 32 be
       -0.038159363 -0.10526102 0.018489027 -0.17422761
000030 c3 01 97 3d 1a bc 91 3d 88 4b 04 be 47 1f c2 3d
       0.07373383 0.07115956 -0.12919438 0.09478622
000040 8a 92 9d 3c 03 fe a8 38 83 5d a2 bd c3 50 ee 3d
       0.019234914 8.0581776e-05 -0.07927992 0.11636498
000050 6a 4a 16 3e b1 9d 25 3d 7a 0e 14 3e 75 f5 3f 3d
       0.14676824 0.04043359 0.14458647 0.046864945
000060 d1 ab 14 be 4e a9 b7 3d 06 2f b0 bd 83 da 3f bd
       -0.14518668 0.08967839 -0.08602719 -0.04683925
000070 90 3b 9f bd 7b ea fa 3c 77 21 f1 bd 9d 61 2b 3e
       -0.077750325 0.030629387 -0.11773961 0.16736455
000080 13 c5 1d be 27 35 c1 bc be dc 70 3c 1c 3f cf 3c
       -0.15407209 -0.023584915 0.014701067 0.025298648
000090 1c 13 c5 3d 2a 98 07 3e e1 89 cf bd b4 a8 e8 bb
       0.096227854 0.1324164 -0.1013372 -0.007100189
0000a0 be c5 2e 3e 05 57 c4 bd 43 ba be bc cb 3a 01 be
       0.1706762 -0.0958691 -0.023282176 -0.12620084
0000b0 12 00 02 be d0 b5 36 3e 3b 6d 72 3d 15 06 25 3c
       -0.1269534 0.17842793 0.0591862 0.010072251
0000c0 b6 6c 91 bd 25 16 a0 3d d1 03 b7 3b 68 83 4d bc
       -0.07100813 0.07816724 0.0055851717 -0.012543537
0000d0 b0 2a 13 be 92 89 e0 bc 1c 14 8e 3d 97 2c 74 bd
       -0.14371753 -0.027409349 0.06937429 -0.059612837
0000e0 e6 5f a5 3d 58 3c a4 bc ee cc 07 bc c3 f9 83 3d
       0.08074932 -0.020048305 -0.008288605 0.06444123
0000f0 21 6d af bb 3c 54 35 bd 5c 2d 10 3e 8a dd dd 39
       -0.0053535854 -0.044269785 0.14079803 0.00042317464
000100 22 0b f3 bd 49 15 ae bd 0a 7d ed 3d f1 18 71 bd
       -0.11867358 -0.085001536 0.11596115 -0.058861677
000110 1e a3 2f be a4 77 00 be ca 9e 85 3b 79 b8 5a 3d
       -0.17152068 -0.1254564 0.004077767 0.053398583
000120 b3 a4 43 bd 09 f6 1b 3e 5a 3b 57 3d 3e f9 16 bd
       -0.04776449 0.15230574 0.052546836 -0.03685879
000130 28 f9 08 bd 29 15 15 be 75 14 78 bd 9c d9 1f be
       -0.03344074 -0.14558853 -0.060566384 -0.15610355
000140 b1 1c aa 3d d5 eb e5 3d ef bc 68 bd 2e 14 d5 bd
       0.08306254 0.11226622 -0.056820806 -0.104042396
000150 d6 a5 c6 3d cb 88 09 3e 55 23 b8 3d 40 18 18 3e
       0.096995994 0.13431089 0.08991114 0.14853
000160 43 54 0f 3e 97 6a 6f bd e3 5e a6 bd 9b 09 1b 3e
       0.13996987 -0.05845126 -0.08123567 0.15140383
000170 c7 4e 8d 3c fa 95 32 3d 58 1b 69 bd 7a ce aa 3d
       0.017249478 0.04360006 -0.056910843 0.083401635
000180 bd e5 dc bd cb 78 04 be c6 ce b4 3d 30 4d 27 be
       -0.107860066 -0.12936704 0.088285014 -0.16338038
000190 cf 69 9f 3d e2 9e 92 3d 1a 63 39 be e5 f9 be 3d
       0.07783853 0.07159211 -0.1810421 0.09325007
0001a0 d4 3d 04 3e 75 30 fb 3d 18 db ad 3d 52 43 48 3d
       0.1291421 0.12265102 0.084890544 0.048892327
0001b0 de 94 0b be 79 d2 1a be 0b 72 cb bc ef 15 1b be
       -0.13631007 -0.15119351 -0.024834653 -0.15145086
0001c0 69 f8 a2 3b 06 39 23 3e 32 80 79 bd 6e 61 1c bd
       0.0049734605 0.15939721 -0.060913272 -0.038178854
0001d0 56 26 67 3d ad c1 03 3e 2e e2 9a bc e4 f8 aa 3d
       0.056433044 0.1286685 -0.018906679 0.08348253
0001e0 04 b3 c0 bd 5b dc 2c 3e 0c 58 2a 3e d1 5b a1 3c
       -0.094091445 0.16880934 0.1663515 0.019697102
0001f0 74 fc 97 bd d3 12 b6 bd f5 45 82 bd a3 e1 8e 3d
       -0.074211985 -0.08890309 -0.063609995 0.069766305
000200 a5 a4 ed 3d 49 64 66 bd 7f 7a 0a 3e 2f 92 00 be
       0.11603669 -0.056247983 0.13523291 -0.12555765
000210 39 57 ee bd de cc ce bd e1 6f 32 be 1d 50 18 3e
       -0.1163773 -0.10097669 -0.17425491 0.14874311
000220 f2 1e 65 bd c3 93 1f 3e 1c 03 d8 bd 95 4a 24 3e
       -0.055937715 0.1558371 -0.10547468 0.16044076
000230 1b 6a 25 3e 9c 63 f6 bd e8 03 2a bd 1b 82 bf bd
       0.16153757 -0.12030718 -0.04150763 -0.093509875
000240 b2 c1 34 be 73 dd 37 be d2 3c c2 bd f3 53 26 3e
       -0.17652014 -0.1795557 -0.09484257 0.16242962
000250 67 42 f2 bd fc 86 20 be d9 be 1d 3e 3d a6 9f 3d
       -0.118290715 -0.15676492 0.15404834 0.07795379
000260 67 ca d7 bb 41 8b b8 3d 86 f7 66 3d 13 19 2d 3e
       -0.0065854075 0.090109356 0.0563884 0.16904096
000270 77 11 be 3c 3f dc 65 bd 6e e1 01 bd 93 63 c6 3d
       0.023201687 -0.056118246 -0.031709127 0.09686961
000280 4d df 08 3d b1 b3 09 3e 46 17 2e bd 67 50 f6 3d
       0.03341608 0.13447453 -0.042502664 0.12027054
000290 ce 64 c4 3d cc bc 95 bd 39 9c 13 3c f3 1a 22 be
       0.095895395 -0.07311401 0.009009414 -0.15830593
0002a0 8c 1e 3f 3a e8 f7 ee 3d f5 51 26 be 45 57 4a be
       0.00072906236 0.11668378 -0.16242202 -0.19759853
0002b0 21 f4 eb bc 88 48 59 3c 57 98 79 3c 0b 37 f5 bd
       -0.028802933 0.013261922 0.015234075 -0.11973389
0002c0 e0 a5 d5 bd f1 19 63 bc 97 03 f4 bc 70 f1 02 bd
       -0.10432029 -0.013861165 -0.029786868 -0.031968534
0002d0 b4 c4 07 be 99 80 43 be 65 98 9c bd 9e 3b ea bd
       -0.1325863 -0.19092025 -0.076462545 -0.11437152
0002e0 60 c7 2a 3e f5 7f 85 bd 23 43 b5 3c 56 d4 ad 3d
       0.16677618 -0.065185465 0.02212674 0.084877655
0002f0 c2 62 ef 3d 77 9d 6e bd ad d6 be 3d 62 81 ac 3d
       0.116887584 -0.05825564 0.0931829 0.08423115
000300 bb aa 19 be a1 7b 01 be f7 37 36 3e 64 0f bd 3d
       -0.15006535 -0.12644817 0.17794786 0.09231451
000310 3b 87 1d 3e 19 23 de 3d 52 07 05 3d 2e 45 9e 3d
       0.15383618 0.10846538 0.032477684 0.07728039
000320 be ef 41 bb 6d 6f f2 bd db 1d 46 bd 66 5d 07 be
       -0.002959236 -0.11837659 -0.048368316 -0.13219222
000330 59 ce 25 be 26 df 5a 3b 83 32 a0 3d 13 91 40 3d
       -0.16191997 0.0033397167 0.07822134 0.047013354
000340 27 03 89 3c 1d 71 18 3e 3d b8 0d be 08 c3 40 bd
       0.016725136 0.148869 -0.13839813 -0.047060996
000350 80 ca 77 bc 2d c9 04 3b 08 8d 7f 3d 3a 1b fc bb
       -0.015123963 0.0020261512 0.062390357 -0.0076936753
000360 05 d4 b8 3d 8f ef 99 bd 91 cc 19 be 98 ae 65 3d
       0.090248145 -0.07516395 -0.15019442 0.05607471
000370 53 6e 06 be 0e 25 1e bd 38 6b 16 be 9c 86 87 bd
       -0.13128023 -0.038609557 -0.14689338 -0.066174716
000380 f1 32 e7 3d c0 66 10 3e f1 0d 64 bd b5 d2 83 bd
       0.11289013 0.14101696 -0.055677358 -0.064366736
000390 f7 26 e8 bd 7d 10 b8 bd cc 00 11 3c 10 45 00 3e
       -0.11335557 -0.0898752 0.008850288 0.12526345
0003a0 2a a4 92 3c 07 6c 22 bd f6 62 60 3c e3 a1 2b be
       0.017900545 -0.039653804 0.013695469 -0.16760974
0003b0 2b 3d b1 bd d0 ae ae 3b 93 43 17 3c 6b de 8d bc
       -0.08654245 0.005330898 0.00923242 -0.017317971
0003c0 73 e4 40 3d 09 9e d6 3c 99 c9 1b bd bb d6 83 bd
       0.047092866 0.026198404 -0.038034055 -0.06437441
0003d0 5a dd 00 3e 87 83 c2 3c 78 99 b3 bd 0b 8e eb 3d
       0.12584439 0.023744358 -0.08769506 0.11501702
0003e0 e2 17 6d 3b 58 95 53 bd c4 7f 13 be 24 fc 66 bd
       0.0036177565 -0.051656097 -0.14404207 -0.056392804
0003f0 4c f3 d5 bd 65 9d 2c be 20 09 47 be 21 cd 83 bd
       -0.10446796 -0.16856916 -0.19437075 -0.064356096

conv.0.bias f4 [128]
000000 58 11 ad 3d fb 07 5d 3e ea 0a 22 3e 3e 36 b3 bc
       0.08450574 0.21585076 0.15824476 -0.02187645
000010 7a 4a a8 bd 5f b3 12 3e 2b 13 6c bd 17 83 17 3e
       -0.0821733 0.14326237 -0.057635467 0.147961
000020 1a 82 79 bd 5e 58 08 be c6 03 aa 3d 56 d7 12 3e
       -0.06091509 -0.1331496 0.08301501 0.14339957
000030 fc 00 e9 bd d7 e8 e3 bd 54 99 d1 3d 8f 64 33 be
       -0.11377141 -0.11128395 0.10234323 -0.17518829
000040 8f 08 7f 3d bc b5 83 bd 16 17 10 bd 53 40 1e 3c
       0.06226402 -0.064311475 -0.035178266 0.009658891
000050 8e 73 54 be 31 18 9c 3d 2f 00 a6 bd 14 12 39 3e
       -0.20747206 0.07621802 -0.08105504 0.18073303
000060 f2 9e 5f bd 79 b2 1f be b6 c4 25 be 65 bb ac bd
       -0.05459494 -0.15595426 -0.1618832 -0.0843418
000070 5b 8a 51 bd fe 54 6b bd 49 b3 1c bd 84 bf 35 3e
       -0.051157337 -0.0574541 -0.038256917 0.17748839
000080 a5 54 04 be 57 2b 0b be d1 21 c5 bd 66 d6 05 bd
       -0.12922914 -0.13590752 -0.096255906 -0.03267517
000090 8d d5 b0 3d 0f f2 11 be 4f fa 15 3e b3 3a 98 3a
       0.086344816 -0.14252494 0.14646266 0.0011614173
0000a0 82 ef 3a be ff 6f 26 be b3 b9 30 3e 9d d0 1b bd
       -0.18255427 -0.1625366 0.17258339 -0.038040746
0000b0 73 7a e8 bd 98 8a 2a bc 1e 34 64 bd 58 1b cb bd
       -0.1135148 -0.01040902 -0.055713765 -0.09917325
0000c0 22 9c f8 bd fe 6a 9f bd b3 74 a0 3b fa e1 c2 bd
       -0.12139155 -0.07784079 0.004896724 -0.09515758
0000d0 a2 ab 52 3e 0a 45 d7 bd 27 ab 0d be 42 39 17 3e
       0.20573285 -0.10511215 -0.1383482 0.14767936
0000e0 6e 77 3c bd 59 d8 0c 3e 7a 5a d3 bd 32 8c 8e bd
       -0.046012335 0.13754405 -0.103199914 -0.06960334
0000f0 67 c1 73 bd 5f 59 04 3e dc 71 cf 3d 16 f3 06 3e
       -0.059510615 0.12924717 0.10129139 0.13178667
000100 26 46 68 3d db 7f e2 3d f8 29 80 3d a3 86 cd bc
       0.056707524 0.11059543 0.06258005 -0.025088614
000110 a7 cb 8a 3d 09 c5 04 3e 54 7a ed bd 10 0c 0b 3e
       0.06777125 0.12965788 -0.11595598 0.1357882
000120 ec bf a2 bc 5d 7c c1 bd f3 f7 fc bd 8a 2d 0a be
       -0.019866906 -0.094475485 -0.1235198 -0.13493934
000130 5e fc be bd 47 04 e3 3d 16 97 55 3e e5 dd 9a bd
       -0.09325479 0.110848 0.20858416 -0.07561854
000140 d8 f7 b7 bd 4d 5f ef 3d a8 6a 07 be 50 16 21 be
       -0.08982819 0.11688099 -0.1322428 -0.15731168
000150 26 d9 ee 3d 4f ed 22 be 45 b7 0a 3e e3 e1 f9 3d
       0.116625115 -0.15910839 0.13546474 0.122012876
000160 0c 19 be 3d 0e e0 23 be 3a 0b 22 bd e0 16 54 bd
       0.09282121 -0.16003439 -0.039561488 -0.051779628
000170 5d c6 4a 3d b4 2b 17 bd 4b ae 09 be 6c 24 03 bd
       0.04950558 -0.036906913 -0.13445394 -0.032017156
000180 40 5b af bd 49 70 08 3e 90 d4 1e 3e 93 e0 de bd
       -0.085623264 0.13324083 0.15510774 -0.10882678
000190 73 bd 25 bd 44 8c 96 3d 10 b6 10 3e 9e 8f 97 bd
       -0.040463876 0.07350972 0.14131951 -0.0740044
0001a0 fd b3 48 3d 69 50 16 be 17 7e 88 3d 6c 32 28 be
       0.048999775 -0.14679112 0.06664675 -0.16425484
0001b0 bd ec 52 3e 65 c7 06 3e 83 3c ac bd c8 72 5e 3d
       0.20598121 0.13162 -0.08409979 0.054308683
0001c0 e8 91 f7 bd 12 18 d8 bd f3 69 b9 3d 21 72 d3 bd
       -0.12088376 -0.10551466 0.09053411 -0.10324503
0001d0 86 30 11 3e ae 2c 13 3e 12 eb 13 be 84 c2 14 bd
       0.14178666 0.14372513 -0.14445141 -0.036318317
0001e0 30 05 15 bd 01 f5 ff 3c b0 b7 ff bd 9e 5f f6 3d
       -0.0363819 0.031244757 -0.124862075 0.12029956
0001f0 39 3c 2f 3b 47 18 02 be 98 de 0d be c0 04 24 be
       0.0026738776 -0.12704574 -0.13854444 -0.16017437

conv.2.weight f4 [16, 128, 1, 1]
000000 92 f5 cd 3c b3 86 fe 3c 4f db cd 3c cb fe 2f 3b
       0.025141511 0.031070089 0.025128989 0.002685475
000010 67 3f 0b bc 43 d5 9e 3c 2b 30 19 3c c1 5e 80 3a
       -0.008499003 0.0193888 0.009349863 0.0009793864
000020 b4 42 e2 bb 7a a5 8a 3b c5 34 5c 3d 0c 6f 4e 3c
       -0.0069049243 0.004231152 0.053761262 0.012599718
000030 c8 97 00 3c a1 61 b5 bb 30 5c f3 3b 26 77 c4 bc
       0.0078486875 -0.00553532 0.007426761 -0.023982596
000040 25 12 03 3d df e1 66 bc 63 b7 36 bc d7 99 99 bb
       0.031999726 -0.014091938 -0.011152121 -0.0046875286
000050 cf 9d 68 bc 00 42 bc 3c 70 11 f5 bb 6d 45 83 3c
       -0.014197781 0.02298069 -0.0074788854 0.016024316
000060 6d 99 a7 bb e6 81 96 3b 97 7e e0 ba 4a 04 36 bc
       -0.0051147253 0.004593122 -0.001712757 -0.011109421
000070 94 9d d2 bc e7 91 14 b9 f1 cd 17 bb 50 50 e7 3c
       -0.025709905 -0.00014168733 -0.0023163522 0.028236538
000080 09 e5 66 bb b3 d8 10 bc 55 83 6d bc 5a c8 e0 bb
       -0.003523173 -0.008840728 -0.014496644 -0.0068598213
000090 b0 52 96 3b 37 cd 36 bc 3f 1c 02 3c 0c 1b 92 3a
       0.004587494 -0.0111573255 0.007941305 0.0011146977
0000a0 db 76 ef bb 52 b5 7c bb 27 53 cd 3c be b8 a6 bb
       -0.00730787 -0.0038560224 0.025064064 -0.005087941
0000b0 e9 78 26 bc 5f d6 9d bc 08 b4 0b bc 1f 8a 9f bc
       -0.010160663 -0.01926726 -0.0085268095 -0.019475041
0000c0 23 86 23 bd fb 28 fa bb a0 13 69 ba 0d c5 bc bb
       -0.039922845 -0.00763428 -0.0008891169 -0.005760795
0000d0 f6 ab 5b 3c 7d c0 41 bc bf c1 33 bc 3c bb 8a 3c
       0.013407698 -0.011825678 -0.010971486 0.016934983
0000e0 a2 20 fc ba bb a3 e2 3c 37 ab 29 bc 76 6f 3d bc
       -0.00192358 0.027665963 -0.010355762 -0.011562219
0000f0 50 b5 da 3a 25 97 63 3c 26 ba ef 3c 79 28 89 3c
       0.0016686115 0.013891016 0.029263567 0.016742932
000100 f9 6f 70 ba 87 b2 2c 3b fc 58 a7 ba 39 2d 03 bc
       -0.00091719587 0.0026351528 -0.0012767608 -0.008006387
000110 a4 02 b2 3b 63 3e 84 3c b0 9d 5f bb e2 e9 12 3c
       0.0054324437 0.01614303 -0.0034121089 0.008966895
000120 4e 66 a1 bc c5 87 26 bc 21 b9 a8 bc 00 6d 5a ba
       -0.019702103 -0.010164206 -0.020596089 -0.00083322823
000130 25 79 53 bc b6 f2 b5 3c 4a f0 e7 3c 33 ab 30 bc
       -0.012907301 0.02221046 0.028312821 -0.010783005
000140 c4 11 48 bc 5d a3 bc 3b da df 22 bc 73 68 31 bc
       -0.012211267 0.005756779 -0.009941066 -0.010828125
000150 75 cb b5 3b da d4 dc 3a 8e d4 a4 3c e7 6b fc 3b
       0.0055479356 0.0016848103 0.020120885 0.0077032926
000160 fa 2a 8b 3c 9b 8a f9 bb 0f 26 4b 3b d9 dc 10 bc
       0.016988266 -0.0076154 0.0030998026 -0.008841717
000170 e5 5e 17 3a c7 9c 38 3c bb ca 89 3c 32 6b 23 bb
       0.0005774333 0.011267847 0.016820302 -0.002493572
000180 82 b3 d9 b7 cb f7 48 3c de 66 02 bc a5 77 ae bb
       -2.5952006e-05 0.01226611 -0.007959096 -0.0053243213
000190 1a a0 30 3a cd 57 b3 3b d9 71 9c 3c a3 7e e2 bb
       0.0006737724 0.005473113 0.019097256 -0.006912069
0001a0 ae 96 1e 3b c7 5c 11 bc 1c 08 d6 3b ea 11 da bb
       0.0024198699 -0.0088722175 0.0065317284 -0.0066549676
0001b0 1a 49 1d 3d fa 5c a5 3b c5 25 72 bc 24 39 94 3b
       0.038399793 0.005046484 -0.014779513 0.0045234133
0001c0 e1 87 30 bb 7c 6d e6 3a c0 a9 86 3b b0 25 a8 bb
       -0.002693646 0.0017580236 0.0041095912 -0.005131446
0001d0 2f fe a8 3c 2b 50 ed 3b d9 34 49 bb af 15 ee b9
       0.020629017 0.007242223 -0.0030701666 -0.00045411053
0001e0 15 76 11 3b 03 db 31 bb 43 21 c3 bb 0d 05 3e 3c
       0.0022195627 -0.0027138598 -0.005954893 0.011597884
0001f0 eb 12 d1 b8 a2 12 5d 3c 09 80 f3 bb ad 8e 31 37
       -9.96942e-05 0.013493212 -0.0074310345 1.0583241e-05
000200 8e 5e 07 3c 3c 49 a4 3c d4 5a d1 3b aa 5e d0 ba
       0.00826229 0.020054452 0.0063890014 -0.0015897353
000210 4b 73 ef 39 55 1e 9f 3c ac c8 b2 bc b3 bd 19 3c
       0.00045671532 0.019423643 -0.021824203 0.009383607
000220 39 28 20 bb fb 07 fd bb c0 c3 99 3d 9e 61 9b 3b
       -0.0024438037 -0.0077218986 0.075080395 0.0047418615
000230 f9 10 18 bb de 34 09 3c cb ab 91 3b 0f e7 a8 bc
       -0.0023203476 0.008374421 0.004445528 -0.02061799
000240 c0 df 01 3d 59 e1 5a bc c8 4c 36 bc 7c cd 54 bc
       0.031707525 -0.013359391 -0.0111267045 -0.012988444
000250 cf 07 f4 bc da 20 89 3c d5 24 07 3a e0 c8 65 3b
       -0.02978888 0.016739298 0.00051553297 0.0035062358
000260 e9 77 36 3a e7 9b ad bb 11 bf 2d bc da a3 08 bc
       0.0006960617 -0.005298126 -0.010604636 -0.0083398465
000270 27 9b 90 bc a5 8c 97 3b 4a e6 66 bc 61 8e c9 3c
       -0.017652107 0.0046249204 -0.014092991 0.024604024
000280 f9 04 6b 3b ce 5b 37 bc 2b 8f 43 bc 3e 92 a3 3b
       0.0035861118 -0.011191322 -0.011935989 0.0049917987
000290 11 2c aa 3c e6 8d 3c ba 3b 5d 50 3b d1 1e 62 bc
       0.020772966 -0.00071927754 0.003179385 -0.0138012925
0002a0 a4 89 4a bc dd c8 5c bb a0 3b ec 3c 53 e5 a6 bb
       -0.012361918 -0.003368906 0.028837025 -0.0050932555
0002b0 bf 36 52 bb 04 67 3b bc d5 09 a8 bc eb f1 90 bc
       -0.0032076088 -0.011438135 -0.0205125 -0.01769348
0002c0 ce 27 5c bd f9 c4 91 3b 1b 94 0d 3c c9 07 e1 3a
       -0.0537489 0.00444853 0.008641268 0.0017168458
0002d0 ee 28 5f 3c 37 74 af 39 8d e7 cc bb 24 bc fe 3c
       0.013620598 0.00033465188 -0.006253189 0.031095572
0002e0 09 05 c7 3b de ee 68 3c 8f d5 ac bc 94 87 a3 3a
       0.0060735983 0.014217107 -0.021097926 0.0012476319
0002f0 fe 3f 1d bc e2 b4 8b 3c 7f ee 77 3c ab 84 bb 3c
       -0.009597776 0.017054025 0.0151325455 0.02289041
000300 45 b5 4f 3c ad 55 0a 3c 17 13 e7 3b bc 78 b0 bb
       0.012677495 0.008443278 0.0070518362 -0.0053854864
000310 d2 85 84 3c df c8 97 3c 51 01 bc bb 7d f3 2c 3c
       0.016177092 0.0185284 -0.0057374616 0.010556099
000320 c2 e2 98 3b 3e db 5c 3a c9 a0 10 bd d9 2d 95 bc
       0.0046657035 0.00084250036 -0.035309587 -0.018210338
000330 ef 08 7e bb 0d ba 92 39 d3 2c 8c 3c 10 eb bd bb
       -0.003876265 0.0002798591 0.017111218 -0.005795844
000340 26 55 f0 bb e9 cd 42 3c b4 2f 4c bc eb d4 51 bc
       -0.0073343692 0.011889913 -0.012462545 -0.012807111
000350 eb bb 21 3c b6 b2 56 bc 91 7f 8f 3c f1 d5 ea 3b
       0.009871463 -0.013104131 0.017516883 0.007166617
000360 bf ab 7f 3c f1 61 23 bc 6a 45 3e 3c e6 3c 80 bc
       0.015604912 -0.0099720815 0.011613229 -0.015654039
000370 71 ff da 3b b0 cf e7 3b e5 f1 39 3c 84 43 f6 bb
       0.006683283 0.007074319 0.011349176 -0.0075153727
000380 e3 d3 46 bb ab 3c 23 3c 80 e5 ad ba 87 dc 22 3b
       -0.0030338697 0.009963195 -0.0013267249 0.0024850683
000390 c4 57 30 3b e5 51 38 ba 0f e0 72 3c 78 21 32 3a
       0.002690778 -0.0007031246 0.014823928 0.00067951484
0003a0 04 4f 09 3c 7c f5 14 bb 9c 2f e9 3b 66 e2 05 3b
       0.008380655 -0.0022729328 0.007116271 0.0020429133
0003b0 81 55 08 3d 2f 00 9d 3b 21 c1 49 bc 95 36 47 ba
       0.033284668 0.0047912817 -0.012314112 -0.0007599381
0003c0 23 0b 18 3c cf 26 ef bb 72 43 29 3c 3f 6d a5 3b
       0.009279999 -0.0072983275 0.010331022 0.0050484235
0003d0 35 92 d0 3b 14 0b 37 3c a9 64 26 bc 44 c5 29 3c
       0.0063650855 0.011172075 -0.010155835 0.010361973
0003e0 f5 33 38 bc d2 bc 72 3b 19 9c 9c bb ad 84 a6 3c
       -0.011242856 0.0037038815 -0.0047793505 0.020326937
0003f0 bc 7f 55 3a 20 80 58 3c 1d 86 0e bb 17 78 c0 bb
       0.0008144339 0.013214141 -0.0021747418 -0.005873691
