models/blood/28-_combined_ssim_l1_sobel_identity.pth (torch, 18968 bytes, 3 tensors)

conv.0.weight f4 [64, 48, 1, 1]
0	0xbe1250f1	-0.14288689
1	0x3d6569ec	0.056009218
2	0xbec5a66d	-0.38603535
3	0xbdb19cf6	-0.08672516
4	0x3dd51ecb	0.10406264
5	0xbeb179bd	-0.3466319
6	0xbcce6cb4	-0.025198318
7	0xbd6f6d39	-0.058453772
8	0xbdde41c4	-0.108523875
9	0xbcf7cdb1	-0.030249448
10	0xbda10c82	-0.07863714
11	0xbe8bd248	-0.2730887
12	0xbb00088a	-0.001953634
13	0xbd83ec71	-0.06441582
14	0xbdcba08f	-0.099427335
15	0x3d245b80	0.040126324
16	0xbde23942	-0.11046077
17	0x3d0b7f4d	0.03405695
18	0xbe216a3c	-0.15763181
19	0xbe491f1b	-0.19640772
20	0x3dd9ace7	0.10628682
21	0x3d5a4215	0.053285677
22	0xbe2ab263	-0.16669612
23	0x3ca37f72	0.019958232
24	0xbce23b68	-0.027616218
25	0xbd8b970f	-0.068159215
26	0xbe2c86b5	-0.16848262
27	0xbd101bd7	-0.0351828
28	0x3c7ce0d3	0.015434462
29	0xbdbe4672	-0.0929078
30	0x3e02d72a	0.12777391
31	0x3d721643	0.05910326
32	0xbe06e366	-0.13172683
33	0xbda5a16a	-0.08087428
34	0xbe7bdef3	-0.24596767
35	0xbee6dc35	-0.4508988
36	0x3d2f3686	0.042776607
37	0x3e0cb2d7	0.13740097
38	0x3d3473b8	0.04405567
39	0xbdfd308d	-0.12362776
40	0x3e48e7af	0.1961963
41	0x3d77c754	0.06049283
42	0xbde7cbe9	-0.1131819
43	0x3dc75191	0.097323544
44	0x3dc72bc6	0.09725146
45	0xbdc84f02	-0.097806945
46	0x3e1b66da	0.15175954
47	0xbc850b09	-0.016240614
48	0xbcc8a0ae	-0.02449068
49	0x3e2cdcf3	0.1688116
50	0x3e4aadc9	0.19792856
51	0x3d860131	0.06543196
52	0x3e43933a	0.19099131
53	0x3e055c6c	0.13023537
54	0xbd62277f	-0.055213448
55	0x3e4edbca	0.2020103
56	0x3dbb2676	0.09138195
57	0xbd1209ae	-0.035653763
58	0x3e99ec12	0.3006292
59	0x3e8068cb	0.2507995
60	0x3ddf40d0	0.10901034
61	0xbe78df2b	-0.24303882
62	0x3c59bfc8	0.013290353
63	0x3da6f81e	0.08152793
64	0x3ad17a78	0.0015981933
65	0xbdff2318	-0.124578655
66	0x3d454109	0.048157725
67	0x3da16760	0.07881045
68	0xbd4e067a	-0.050299145
69	0xbd5b465c	-0.053533897
70	0xbd9a20c6	-0.07525782
71	0x3e3eafd5	0.18621762
72	0xbd7fdd8b	-0.06246714
73	0x3e561a44	0.20908457
74	0xbd9a185b	-0.07524177
75	0x3da40233	0.08008232
76	0x3d542517	0.051793184
77	0xbde55db2	-0.111995116
78	0xbcdb95ff	-0.026804922
79	0xbd9014c5	-0.070352115
80	0xbd34cad7	-0.044138756
81	0xbdbe7408	-0.09299475
82	0x3d73f9ec	0.059564516
83	0x3da8cc96	0.08242147
84	0xbdca14cb	-0.09867247
85	0xbe295a4b	-0.1653835
86	0xbe2af050	-0.16693234
87	0xbd9eafa1	-0.07748342
88	0xbe8fbb9d	-0.28072825
89	0x3e42abb6	0.19010815
90	0x3cbe4f86	0.02323128
91	0xbdb4db07	-0.08830839
92	0x3d373e6b	0.04473726
93	0x3d0434e8	0.032277018
94	0x3dc59728	0.096479714
95	0xbd8128d3	-0.06306615
96	0xbdacc2ec	-0.08435616
97	0xbd7da07b	-0.061920624
98	0x3cad4c36	0.021154504
99	0xbd8656dd	-0.065595366
100	0xbd6c69c3	-0.05771805
101	0xbd0ff07c	-0.035141453
102	0x3de3e19b	0.11127015
103	0x3dbe3752	0.09287895
104	0xbe1e2bdb	-0.15446417
105	0x3e47ee2c	0.19524449
106	0x3e1d967c	0.15389436
107	0xbe72923d	-0.23688598
108	0xbddc3945	-0.10753111
109	0x3af3e76b	0.0018608397
110	0xbdc3e533	-0.09565201
111	0xbdbb7b64	-0.09154394
112	0xbc8c71dc	-0.017144136
113	0x3b91a9d2	0.004445293
114	0x3c88512c	0.016640268
115	0xbd2f8902	-0.04285527
116	0x3dc0b91b	0.09410306
117	0xbe258337	-0.16163336
118	0x3ce604aa	0.028078396
119	0xbde72195	-0.11285702
120	0xbd7f70a0	-0.062363267
121	0x3d49c64f	0.049261387
122	0xbe4fdc40	-0.20298862
123	0x3e086f79	0.13323773
124	0x3c55c7fe	0.01304817
125	0xbd92f9a6	-0.07176523
126	0xbc8c26fa	-0.01710843
127	0xbcf848b7	-0.03030811
128	0xbb3aa31f	-0.0028478575
129	0xbdbdda9a	-0.092702106
130	0x3e73d27d	0.23810764
131	0xbe3fc489	-0.18727316
132	0xbcb0fe40	-0.02160561
133	0xbd29ae0d	-0.041425753
134	0x3d525f11	0.051360194
135	0x3da9d23b	0.082920514
136	0x3d63cd36	0.055615626
137	0xbd49c774	-0.04926248
138	0x3d5811fe	0.052751534
139	0xbc44e4fc	-0.012017485
140	0x3c70ff98	0.014709376
141	0x3d9b756f	0.07590758
142	0x3d20a8e8	0.03922358
143	0xbcfaf29c	-0.030633263
144	0xbd2eb107	-0.042649295
145	0x3cd19d6a	0.025587756
146	0x3d0114fa	0.031514145
147	0x3d52c31d	0.051455606
148	0x3ce722d3	0.028214848
149	0x3dce4fda	0.10073824
150	0xbb8b191e	-0.0042449376
151	0xbcee97ad	-0.029125059
152	0xbde8d135	-0.11368028
153	0x3d7f2a34	0.062296107
154	0x3be3486f	0.006936125
155	0x3c96c9a5	0.018406698
156	0xbcf2396f	-0.029568402
157	0xbe603943	-0.21896844
158	0x3d454294	0.048159197
159	0xbcfbecda	-0.030752588
160	0xbdc4c529	-0.09607918
161	0x3de266b9	0.11054749
162	0xbd80cef2	-0.06289472
163	0x3d1f6472	0.03891415
164	0x3e171f2e	0.14757988
165	0xbdc6aefa	-0.09701343
166	0x3de1edb3	0.11031666
167	0x3d89ffc1	0.06738234
168	0x3d90ecd7	0.070764236
169	0xbe49cb10	-0.19706368
170	0xbeb6388f	-0.35590026
171	0x3dbfc6f9	0.09364123
172	0x3d6a77ce	0.05724316
173	0x3e8d6814	0.27618468
174	0xbe08cb41	-0.13358785
175	0x3da70c36	0.08156626
176	0xbe8e9eb7	-0.27855465
177	0xbc3d376e	-0.01154886
178	0x3c3aff8b	0.011413465
179	0xbe3f7366	-0.18696365
180	0x3b071e64	0.002061748
181	0xbd6f901d	-0.058487047
182	0x3e2f180c	0.17099017
183	0xbcf3d7d5	-0.029766003
184	0xbe2a34e1	-0.16621734
185	0x3e783fe6	0.24243125
186	0x3d7dd2c6	0.061968587
187	0xbd794216	-0.06085404
188	0x3de5b37d	0.11215875
189	0xbdfb6491	-0.12275041
190	0xbe2eb494	-0.17061073
191	0x3e4e8787	0.20168887
192	0xbd6cc24d	-0.057802487
193	0x3cb261e8	0.021775201
194	0xbd78e7da	-0.060767986
195	0xbc8a1c91	-0.016859325
196	0xbdeb395f	-0.11485552
197	0x3dc34beb	0.095359646
198	0xbd3d214e	-0.04617434
199	0xbc7f9e09	-0.015601643
200	0xbd516172	-0.05111832
201	0xbdaa4c3b	-0.08315321
202	0xbdfcc03b	-0.123413526
203	0x3ba78bf3	0.005113119
204	0xbd82ac5d	-0.06380532
205	0x3d095e15	0.03353699
206	0xbdbc27c4	-0.09187272
207	0xbde4ea3f	-0.111774914
208	0x3d60819b	0.0548111
209	0xbcedd518	-0.029032275
210	0xbd861f91	-0.065489896
211	0xbd94cadd	-0.072652556
212	0xbd809093	-0.06277575
213	0x3d891bbd	0.06694744
214	0x3c7350c1	0.014850796
215	0x3d453cf2	0.048153825
216	0x3d865ee2	0.06561066
217	0xbdac793a	-0.0842156
218	0xbd1c5118	-0.038163275
219	0xbe49b786	-0.19698915
220	0x3c2e391f	0.010633736
221	0xbdbdfc38	-0.092766225
222	0x3dc49f5a	0.096007064
223	0xbd36d46a	-0.044636168
224	0x3ca558e2	0.020183984
225	0xbda520da	-0.080629066
226	0xbd86cc14	-0.065818936
227	0x3cee09f4	0.02905748
228	0x3d8cd218	0.0687601
229	0xbd1a2a76	-0.03763815
230	0x3c28f803	0.010313037
231	0x3d8461f3	0.06463995
232	0x3c9396a3	0.018016165
233	0x3c88a7e1	0.016681613
234	0x3d5ae9ee	0.05344575
235	0xbcf8776a	-0.030330379
236	0xbb86255b	-0.0040938086
237	0x3cf27747	0.029597891
238	0xbd974880	-0.07386875
239	0x3e02b7ce	0.12765428
240	0xbd4dcf4a	-0.050246514
241	0xbdff27e6	-0.12458782
242	0x3ce40079	0.027832257
243	0x3e19b837	0.15011679
244	0xbe0ff58e	-0.14058515
245	0xbd2d98ea	-0.04238216
246	0xbd89ffec	-0.06738266
247	0xbdc23b5c	-0.09483978
248	0x3e92def6	0.2868573
249	0x3da89a88	0.082325995
250	0xbdf56ae8	-0.119832814
251	0x3e9d0a3c	0.3067187
252	0xbdc7cdf3	-0.097560786
253	0xbe60fb6e	-0.21970913
254	0xbd4de448	-0.050266534
255	0xbdb991dd	-0.09061024

conv.0.bias f4 [64]
0	0xbda65b37	-0.081228666
1	0xbca8f99d	-0.020626837
2	0xbd192d0b	-0.037396472
3	0xbd2216e3	-0.039572608
4	0x3e665ed6	0.22497115
5	0xbddb04a8	-0.106942475
6	0x3e0f6918	0.14004934
7	0x3c27f1f0	0.0102505535
8	0xbdb651cd	-0.08902321
9	0x3d7610ff	0.060074802
10	0xbdaa674b	-0.08320483
11	0xbc0ce508	-0.008599527
12	0x3e1696b5	0.14705928
13	0xbde9e6bf	-0.114209644
14	0x3e09a0be	0.13440225
15	0xbc84f2e7	-0.016229106
16	0x3e2a4e86	0.16631517
17	0xbd31c3eb	-0.043399733
18	0x3e19e9df	0.15030621
19	0xbdfb25e7	-0.12263089
20	0x3c6d6dd6	0.014491519
21	0xbde1adcd	-0.11019478
22	0xbd8c547e	-0.06852053
23	0x3e2bc340	0.167737
24	0x3e02696f	0.12735532
25	0x3e0538ab	0.13009898
26	0x3e316c89	0.17326559
27	0x3e72b260	0.23700857
28	0x3e1a4ec4	0.15069109
29	0x3e42f99f	0.19040535
30	0x3dac6f8b	0.08419713
31	0x3ddfe99d	0.1093323
32	0xbdff537d	-0.12467096
33	0xbd9289a5	-0.0715516
34	0xbbf53d73	-0.007484132
35	0xbd56d12e	-0.052445583
36	0x3e4b03f0	0.19825721
37	0xbc43745a	-0.011929596
38	0x3e3e12ab	0.18561809
39	0xbca3e5bb	-0.020007005
40	0xbddc2b77	-0.10750478
41	0xbdecb323	-0.11557605
42	0x3e4f1971	0.20224549
43	0x3d6a20cc	0.057160184
44	0x3e4106a2	0.18850186
45	0x3dbc2d91	0.091883786
46	0x3b48e7fc	0.0030655852
47	0xbe25da1e	-0.16196486
48	0x3e028d66	0.12749252
49	0xbc9d2941	-0.01918471
50	0xbe1bf1a9	-0.15228905
51	0x3e751796	0.23934779
52	0xbdee5818	-0.11637896
53	0x3e17853b	0.14796917
54	0xbe13e72b	-0.14443652
55	0x3e6eca28	0.23319304
56	0xbe04f170	-0.12982726
57	0xbde2092c	-0.11036906
58	0x3e4cade0	0.19988203
59	0x3ddd0c8b	0.10793408
60	0xbc84c5bb	-0.016207566
61	0x3e00232c	0.12513417
62	0xbdfdf54c	-0.12400302
63	0x3dcefe4e	0.101070985

conv.2.weight f4 [16, 64, 1, 1]
0	0xbb6c4b42	-0.00360556
1	0xbb46fbf9	-0.003036259
2	0x3cb96837	0.022632701
3	0xbc558c02	-0.013033869
4	0x3cf61097	0.030037208
5	0x3ddd80e7	0.10815602
6	0x3c185186	0.00929678
7	0x3d846515	0.06464592
8	0xbc2f93fa	-0.010716433
9	0x3d03fcb9	0.032223437
10	0xbc86d2bb	-0.016457906
11	0x3d2858d6	0.041100346
12	0xbd183667	-0.037161257
13	0xbd33c0ff	-0.043885227
14	0x3c5d0ebd	0.013492283
15	0xbc9aea4c	-0.01891055
16	0x3d4c6e23	0.049909722
17	0xbd9a0696	-0.075207874
18	0x3d161ad2	0.03664667
19	0x3afdf226	0.0019374534
20	0x3cb1b47e	0.02169251
21	0x3d20afe0	0.039230227
22	0xbcac525a	-0.021035362
23	0x3c9fee33	0.019522762
24	0xbcd6a809	-0.026203172
25	0x3d4939f0	0.04912752
26	0x3ccad0dc	0.024757795
27	0x3cf4ad2f	0.029867737
28	0xbc2c16c4	-0.010503475
29	0x3d312841	0.04325128
30	0x3df8d39f	0.121497385
31	0x3c964724	0.01834447
32	0x3d955dc6	0.072932765
33	0xbc954289	-0.018220203
34	0x3c9e5e04	0.01933194
35	0xbcc502bc	-0.024049155
36	0x3ca20536	0.019777875
37	0xbb8aea8f	-0.0042393873
38	0x3d07699b	0.033059698
39	0x398bb290	0.00026645185
40	0xbdafd9d7	-0.085864715
41	0x3d4454bd	0.047932375
42	0x3cda6f1c	0.02666431
43	0x3d0a90fa	0.033829667
44	0x3c76998c	0.015051257
45	0xbc128232	-0.008942174
46	0x3c0ef111	0.008724467
47	0x3c6e453e	0.014542876
48	0x3d61e9be	0.055154555
49	0x3bf5c8b5	0.007500733
50	0xbccc0f55	-0.024909655
51	0x3cebb584	0.028773077
52	0x3c01ff7c	0.007934447
53	0x3cccbaf8	0.024991497
54	0xbcbb2a45	-0.022847304
55	0x3d48f207	0.04905894
56	0xbd3d2e83	-0.046186935
57	0xbda232a6	-0.07919817
58	0x3d0ff373	0.03514428
59	0x3d6a615a	0.057221748
60	0xbcb2a2bf	-0.021806119
61	0x3cac293b	0.021015754
62	0x3d2272e3	0.039660346
63	0x3c9c0d37	0.01904927
64	0xbbdc85f5	-0.006729836
65	0xb9e115fc	-0.00042931724
66	0x3c7255bf	0.014790951
67	0xbcde5281	-0.02713895
68	0x3c867a5c	0.016415767
69	0x3e002428	0.12513793
70	0x3d529e08	0.05142024
71	0x3d8f85cd	0.07007942
72	0x3c87896c	0.01654502
73	0xbbbcc331	-0.0057605733
74	0xbd141c97	-0.036160078
75	0x3d14d50a	0.036335982
76	0xbcc459d7	-0.02396862
77	0xbd6c2190	-0.057649195
78	0xbc583339	-0.013195806
79	0xbca1dbfc	-0.019758217
80	0x3cc3db99	0.023908423
81	0xbd97b831	-0.074081786
82	0x3c87909b	0.016548445
83	0x3bb9d0fc	0.005670665
84	0x3c796eaa	0.015224138
85	0x3cd91542	0.026499394
86	0xbca6b364	-0.020349212
87	0x3d1cd07c	0.038284764
88	0xbc24d528	-0.010060586
89	0x3cdab40a	0.026697177
90	0x3ce3b773	0.027797436
91	0x3bca5b48	0.0061754324
92	0xbb6ff065	-0.0036611792
93	0x3d50262a	0.050817646
94	0x3e0e66cf	0.13906406
95	0xbc8b613c	-0.017014138
96	0x3da515ec	0.08060822
97	0xbbb20fd1	-0.0054340144
98	0x3d06591a	0.032799818
99	0xbcc35390	-0.023843557
100	0xbaac3db2	-0.0013140945
101	0xbb610611	-0.0034335891
102	0x3cf25eeb	0.029586276
103	0x3c3968c5	0.011316483
104	0xbdcbb05d	-0.09945748
105	0x3d50ca75	0.050974328
106	0x3c862ddf	0.016379295
107	0x3d06f0d3	0.03294451
108	0x3ba4b8fc	0.0050269347
109	0x3baa690f	0.0052005122
110	0xbc98fcdd	-0.018675262
111	0x3c9e0690	0.019290239
112	0x3d8f9055	0.07009951
113	0x3c91e7cd	0.017810727
114	0xbc65ac10	-0.014018074
115	0x3cdc24d9	0.02687304
116	0x3ce33748	0.027736321
117	0x3d06740d	0.03282552
118	0xbcbb2ddf	-0.022849021
119	0x3d13efbd	0.036117304
120	0xbd3d38c4	-0.046196714
121	0xbdd74398	-0.10510939
122	0x3c9fdcbd	0.019514436
123	0x3d7f0b32	0.062266536
124	0xbb876c1e	-0.0041327616
125	0x3cb01d1e	0.02149826
126	0x3d4b4e88	0.04963544
127	0x3c6b6f68	0.014369823
128	0x3acd7e6b	0.0015677934
129	0xbc4f73d8	-0.012661897
130	0xbbd7d86c	-0.006587079
131	0x3afb0603	0.0019151572
132	0x3d75c2e2	0.060000308
133	0x3d624a8c	0.055246875
134	0x3d0fd0e7	0.035111334
135	0x3d7908de	0.060799472
136	0xbc048e39	-0.008090549
137	0x3d14689a	0.03623257
138	0xbc9030e3	-0.017601436
139	0x3d3e122b	0.046404045
140	0x3ddfbadb	0.10924312
141	0xbd278a91	-0.04090363
142	0x3ce1c3fe	0.027559277
143	0xbc2d3e1a	-0.010573888
144	0x3d148eab	0.03626887
145	0xbd99874c	-0.07496509
146	0x3d8d1173	0.06888094
147	0x3c585574	0.013203967
148	0x3d879535	0.06620256
149	0xbcb27ada	-0.021787096
150	0xbca710d7	-0.020393772
151	0xba6607e9	-0.00087749824
152	0x3b9594e2	0.0045648674
153	0x3d7607ec	0.06006615
154	0x3cd86057	0.026413126
155	0x3d595ea6	0.05306878
156	0xbb2db2d1	-0.0026504288
157	0x3d4ea74d	0.05045252
158	0x3da9481e	0.082657084
159	0x3d099b7b	0.033595543
160	0x3d53ac4f	0.051678
161	0x3c00ebf5	0.007868757
162	0xbc45a655	-0.012063582
163	0xbd05d2a8	-0.0326716
164	0xbc01db2b	-0.007925789
165	0xbce20826	-0.027591776
166	0x3d054f6b	0.032546442
167	0xbce5a4f4	-0.028032757
168	0xbd9578ff	-0.07298469
169	0x3d639b9e	0.05556833
170	0x3d37e6e6	0.044897936
171	0x3d081b51	0.033229176
172	0xbbb31d8a	-0.005466168
173	0xbc7d0012	-0.015441911
174	0x3d401a58	0.046900123
175	0xbc32a186	-0.010902768
176	0x3d8676d5	0.06565634
177	0x3c4cded7	0.012504301
178	0xbc853553	-0.016260779
179	0x3c783f9a	0.015151883
180	0x3cce46a9	0.025180178
181	0x3d7afdc6	0.061277173
182	0xbc98a270	-0.018632144
183	0x3d8f6de8	0.07003385
184	0xbd97887e	-0.07399081
185	0xbd46604a	-0.048431672
186	0x3c963a5f	0.01833838
187	0x3d254117	0.040345278
188	0x3c46185b	0.012090768
189	0x3c8aaebc	0.016929023
190	0x3c8e7dda	0.017393995
191	0x3cb9f2ec	0.022698842
192	0xbb1850c2	-0.0023241495
193	0xba55bac8	-0.0008153138
194	0xbd107797	-0.0352703
195	0xbb04f424	-0.002028712
196	0x3db8823c	0.09009215
197	0xb99556a3	-0.00028484044
198	0x3d1b754f	0.03795367
199	0x3936557a	0.00017388715
200	0xbd2d208f	-0.04226738
201	0xbb5ff560	-0.0034173355
202	0xbced1083	-0.028938537
203	0x3ac51956	0.0015037458
204	0x3e014c39	0.12626733
205	0xbb3dc289	-0.0028955063
206	0x3cf81948	0.030285493
207	0x3ad23695	0.0016037995
208	0x3dc660b2	0.09686412
209	0x3ac20ca8	0.0014804797
210	0x3d0099bc	0.031396613
211	0x3aad4eda	0.0013222352
212	0x3b15e873	0.0022874146
213	0xbcdef5aa	-0.027216751
214	0xbd035b7c	-0.03206967
215	0x3c9d3a20	0.019192755
216	0x3c008ec2	0.007846536
217	0x3d8dd793	0.06925883
218	0x3d7fcbc4	0.062450185
219	0x3d7f9fe2	0.062408336
220	0x3c919135	0.017769435
221	0x3b6a822d	0.0035783157
222	0xb9bff1fd	-0.00036610654
223	0x3c657fbb	0.014007504
224	0xb9f78c89	-0.00047216218
225	0x3b55f910	0.0032649674
226	0xba8998a6	-0.0010497763
227	0xba90faa2	-0.0011061023
228	0x3d6053f1	0.054767553
229	0x3a536cb9	0.0008065212
230	0x3daa5044	0.08316091
231	0xba643f97	-0.00087069854
232	0x399f9185	0.00030435264
233	0x3b0683b9	0.002052529
234	0x3d4dceb2	0.050245948
235	0x3ba614e0	0.0050684065
236	0x3d6d279d	0.057899106
237	0x3d4b1915	0.049584467
238	0xbbd7b1b5	-0.0065824636
239	0xbae440b6	-0.0017414305
240	0x3d811de3	0.063045286
241	0x39ff06f3	0.00048642568
242	0xbd0345f6	-0.03204914
243	0x3c88df0f	0.016707925
244	0xbd1d2ba9	-0.038371716
245	0x3cf29cd4	0.029615797
246	0xbcb96d44	-0.02263511
247	0x3d28e8b2	0.04123754
248	0xbb3c8d9a	-0.0028770925
249	0x3b06f2d6	0.002059152
250	0x3d7ab930	0.061211765
251	0xb83dda92	-4.526467e-05
252	0x3cb9cca8	0.022680596
253	0xb9a43a84	-0.00031324115
254	0xbad66ebb	-0.0016359905
255	0x391193a0	0.00013883272
