models/blood/28-_hinge_sobel_identity.pth (torch, 18891 bytes, 3 tensors)

conv.0.weight f4 [64, 48, 1, 1]
00000000: 9984 c0bd 1733 4fbd aefd babd 057e a83c
00000010: 363f 663d 9d56 7abc c8a9 b8bd af74 cdbd
00000020: ee1d 0a3d ae34 fdbc 6806 013d 03c1 863c
00000030: 058b 663c 72e4 0fbe 7c64 eabd 0d46 35bd
00000040: 98b1 0cbe a2b8 95bd 7bee d0bd 6274 dbba
00000050: 2d1f a8bd 285b bc3d cecf 31bd 770e 983d
00000060: 61b7 15be 4379 ccbb e916 4b3d ee00 8fbd
00000070: f0dc 963d e30d 113e 1b79 54bd 60d4 db3d
00000080: 7b6b 9bbd 3b77 c9bd 4d99 9a3d 6bba e2bd
00000090: 88f8 073e d97d 9a3d aef1 d83d 52f3 3e3d
000000a0: 626b 513d 6a9b 2bbd 548f c2bd 1f69 1dbc
000000b0: 8954 dd3d b620 60bc f320 ab3c f2ca 0a3c
000000c0: 45e6 d8bd 79b1 863d a7a1 dfbd 51f7 193d
000000d0: 5326 ed3c ecdf 0e3d d7ef 9f3c 6b07 9f3d
000000e0: 80e4 8abd 87e0 2fbd 9ed1 f5bd 3fdb 043e
000000f0: b754 7dbd c419 d13b c9a5 473d bbf4 0fbe
00000100: 089f ce3d 2158 1e3d 3775 b0bd 1851 b03c
00000110: 2986 2dbc f762 433d cf25 893d 1a6a 1abe
00000120: c7b7 2a3d eb53 81bd f62b 893d ef5e debd
00000130: a554 ea3d 10c9 123d 0656 c93c 79ad 04be
00000140: 2e94 163d 958d 23bc ec81 c13d 8a71 0cbe
00000150: 383d 80bd ebe5 c9bd 2143 c5bd b197 ccbd
00000160: 9f02 9b3c 8949 0ebd 8986 e4bd 3e7e 953d
00000170: f9c3 c8bd baea c43d 936d f73d 7785 ba3d
00000180: 9687 cabd 40c6 9138 44e2 f43d e2d5 0abd
00000190: 3e6c 093e 6db0 df3d 59f3 edbd 4493 033e
000001a0: e528 103e 14c5 e9bc fe30 413c 2de5 e83d
000001b0: 5931 b63c a96c a43d 2858 073e ad7a 913d
000001c0: 341e cfbc 8664 de3d 7209 023e 6135 d73d
000001d0: e57e b5bd a780 94bd 5265 15bd 912e 1d3e
000001e0: 6da7 cfbd 102d 15bc a339 21be e6ab 7c3d
000001f0: c13c 06bd c0c4 c23d 9673 efbc 5dc4 9d3d
00000200: 35e1 513c f08b a3bd 8264 773d f72a 0d3d
00000210: ad37 823d d215 dd3d dbcd 9fbd 1198 163e
00000220: d459 493c 0f75 d2bd 9ca9 d0bc 1a07 edbd
00000230: f4bb 973d 3a44 f9bd 1e83 693c 7a76 bfbd
00000240: 2411 aabb d248 0cbe e904 bdbd b59e c53d
00000250: be72 f43d b946 033e e79b 0abe acbb 423c
00000260: e1a2 0e3e a0c2 15be d71d 2dbd 4214 16bd
00000270: be2b c6bc 421b ddbd 480a a13c cae2 1ebc
00000280: 6672 53bd 52a9 1c3d d6e2 fdbc 92d9 05be
00000290: 4fd0 d0bc e78a 3bbd 7de3 993d 3630 e13d
000002a0: 26f8 9f3d 6f86 5bbd b893 8f3c 3fcd b33c
000002b0: d8f9 e8bd d625 1e3d 322b db3d 8ceb e63d
000002c0: f4fb 04bb 6e30 de3c c775 debd 3e24 b53d
000002d0: f383 0c3d 6a6f 61bd c027 d3bc 3f8a f5bd
000002e0: 590e 27bd 9985 663d 8c4a 3c3c 8bbe 163d
000002f0: 6ab3 9d3d ab40 fbbd c216 253d a7b3 c7ba
00000300: 1718 833b 8444 e5bd c39c 28bd 163b 393d
00000310: 44b4 a33c a0d0 e83d 4501 133e 0a60 973d
00000320: 2528 85bd 084e cbbd b623 c8bc 942e 0ebc
00000330: 5e59 e7bd bc3a 873b e65b a5bd 27f8 67bd
00000340: 7127 f0bb 754c ffbd 83e8 b2bc 4e24 953d
00000350: 869f b8bd c4e8 f5bd 49f9 46bd b3fe 7bbd
00000360: d38f 8d3d 0df9 093d 99a5 6a3d 205b 06be
00000370: 766b c53d be76 98bd fb11 9cbb 17a4 81bd
00000380: 9696 9abd 054e db3d 7e33 c8bd 320e f7bd
00000390: 73b2 efbc d365 e8bd 0fca 073c 9abf d73b
000003a0: 1804 f43d 427f 243d bb71 763d 982b 0d3d
000003b0: 34b4 afbd 6fb6 f23c 3755 f3bc 3ab2 a3bc
000003c0: dc76 ebbd f2e8 26bd f14f 0ebe 2766 5bbc
000003d0: c5a8 17bd 7f09 0fbe 9393 ed3c e000 0abc
000003e0: 24d9 393d f0bf 32bd 55a0 0abe d011 053e
000003f0: 2b16 c8bd b448 0fbe c44b babd 67fb 0c3e
-0.09400291 -0.050585832 -0.09130417 0.020567903 0.056212626 -0.015279439 -0.09016758 -0.10032021
0.03371995 -0.030908909 0.03150025 0.016449457 0.014071231 -0.14051989 -0.11444947 -0.04425626
-0.13739622 -0.073106065 -0.102017365 -0.0016743059 -0.08209071 0.09197074 -0.04341107 0.07424634
-0.14620735 -0.0062400415 0.049582396 -0.06982599 0.07366359 0.14165454 -0.051873308 0.10733867
-0.0758886 -0.098371945 0.07548771 -0.11070713 0.13278401 0.07543535 0.10592972 0.046618767
0.0511278 -0.04189626 -0.09499994 -0.009607582 0.108071394 -0.013679674 0.020889735 0.0084712375
-0.105907954 0.06576819 -0.109195046 0.037589375 0.028948938 0.034881517 0.019523544 0.07765087
-0.06781864 -0.042938735 -0.12002872 0.12974261 -0.06184837 0.0063812453 0.04874209 -0.14058201
0.100889266 0.038658265 -0.08616107 0.021523044 -0.010591068 0.047701802 0.066966645 -0.15079537
0.04167917 -0.06314834 0.06697838 -0.10857951 0.11441926 0.03583628 0.024577152 -0.129568
0.03676241 -0.009982486 0.09448609 -0.13715187 -0.062616765 -0.098583065 -0.096319444 -0.0998987
0.018922148 -0.034738097 -0.11158473 0.072994694 -0.09803004 0.09615083 0.120814465 0.09107488
-0.09889142 6.951066e-05 0.11957219 -0.03389538 0.13420197 0.109223224 -0.116186805 0.12849146
0.140781 -0.028536357 0.011791466 0.11371837 0.022240328 0.08028538 0.13217223 0.07103477
-0.025282957 0.10859017 0.12698916 0.10508228 -0.08862094 -0.07251101 -0.03647358 0.15349795
-0.10139356 -0.009104982 -0.15744643 0.061687373 -0.032772783 0.09510183 -0.02922992 0.07703469
0.012810041 -0.07985675 0.060398586 0.034464803 0.063582756 0.107951775 -0.07802936 0.14706446
0.012289483 -0.102762334 -0.025471501 -0.1157362 0.07408896 -0.12171216 0.014252452 -0.093487695
-0.0051900316 -0.13699654 -0.09229452 0.096494116 0.11935948 0.12819947 -0.13536035 0.011885565
0.13929321 -0.14625025 -0.042264786 -0.036640413 -0.02419078 -0.10796215 0.019658223 -0.009697625
-0.05162277 0.038247414 -0.030991953 -0.13071278 -0.025489954 -0.045786764 0.07514093 0.10995524
0.078110024 -0.053595003 0.017526492 0.021948455 -0.11375779 0.038610302 0.10701598 0.11275396
-0.0020291777 0.027122702 -0.10862308 0.08844803 0.034305524 -0.055037893 -0.02577579 -0.11989259
-0.040785167 0.056279752 0.011492383 0.03680281 0.07700236 -0.12268194 0.040304907 -0.0015236036
0.0040006745 -0.11194709 -0.041165125 0.045222364 0.019983418 0.11367917 0.14355953 0.07391365
-0.065017976 -0.09926993 -0.02443109 -0.008678097 -0.11296342 0.0041268747 -0.08074169 -0.05663314
-0.0073289205 -0.12465755 -0.021839386 0.07282315 -0.09014802 -0.12007287 -0.04857758 -0.061522197
0.06912198 0.03368478 0.057286832 -0.13120699 0.09639637 -0.07444523 -0.0047628856 -0.06330126
-0.07548253 0.107082404 -0.09775446 -0.120632544 -0.029259896 -0.113475464 0.008287921 0.00658412
0.11914843 0.040160425 0.060167056 0.034465402 -0.08579293 0.029628007 -0.02970372 -0.019982446
-0.1149728 -0.040749498 -0.13897683 -0.013391054 -0.037026186 -0.13968466 0.029001033 -0.00842306
0.045373097 -0.043640077 -0.13537724 0.12995076 -0.09769853 -0.13992578 -0.090964824 0.13767777

conv.0.bias f4 [64]
00000000: 2b37 f33d f75a efbc 55d5 c33d 170b 88bd
00000010: d571 b5bd bf8e 8fbc 03a6 db3c ada5 133e
00000020: 2056 7d3d bc0b 113e 23ac ad3d e84e 603d
00000030: cd17 87bd a4b1 d63d 4bd9 ab3d 5372 1b3e
00000040: 5d81 273d 8d13 d1bd 0603 05be feba eabd
00000050: 1b39 a3bd 284d ddbd cc32 903d 056b 80bd
00000060: 18bd cb3d 5577 6bbd 5f12 ec3d 35f4 383d
00000070: e9b6 d6bd 9e38 2abd 1da1 003e b113 f23c
00000080: caf8 aabd 771d 693d ed25 acbd 9c24 323d
00000090: 3aa3 ef3c 4b6e e63d 10be 143d 78a0 9f3d
000000a0: a3e4 253d 412a 6fbd b914 8dbd bbf4 08bc
000000b0: 526a ffbb 1620 e5bd 2ae2 3ebd 7838 ef3c
000000c0: e472 e83d 037a 483d c5d2 92bd 66e5 53bd
000000d0: b46d 12bc ba18 083e 153e a83c 473f e43d
000000e0: 6e16 9d3d ea8c 0c3e fca5 2b3d ccfd e9bd
000000f0: 4b5b e23c 966b 593d f812 923c e2d0 053e
0.11875757 -0.02921818 0.09562174 -0.0664274 -0.08859602 -0.017524121 0.026812559 0.14418669
0.061849713 0.14164633 0.08480098 0.05476275 -0.065963365 0.10483101 0.08391055 0.1518033
0.040894855 -0.10208807 -0.12989435 -0.11461447 -0.079698764 -0.10805732 0.07040939 -0.06270412
0.09948176 -0.05748685 0.115269415 0.04515477 -0.10484106 -0.0415579 0.1256146 0.029550405
-0.08348234 0.056912865 -0.08405671 0.043491945 0.029252637 0.112515055 0.03631407 0.07794279
0.040501248 -0.058389906 -0.06888718 -0.00835913 -0.007794657 -0.111877605 -0.046602406 0.029201731
0.11350039 0.048944484 -0.07169107 -0.051732443 -0.008937288 0.13290682 0.020537416 0.11144882
0.07670294 0.1372563 0.041906342 -0.11425361 0.027631423 0.053081118 0.01783131 0.13067964

conv.2.weight f4 [16, 64, 1, 1]
00000000: 8f78 003d e81e 46ba 183a 053d ad85 b13a
00000010: 0fa1 c6bb fddc 3fbb 569a 323c b646 9e3c
00000020: f803 373c 4d25 c73c c9d6 e83b a6db d43c
00000030: 02cb c1bc a46f df3c a9ea c73c 00a2 c63c
00000040: e7fe 233d 3a16 4d3b ce68 553b 69aa 3abc
00000050: 2a93 b63b 31a3 f93a b37e 053d 7393 9bbb
00000060: 5efb 273c dc43 af3b 4532 f53c 81d4 b43c
00000070: 48f5 73bc 9289 023b a717 843c 6131 4f3c
00000080: ab8a 56bc df8e eb3c 6b0e 43bc c64e 083d
00000090: 6f85 bb3c 278f ad3c 6353 19b7 e8be 643c
000000a0: 64b9 d13b 1e51 f9bb 2bff 30bc f2c3 24bc
000000b0: a24c a7bb 48e4 9bbc 2ece 6b3a 5e6f 2e3d
000000c0: eb7d 453c cb30 ef3c f51d 2ebc 5cba 62bc
000000d0: 58c3 22bc f9f3 033d 21fb 933c 8ae0 993c
000000e0: ad07 f73c 4525 af3c b485 f33c 9342 4ebc
000000f0: ca4e c93c 8298 f53c 5325 053c cc65 cb3c
00000100: e518 c53c 5c57 013c 4a61 dc3c 48c8 9d3a
00000110: 9a36 153a 3f09 82bb a4be 9e3c 4c49 943c
00000120: 3511 203c e12e 973c 787a 4a3b 7cd4 c23c
00000130: 013a 8cbc e682 b63c 6453 b73c eaea c23c
00000140: 16e8 db3c ae31 053b cf55 803b 849a 0bbc
00000150: 3c5d b03b 7f42 143c f2c3 cd3c d338 df3b
00000160: 01f8 f13b 7536 863a 9ac2 d53c cd98 d43c
00000170: 5544 68bc 22a0 a33b 3220 583c f812 a63b
00000180: 6bb9 0dbc 2a86 dd3c 5340 e1bb ea4e ca3c
00000190: 5249 a13c 9f60 933c c843 8fba 47ce 0b3c
000001a0: 5e5a 503c b586 c9bb 9ebd 94bc 28cc 44bb
000001b0: 1e61 a7bb 93a4 92bc a7e7 243c b4ba fb3c
000001c0: ca8d 423c bd44 d83c e9a1 06bc f0ac 9ebc
000001d0: 30ae cdbb 8395 cc3c 23d9 cf3c 24df 383c
000001e0: e563 cd3c 07fa c53c 8411 e33c 75e3 0ebc
000001f0: 924c 8d3c 6d40 a93c 6654 3b3b 4032 ae3c
00000200: 79fd fa3c 5316 01bb 4aed f83c 2fe5 9a3b
00000210: 64ea 2abc 5118 86bb 9c28 ddbb 71d7 a93c
00000220: d8e0 fc3b 4e3a ca3c 569e 263c be09 f83c
00000230: a19b 76bc c8b2 883c 9bba dc3c 7bf2 b93c
00000240: f768 7b3c 2b11 bd3b b00d 1e3c b371 46bc
00000250: 9d0a 3bbc 459d f639 c5fc f53c 56e2 01bc
00000260: b94a c13b 9a15 08bc d814 e53c c0d8 8f3c
00000270: 500c 2dbc c49b 5e3a 48d7 5d3c f977 a03c
00000280: 4058 4dbc 32e5 ef3c dded 42bc 5a21 a13c
00000290: 5245 7c3c bd8e a23c 5b72 bfbb 5d81 7a3c
000002a0: 6a1f bc39 711f 75bc b5c5 8bba acfa b9bb
000002b0: 3244 17bc 6eaf 2cbc 9336 083b ab68 7a3c
000002c0: 832b 0d3c 037c 893c 8d68 8abc 3823 c53b
000002d0: 48bf 78ba ee45 f33c 2b94 9a3c 6673 a73c
000002e0: 46e7 fb3c 6323 be3c 7e1d 073d a1de 28bc
000002f0: c0f3 0c3d a5ce f13c e1a2 c93b 1365 8b3c
00000300: 7272 133d b5cf 9a3b 9d72 153d e9a8 823b
00000310: 9ddf c03b 633b e0bb 482d 043d e439 f43c
00000320: 4859 513c f578 e63c 5030 3c3c 8d91 2c3d
00000330: fb2a e7bc c22b fb3c 6fde 003d fd6e 1a3d
00000340: 15ed f13c ffd7 25ba 4153 70bb b8ca 98bc
00000350: 9ee7 2e3b 3cc6 403c 6c4b 0c3d 15ed 8c3b
00000360: cccb 6e3c b684 b2bb b098 0d3d 58d7 fa3c
00000370: aab7 9ebc 3215 963c 60e3 813c a516 693c
00000380: 5f5d 6bbc 1b3e 223d 8d2d 72bc 74e5 123d
00000390: abbb 123d ef2a aa3c 5ba8 833b b5bf 963c
000003a0: 06c7 053c b1f4 76bc 638b 63bc 3104 c7ba
000003b0: eb32 b7bb 010c 08bd 0a0a 183c 4da4 183d
000003c0: 1bc3 443c 9e57 ef3c 6079 70bc 3843 abbc
000003d0: 8e2f 32bb deca 0c3d 89a8 c53c 033c 783c
000003e0: 6919 173d df88 e53c 89c4 1f3d 89f8 47bc
000003f0: cbbc d83c bf20 1c3d cfa6 273b fa57 bb3c
0.031364974 -0.0007557706 0.032526106 0.0013543867 -0.00606168 -0.0029276006 0.010901054 0.019320827
0.01117038 0.024309779 0.0071056825 0.025983643 -0.023656372 0.027274914 0.024403887 0.02424717
0.040038016 0.0031293766 0.003256369 -0.011393168 0.0055717425 0.0019045827 0.032591533 -0.004747802
0.010252802 0.0053486656 0.029931197 0.022073986 -0.014890023 0.0019918424 0.01612456 0.01264605
-0.013094584 0.02875465 -0.011905293 0.03327825 0.022890775 0.021186424 -9.138926e-06 0.013961531
0.006400274 -0.007608547 -0.010803024 -0.010056483 -0.005105571 -0.019029751 0.0008995262 0.042586677
0.012053947 0.029198071 -0.0106272595 -0.013838377 -0.009934269 0.032215092 0.018064084 0.018783826
0.030155027 0.021380076 0.02972684 -0.012589115 0.024573702 0.029979948 0.008126575 0.024828814
0.024059722 0.007894363 0.02690186 0.0012037838 0.0005692035 -0.0039683874 0.019378014 0.018101357
0.0097697275 0.01845497 0.003089575 0.023782961 -0.017117502 0.022279214 0.022378631 0.023793656
0.026844066 0.00203238 0.003916479 -0.008520726 0.005382208 0.009049057 0.025117848 0.006812194
0.0073843007 0.0010239618 0.02609377 0.025951767 -0.014176448 0.0049934546 0.01319127 0.005068179
-0.008650164 0.027041513 -0.006874123 0.024695832 0.019688282 0.017990408 -0.0010930235 0.008533067
0.012716858 -0.0061500915 -0.018156823 -0.0030028913 -0.005108013 -0.01790074 0.010064996 0.030728675
0.011874625 0.026399964 -0.008217313 -0.019369572 -0.0062768683 0.024973636 0.025372094 0.01128367
0.025072047 0.024167074 0.027718313 -0.008721222 0.017248426 0.020660603 0.002858424 0.021264195
0.030638443 -0.0019697144 0.030386586 0.004727028 -0.01043186 -0.004092254 -0.006749226 0.020732613
0.007717233 0.024686005 0.010169586 0.030278083 -0.015051753 0.016686812 0.02694445 0.022698632
0.01534485 0.005769869 0.009646818 -0.012112069 -0.011416105 0.0004703795 0.030027756 -0.007927498
0.0058988 -0.008305931 0.02796404 0.01755941 -0.010562018 0.0008491839 0.013540097 0.019588457
-0.0125332475 0.029284094 -0.011897531 0.019669224 0.015397387 0.019843454 -0.0058424897 0.015289632
0.0003588156 -0.0149611095 -0.001066378 -0.0056756344 -0.009232568 -0.010539873 0.0020784482 0.015283744
0.008616331 0.016782766 -0.016895557 0.0060161613 -0.00094889523 0.029696431 0.01886948 0.020440768
0.030749928 0.023210233 0.03298711 -0.010306985 0.034412146 0.029517481 0.00615345 0.01701597
0.035997815 0.0047244676 0.036486257 0.003987421 0.005886032 -0.006843017 0.032269746 0.02981276
0.012777634 0.028133849 0.011486128 0.042130996 -0.028218737 0.030660514 0.03146213 0.037703503
0.029531995 -0.00063264364 -0.0036670717 -0.018651351 0.0026688348 0.011766013 0.034251615 0.0043007233
0.014574956 -0.0054479493 0.034569442 0.030620262 -0.019374687 0.018320654 0.015855491 0.01422659
-0.014365523 0.03961001 -0.014781368 0.035863355 0.035823505 0.020772425 0.0040178723 0.01840196
0.008165127 -0.015072987 -0.013888213 -0.0015183744 -0.0055907867 -0.033214573 0.009279737 0.037266064
0.012009407 0.029216584 -0.014677376 -0.020906076 -0.002718899 0.034373157 0.024128215 0.015151027
0.036889467 0.028019367 0.03900579 -0.0122052515 0.026457211 0.038117167 0.0025581603 0.022869099
