models/blood/28-_combined_ssim_l1_sobel.pth (torch, 27353 bytes, 3 tensors)

conv.0.weight f4 [128, 32, 1, 1]
0	0x3ebeabc7	0.3724043
1	0x3de38f20	0.11111283
2	0x3e994788	0.29937387
3	0xbc8d7e3b	-0.017272105
4	0x3ebb1a0f	0.3654332
5	0x3e8a82ee	0.27053016
6	0x3e3ef254	0.18647128
7	0xbde3ddc7	-0.11126285
8	0x3d922ce7	0.07137471
9	0x3c94a544	0.018145211
10	0x3dd9723e	0.10617493
11	0xbd225172	-0.039628454
12	0xba316961	-0.0006767717
13	0xbd217f4c	-0.03942804
14	0x3c865674	0.016398646
15	0xbaff56bd	-0.0019480806
16	0x3d8debff	0.06929778
17	0x3ce88891	0.028385432
18	0x3ccb80b3	0.024841642
19	0x3cf47253	0.02983967
20	0x3dd37ede	0.10326932
21	0x3d904600	0.070446014
22	0xbd518fe5	-0.05116262
23	0x3c48509d	0.012226251
24	0xbba00b5d	-0.004884167
25	0x3c11867f	0.008882164
26	0xbdd61d5f	-0.10454821
27	0x3d18a925	0.037270684
28	0x3db0e8a2	0.08638121
29	0x3cb1fe46	0.021727692
30	0xbd85bd2a	-0.06530221
31	0xbc9dff3a	-0.01928674
32	0xbe0e9acb	-0.13926236
33	0x3e71a267	0.23597108
34	0xbe088f21	-0.1333585
35	0x3e62564e	0.22103235
36	0xbdf4cbfc	-0.119529694
37	0x3e395109	0.18097319
38	0x3d9bed0e	0.07613574
39	0x3d3cc2e2	0.046084292
40	0xbb8c50f4	-0.0042821113
41	0xbc140bc9	-0.009036013
42	0xbd676d97	-0.056500997
43	0xbd8a647b	-0.067574464
44	0x3d916dcb	0.071010195
45	0x3d1cc8b6	0.03827735
46	0xbd2a2e3d	-0.041548003
47	0x3c2c69c0	0.01052326
48	0xbdf5b8c8	-0.11998135
49	0xbdf77d3e	-0.12084435
50	0x3d076c7f	0.033062454
51	0xbd52c2df	-0.051455375
52	0xbbe6d113	-0.0070439666
53	0xbb7b4256	-0.00383391
54	0x3de2cc5e	0.11074136
55	0xbdd7f6c8	-0.10545117
56	0xbda508c6	-0.08058314
57	0xbcd0d604	-0.025492676
58	0x3ce7e02a	0.028305132
59	0x3d88f469	0.066872425
60	0xbd41f2ff	-0.04735088
61	0xbc02b434	-0.007977534
62	0x3d7198b1	0.05898351
63	0xbd81b886	-0.06334023
64	0x3d89bcd8	0.06725472
65	0xbdf47ae6	-0.119375035
66	0x3cbd8219	0.023133324
67	0x3d6d7b7c	0.057979092
68	0x3e7e7f0e	0.24853155
69	0xbe94acb9	-0.29038027
70	0xbd1e2b67	-0.03861561
71	0x3cabd14f	0.02097383
72	0xbd25af29	-0.04045025
73	0x3d43cb88	0.047801524
74	0x3d26a300	0.040682793
75	0x3da7a0a9	0.0818494
76	0xbc93c304	-0.018037327
77	0xbdb640e8	-0.08899099
78	0x3cb968e7	0.02263303
79	0xbdac506b	-0.08413776
80	0xbc4b0eff	-0.012393712
81	0xbdf9e6b2	-0.12202205
82	0x3d81ded4	0.06341329
83	0x3d682729	0.05667797
84	0x3d7b0a48	0.0612891
85	0xbcfccbbf	-0.030858872
86	0x3d7ff207	0.062486675
87	0xbba0c214	-0.0049059484
88	0x3c002fd8	0.007823907
89	0xbd4924a9	-0.049107227
90	0x3c9473e1	0.018121662
91	0xbdc6c59a	-0.09705658
92	0xbdb070c7	-0.086152606
93	0x3ddcaa95	0.107747234
94	0x3d564c86	0.052319072
95	0x3da58bba	0.08083291
96	0x3e1e96c7	0.15487204
97	0xbd538ac5	-0.051646013
98	0x3e169841	0.14706518
99	0xbb32a064	-0.0027256245
100	0x3e456fb4	0.19280893
101	0xbe8e305b	-0.27771267
102	0xbd4d8420	-0.050174832
103	0x3d890a1c	0.06691381
104	0xbd20e2c9	-0.03927878
105	0x3db3d944	0.087816745
106	0x3d806b21	0.06270433
107	0xbd17fee5	-0.03710832
108	0xbdf719c8	-0.12065464
109	0x3d94ca03	0.07265093
110	0x3c7e3a4f	0.015516832
111	0x3b6642c6	0.0035135015
112	0xbd5c1a87	-0.053736236
113	0xbd735274	-0.059404805
114	0xbd6f3451	-0.058399502
115	0xbce5e740	-0.02806437
116	0x3d8de3ba	0.06928201
117	0xbe5fb93b	-0.21848004
118	0x3db2c16e	0.087283
119	0xbd43a06c	-0.047760412
120	0x3d986525	0.07441167
121	0xbdd28c5f	-0.1028068
122	0x3d9925e1	0.07477928
123	0x3d9caab1	0.07649744
124	0x3cd34e10	0.025794059
125	0x3e12c397	0.14332424
126	0xbd8939e4	-0.06700495
127	0xbe02dd71	-0.12779786
128	0xbe6b6c85	-0.22990616
129	0x3dc774e6	0.097390935
130	0xbe65a6ad	-0.22426863
131	0x3df0bc29	0.11754639
132	0xbddc68d3	-0.10762181
133	0xbd4956b9	-0.04915497
134	0xbe0f585c	-0.1399855
135	0xbdee0413	-0.11621871
136	0xbb6526c7	-0.003496574
137	0xbd0ae76f	-0.03391212
138	0xbbeb2007	-0.007175449
139	0xbce9f800	-0.028560638
140	0x3d4b39d7	0.049615707
141	0xbd9b4fe0	-0.07583594
142	0x3dab13f9	0.08353419
143	0x3d288155	0.041138966
144	0xbd99898a	-0.074969366
145	0xbe5cbaea	-0.21555677
146	0x3c35bb7b	0.011092062
147	0xbd2da14c	-0.042390153
148	0x3ce0b4b0	0.027429909
149	0xbd196011	-0.03744513
150	0x3d80f63d	0.06296966
151	0xbe14906c	-0.14508218
152	0x3d07083b	0.032966834
153	0x3d892a15	0.0669748
154	0x3dcf2cf7	0.10115998
155	0xbd26c0cb	-0.040711205
156	0xbd54fce6	-0.051998995
157	0xbdc6d251	-0.097080834
158	0x3d0c088a	0.03418783
159	0xbe08a1f8	-0.13343036
160	0xbe6204f7	-0.22072206
161	0x3e4de93a	0.201085
162	0x3cd9692d	0.02653941
163	0x3d679ba1	0.056544904
164	0x3de159d2	0.1100346
165	0xbdfe87f4	-0.12428275
166	0x3df2566b	0.11832889
167	0xbd315465	-0.043293376
168	0xbda5b4b3	-0.08091106
169	0x3ba0dd95	0.004909227
170	0xbde3fe33	-0.11132469
171	0x3cd1f0bc	0.025627486
172	0xbdbf2821	-0.09333826
173	0xbd750d55	-0.059827168
174	0x3d6fe236	0.05856534
175	0x3d53c6fc	0.05170344
176	0xbe0509a4	-0.12991959
177	0xbe3cac04	-0.18424994
178	0xbd9a82fc	-0.075445145
179	0xbd6f6e81	-0.058454994
180	0x3e0cb925	0.13742502
181	0xbd8bcf64	-0.06826666
182	0x3c325dd4	0.010886628
183	0xbd1175de	-0.035512798
184	0xbce58787	-0.028018726
185	0xbdb11174	-0.08645907
186	0x3dd2e4d0	0.10297549
187	0xbdaf39fb	-0.08555981
188	0xbd9351bd	-0.07193325
189	0xbd177f79	-0.0369868
190	0x3b966ef7	0.0045908648
191	0xbdcc76d0	-0.09983599
192	0x3e9f0185	0.31055847
193	0xbe1ae329	-0.15125717
194	0x3edd350f	0.43204543
195	0xbdbe1724	-0.092817575
196	0x3e7f7a97	0.24949108
197	0xbe019317	-0.12653767
198	0x3e6fbe8f	0.23412536
199	0xbdfee050	-0.12445128
200	0x3d53f904	0.05175115
201	0x3c7e072d	0.0155046405
202	0x3d497330	0.049182117
203	0xbc2117d9	-0.009832346
204	0x3d4c7caa	0.049923576
205	0x3d5fba4b	0.054621022
206	0xbd071cc8	-0.032986432
207	0x3d01258a	0.03152994
208	0xbb8077a0	-0.0039205104
209	0x3d0cc5f2	0.034368463
210	0x3d6357cf	0.055503663
211	0x3aa7b06d	0.0012793668
212	0xbd62958b	-0.055318397
213	0x3d3400b2	0.043945976
214	0xbd39c66a	-0.045355238
215	0xbc91e066	-0.017807197
216	0x3b7fc6b1	0.0039028341
217	0x3d872d8d	0.06600485
218	0x3c980d72	0.018561099
219	0xbbe221e6	-0.0069010137
220	0x3ca77e11	0.020445855
221	0x3cb86e5d	0.022513563
222	0xbd8dfa38	-0.06932491
223	0xbda451f4	-0.08023444
224	0x3e83f2b5	0.25771108
225	0x3dc015a7	0.0937913
226	0x3e9a3d12	0.30124718
227	0x3e652119	0.22375907
228	0x3e444ec0	0.19170666
229	0x3e35e144	0.17761713
230	0xbd37aed2	-0.044844456
231	0xbc3e644f	-0.011620595
232	0xbcac7f68	-0.021056846
233	0x3d951e23	0.07281139
234	0xbd95cd3d	-0.07314537
235	0xbcf1f748	-0.029536858
236	0xbd8d45a8	-0.068980515
237	0xbc615a63	-0.01375446
238	0x3c9b6d68	0.018973067
239	0x3df18a71	0.11793984
240	0xbe100a81	-0.14066507
241	0x3cdcc163	0.026947683
242	0xbe0392aa	-0.12848917
243	0x3da4ade8	0.080409825
244	0x3d89cd56	0.06728618
245	0xbdb2c432	-0.087288275
246	0x3d8ce4f9	0.068796106
247	0xbd873de1	-0.06603599
248	0xbc979936	-0.018505674
249	0x3ddd7821	0.108139284
250	0xbdab5c65	-0.08367232
251	0xbc35b3d3	-0.011090237
252	0xbde6f01c	-0.11276266
253	0xbc2cf2a4	-0.010555897
254	0xbd28746c	-0.041126654
255	0xbe18955b	-0.14900725

conv.0.bias f4 [128]
0	0xbd72e303	-0.059298526
1	0xbe1ee53a	-0.1551713
2	0xbcbcd5fa	-0.02305125
3	0xbd945f00	-0.07244682
4	0xbd5484c1	-0.051884416
5	0xbc895a29	-0.016766625
6	0x3c78ba1d	0.015181092
7	0xbd6d55c1	-0.05794311
8	0xbd3aeeb5	-0.045637805
9	0xbd2f4c17	-0.042797174
10	0xbe26c87b	-0.16287415
11	0x3d9958e5	0.074876584
12	0x3b99afa8	0.0046901293
13	0xbdd546c1	-0.10413886
14	0x3dcb80f9	0.09936709
15	0xbdaf70e4	-0.08566454
16	0x3c9d9175	0.019234398
17	0xbe04ce3b	-0.12969296
18	0x3e2698b9	0.16269197
19	0xbd9f7a5d	-0.07787011
20	0x3d85dfd0	0.065368295
21	0xbc202679	-0.009774798
22	0x3dc8ce04	0.09804919
23	0x3d8aafde	0.06771825
24	0x3d702c2a	0.058635868
25	0x3ccaf06b	0.024772843
26	0x3d78ec75	0.060772378
27	0x3d90b029	0.0706485
28	0xbd9b3f6e	-0.07580458
29	0xbe830c5f	-0.25595376
30	0xbe6ad801	-0.22933961
31	0xbe208d91	-0.15679003
32	0xbd87bd1a	-0.06627865
33	0xbc12ba0b	-0.008955489
34	0xbcaeb677	-0.02132724
35	0xbca06565	-0.019579599
36	0xbe1b086f	-0.15139936
37	0x3e250bcf	0.16117786
38	0x3d354056	0.04425081
39	0x3d1f98dc	0.038964137
40	0xbcaa7b6f	-0.02081081
41	0xbe2e6ec2	-0.17034438
42	0xbda9ebd3	-0.08296933
43	0xbd81df97	-0.063414745
44	0x3e1d1f8d	0.15344067
45	0x3c2e00b4	0.010620285
46	0x3e194fa6	0.1497179
47	0x3cbe3b93	0.023221767
48	0xbbaf1150	-0.00534264
49	0x38d9d63f	0.00010387273
50	0xbc6b4d1d	-0.014361647
51	0x3cc54ec0	0.024085402
52	0xbcab853a	-0.02093755
53	0x3dc44fea	0.09585555
54	0xbcfbf6aa	-0.030757267
55	0x3c58148d	0.013188493
56	0xbe0ab5b7	-0.13545881
57	0xbdbcfbe0	-0.09227729
58	0xbdac93ed	-0.08426652
59	0x3d229a54	0.03969796
60	0xbe0b7e88	-0.13622487
61	0x3da9d7d1	0.08293117
62	0xbdf5af34	-0.11996308
63	0x3de55d92	0.11199488
64	0xbe415bdb	-0.18882696
65	0x3b489cf6	0.0030611134
66	0xbe298a6f	-0.16556714
67	0x3c00cde5	0.007861589
68	0x3df41394	0.11917797
69	0x3c8e2eee	0.017356362
70	0x3df2ea6b	0.11861118
71	0xbe056fcb	-0.13030927
72	0xbc9b3cd5	-0.018949905
73	0xbe3f928a	-0.18708244
74	0x3cc22851	0.023700865
75	0xbd0529a8	-0.03251043
76	0x3d1f4c9c	0.03889142
77	0xbde8cf44	-0.11367658
78	0xbe18231f	-0.14857148
79	0xbc667a63	-0.014067265
80	0xbcf7062d	-0.030154312
81	0xbd03aae5	-0.0321454
82	0xbd639c17	-0.05556878
83	0xbcb2f260	-0.021844089
84	0x3d6ddc96	0.058071695
85	0xbc981d57	-0.018568678
86	0x3b971d9a	0.004611683
87	0xbddf3680	-0.10899067
88	0x3dbe3f4f	0.09289419
89	0x3c95872f	0.018252937
90	0xbdb5e512	-0.08881582
91	0xbd181f60	-0.037139297
92	0xbb5e709a	-0.0033941627
93	0xbdee800b	-0.11645516
94	0xbc45d3d0	-0.012074426
95	0x3cab9d67	0.020949079
96	0xbcc89f74	-0.024490096
97	0x3dd23a0f	0.1026498
98	0xbe67c7af	-0.22634767
99	0xbd656573	-0.056004953
100	0xbcaf3898	-0.02138929
101	0xbe66d169	-0.22540821
102	0x3ce05710	0.027385265
103	0xbd315934	-0.04329796
104	0x3d83a3e6	0.064277455
105	0x3d6bea0c	0.05759625
106	0xbc919ad0	-0.017774016
107	0x3cb30ac2	0.021855716
108	0x3d811942	0.06303646
109	0x3e157178	0.14594066
110	0xbbd086d0	-0.006363727
111	0x3d088cdf	0.03333747
112	0xbb3ce664	-0.0028823847
113	0x3d483ccf	0.048886117
114	0xbcc4b582	-0.02401233
115	0xbcf72b84	-0.030172117
116	0x3cbd67ae	0.023120727
117	0xbe42f10f	-0.19037269
118	0x3d993938	0.07481617
119	0xbbcbade5	-0.006215798
120	0xbe85fe9e	-0.2617082
121	0xbdd05689	-0.10172755
122	0x3e247449	0.16059984
123	0x3da33157	0.07968395
124	0xbca5ca49	-0.020238059
125	0xbd6275a2	-0.055287965
126	0xbd86f059	-0.065888114
127	0xbc9fe40a	-0.019517917

conv.2.weight f4 [16, 128, 1, 1]
0	0xbaf0a0e6	-0.0018358498
1	0xba89a295	-0.0010500724
2	0xbaec0c62	-0.0018009061
3	0xbbd3067e	-0.006439983
4	0xbb19866a	-0.0023426064
5	0xbb4ada4d	-0.0030952871
6	0x3acd12c2	0.0015645849
7	0xbb20a3da	-0.0024511726
8	0xbb63905b	-0.0034723494
9	0xbb3e0194	-0.002899264
10	0x36dab3a8	6.517821e-06
11	0x3b55e315	0.0032636572
12	0xbb4113a6	-0.0029461174
13	0x3a94ec36	0.00113619
14	0x3ba8691e	0.005139484
15	0x3a939106	0.001125843
16	0x3ae3723c	0.001735277
17	0xbb4b2b77	-0.003100125
18	0x3b1833d9	0.0023224263
19	0xbbaeb79a	-0.0053319456
20	0xb9fd7de3	-0.00048349713
21	0xb9cc4d51	-0.00038967517
22	0x3a8c2bd8	0.0010694219
23	0x39a2ca48	0.0003104976
24	0x395c33ce	0.00021000134
25	0x3b443f80	0.0029945076
26	0x3b2d6fd5	0.0026464362
27	0x3b409b9c	0.0029389625
28	0xbb347bc8	-0.00275396
29	0x3b0ce2da	0.0021497519
30	0x3b6994bc	0.003564163
31	0x3ac978da	0.00153711
32	0xba3e3918	-0.00072564324
33	0xbaf73ee7	-0.0018863351
34	0xbc42a524	-0.011880193
35	0xbb0c8f12	-0.0021447581
36	0xbb72acde	-0.0037029306
37	0x3b119877	0.002221612
38	0x3aa30da6	0.0012439981
39	0x3a607f81	0.00085639214
40	0x393d9e8f	0.00018083512
41	0x3b1e1bca	0.002412545
42	0xba553bed	-0.0008134235
43	0x3ad1a21f	0.001599375
44	0x3b1831af	0.0023222973
45	0xb9c9bcad	-0.00038478282
46	0x3b13848e	0.0022509429
47	0x3af34141	0.0018558876
48	0x3ad4ad42	0.0016225951
49	0xbbc7ede4	-0.006101357
50	0xba94b6ad	-0.0011345946
51	0xba8e6515	-0.0010863865
52	0xbb41f632	-0.0029596207
53	0x3b60cefd	0.0034303062
54	0xbab54f08	-0.0013832757
55	0xba5471a4	-0.0008104092
56	0xbb09440a	-0.0020945095
57	0xba8d1a39	-0.0010765261
58	0xbb4c0b2d	-0.003113459
59	0x3aafd500	0.0013414919
60	0x3b335240	0.0027362257
61	0x3ae72583	0.0017635081
62	0xb9f972bb	-0.00047578462
63	0x3b302919	0.0026879965
64	0x3bf2a491	0.0074048718
65	0xbb1306a1	-0.002243437
66	0xb8d632b7	-0.000102137616
67	0x3add537e	0.0016885845
68	0xb9386a26	-0.00017587151
69	0xbaf64d08	-0.0018791268
70	0x3b1edeff	0.0024241803
71	0xbb636c51	-0.0034702013
72	0xbaae46cf	-0.0013296249
73	0x3bcd2dbc	0.0062615555
74	0x3bac2365	0.005253243
75	0x3ade12f5	0.0016942905
76	0x3a3fb9b4	0.00073137437
77	0x38838d42	6.272878e-05
78	0x3b7dc016	0.0038719228
79	0x3ae7dcc3	0.0017689693
80	0xbb5fa0e8	-0.0034123007
81	0xbb3bb58f	-0.0028642153
82	0x3aad4652	0.001321981
83	0xbb5caca1	-0.003367223
84	0xbaa0ee3f	-0.0012278034
85	0xbb3a39b5	-0.0028415744
86	0xbbbbdcce	-0.005733109
87	0xbb2fcb0e	-0.002682391
88	0x3a889115	0.0010419214
89	0xbb0b5d0c	-0.0021265177
90	0xba21d804	-0.00061738514
91	0xbb0195b7	-0.0019773075
92	0x3a72f6d6	0.0009268349
93	0x3a6fe609	0.00091514044
94	0xb9ca1d6c	-0.00038550363
95	0xbb6959a1	-0.0035606402
96	0xbb00e33d	-0.0019666695
97	0x3b181c6b	0.0023210298
98	0x3b12c8ed	0.0022397593
99	0xba232845	-0.0006223957
100	0x3adcc63c	0.0016843746
101	0x3b95f184	0.00457591
102	0x3b2df516	0.0026543788
103	0xbab23d37	-0.0013598566
104	0xb86c8bbd	-5.6396926e-05
105	0x3ab5e033	0.0013876021
106	0x39eb4a9a	0.00044878275
107	0xbaf9989c	-0.0019042674
108	0x3b4b7907	0.003104748
109	0x3c2dc238	0.010605387
110	0xbbce6854	-0.006299058
111	0x3ab858d1	0.0014064555
112	0xbaefb0b1	-0.0018286911
113	0x3c13c638	0.009019427
114	0x3b06ae0d	0.002055052
115	0xbb1879c2	-0.0023265933
116	0xbad65643	-0.0016352612
117	0x3b147e0f	0.0022658145
118	0x3ab8e8b7	0.001410744
119	0x3af6f9cd	0.0018842757
120	0x3b467689	0.0030283055
121	0xbaa98de8	-0.0012935968
122	0x3b09eae0	0.0021044537
123	0x3b2c224c	0.002626556
124	0xbb7794bb	-0.003777786
125	0xbaa71765	-0.0012748061
126	0x3a4a84fb	0.0007725504
127	0xbbbc576f	-0.0057477276
128	0xbaa98728	-0.0012933956
129	0xba7f2263	-0.0009732602
130	0xbacd8833	-0.0015680849
131	0xbbb31c9c	-0.005466057
132	0xbabd04da	-0.0014421002
133	0xbb163e1b	-0.0022925201
134	0x3ab2aca2	0.0013631771
135	0xbb178282	-0.002311856
136	0xbb2fa344	-0.0026800195
137	0xbb13042a	-0.0022432902
138	0xb90391db	-0.00012547469
139	0x3b3d63e0	0.0028898641
140	0xbaf809a1	-0.0018923768
141	0x3accd18c	0.0015626415
142	0x3ba30169	0.0049745333
143	0x3aa1c7a1	0.0012342819
144	0x3af63fab	0.0018787285
145	0xbb7da73e	-0.003870442
146	0x3b11f063	0.0022268526
147	0xbba0219d	-0.0048868195
148	0xb8f198b7	-0.00011520221
149	0x38078674	3.2311727e-05
150	0x39f87381	0.00047388303
151	0x3997db07	0.00028964152
152	0x396ecc72	0.0002277361
153	0x3b16e754	0.0023026066
154	0x3b310064	0.002700829
155	0x3b42ef9d	0.0029744871
156	0xbb1d52d4	-0.0024005668
157	0x3a7ea5b3	0.0009714022
158	0x3b2f3ba1	0.0026738422
159	0x3ac95bb5	0.0015362414
160	0xba2e01eb	-0.0006637859
161	0xbabd9290	-0.0014463235
162	0xbc1b1d29	-0.009467402
163	0xba714308	-0.0009203409
164	0xbb8c18a3	-0.004275398
165	0x3b0580b8	0.0020370912
166	0x3ac33a6e	0.0014894733
167	0x3a44b2b3	0.0007503435
168	0x3a7f7f3e	0.00097464386
169	0x3b32fee5	0.0027312574
170	0x385949c9	5.180555e-05
171	0x3ad15fd6	0.0015973996
172	0x3b047d92	0.0020216447
173	0xb9b9d737	-0.00035446297
174	0x3aded35a	0.0017000244
175	0x3b233d7f	0.002490848
176	0x3abe8b0e	0.0014537291
177	0xbbb04dc3	-0.0053803637
178	0xba9dc9d3	-0.0012038298
179	0xba6ca120	-0.0009026695
180	0xbb0b298c	-0.002123448
181	0x3b4fcee8	0.003170902
182	0xbad663af	-0.0016356612
183	0xba586b53	-0.00082557386
184	0xbb052cfc	-0.0020321002
185	0xba60df99	-0.00085782405
186	0xbb3a9015	-0.0028467227
187	0x3ac13eeb	0.0014743482
188	0x3b50bede	0.0031852047
189	0x3ab11068	0.0013508918
190	0xb9d4433d	-0.00040485887
191	0x3b24c5fe	0.0025142427
192	0x3be4770e	0.0069722002
193	0xbb011927	-0.001969883
194	0xba01f509	-0.00049574726
195	0x3b0302b1	0.0019990618
196	0xba946685	-0.0011322057
197	0xbabdfe3d	-0.0014495325
198	0x3b019d60	0.001977764
199	0xbb5de859	-0.0033860414
200	0xba61134f	-0.0008585946
201	0x3bcab244	0.0061858017
202	0x3bc56336	0.0060237898
203	0x3ae83e6e	0.0017718801
204	0x3a1ab7b7	0.00059020094
205	0x3a52b7ff	0.0008038282
206	0x3b8684e9	0.0041051996
207	0x3b01ddbb	0.0019816
208	0xbb2b2c29	-0.002611885
209	0xbb1f84d9	-0.0024340658
210	0x3ac04c6e	0.0014671215
211	0xbb3dc73d	-0.0028957867
212	0xbaa5db9f	-0.0012653953
213	0xbb111ad7	-0.0022141242
214	0xbb8cb519	-0.0042940495
215	0xbae6f06b	-0.0017619258
216	0x3a9ee597	0.0012122866
217	0xbb0735f6	-0.0020631528
218	0xb9eb7d92	-0.0004491625
219	0xbad06f7a	-0.0015902363
220	0x3a68eac1	0.0008885079
221	0x3a4c13e1	0.00077849446
222	0xb9e52497	-0.00043705545
223	0xbb10c208	-0.0022088308
224	0xbaec4149	-0.0018024828
225	0x3afc0024	0.0019226116
226	0x3b146f82	0.0022649472
227	0xb99b34b7	-0.0002960318
228	0x3ae76cd0	0.001765633
229	0x3b8efaee	0.0043634092
230	0x3b39c748	0.002834754
231	0xba893669	-0.0010468486
232	0xb9ceb7bc	-0.00039428275
233	0x3ab9f3b3	0.0014187008
234	0x3a8b782f	0.0010640676
235	0xbb01b6b2	-0.0019792733
236	0x3b508c03	0.0031821735
237	0x3c090ba2	0.00836459
238	0xbbb09b13	-0.00538958
239	0x3ad8a3f9	0.001652836
240	0xba8f3b81	-0.0010927768
241	0x3c03ebe6	0.008051848
242	0x3b073b1f	0.0020634604
243	0xbb10a306	-0.0022069826
244	0xba926349	-0.0011168505
245	0x3b2cbe27	0.0026358457
246	0x3aa107de	0.001228567
247	0x3b135205	0.0022479307
248	0x3b4313d0	0.0029766448
249	0xba4a3ca5	-0.0007714725
250	0x3a821bf2	0.0009926541
251	0x3b0a9c6d	0.0021150366
252	0xbb3c9a66	-0.0028778552
253	0xb926d069	-0.00015908632
254	0x3a5e3f1e	0.0008478033
255	0xbb98de93	-0.004665205
