models/blood/28-_hinge_gaussian_identity.pth (torch, 27360 bytes, 3 tensors)

conv.0.weight f4 [128, 32, 1, 1]
000000 cc 21 8f 3d 20 cc 1d be a3 49 ee bc 58 09 eb bd
       0.06988868 -0.15409899 -0.029087847 -0.114763916
000010 29 97 2e be 45 c9 b9 3c 28 c3 4a bd 77 69 61 bb
       -0.1704985 0.02267898 -0.04950252 -0.0034395137
000020 c2 24 e6 bd 88 97 ee bd 97 31 71 3c 0f 00 e3 3d
       -0.1123748 -0.11649996 0.014721296 0.110839956
000030 5c 18 04 bd 29 a4 28 be f2 45 13 be 29 44 b1 3d
       -0.032249793 -0.16468872 -0.14382151 0.08655579
000040 df 3a 10 3e bd d4 c7 3d 7c 1a 0a 3e 9f 86 26 3e
       0.14084958 0.097573735 0.13486665 0.16262291
000050 7d e2 8a 3b be b9 53 3d 94 13 a9 3d 24 ce d0 bc
       0.0042384253 0.05169081 0.08255687 -0.02548892
000060 41 a9 52 3d 1f 47 9b 3d 3f 1a 9d bd c3 10 3e 3d
       0.051430944 0.07581925 -0.07671022 0.046402704
000070 db 91 2d 3e d5 48 15 3e e2 24 24 be 70 75 d5 bd
       0.1695017 0.14578564 -0.16029695 -0.1042279
000080 dc 6b a8 3d 24 f9 02 3e 2b b6 77 bc 7d 04 4c bc
       0.082236975 0.12790352 -0.015119116 -0.012452242
000090 0f 5e 14 be e1 8d 04 3d 35 da de 3d 74 95 a1 3d
       -0.14489006 0.03236187 0.108814634 0.07889834
0000a0 c8 53 a9 bd 37 c1 08 3e c4 37 02 3e c7 32 c2 bd
       -0.08267933 0.13354956 0.12716585 -0.09482341
0000b0 75 a0 b1 bd d2 99 a2 bd 2a bf 14 be 6f 12 28 3e
       -0.08673183 -0.07939495 -0.14526048 0.16413282
0000c0 54 5d 07 3e 4e c9 10 bc 75 61 16 3c 22 2a 37 be
       0.13219196 -0.008837057 0.009178509 -0.17887166
0000d0 c8 a2 53 bd 93 d9 99 bd 95 f3 9e 3d 0b f4 b3 bc
       -0.051668912 -0.07512202 0.07761303 -0.021966955
0000e0 54 d2 bb bd 20 69 d3 3d 42 78 81 bc 2e be b9 3d
       -0.09170976 0.103227854 -0.015804414 0.09069477
0000f0 d1 4d c2 bd 24 02 8b 3d cf 92 fe 3d d1 aa 09 be
       -0.094874986 0.06787518 0.12430345 -0.13444068
000100 05 c5 41 3c 8a 22 04 be 66 45 81 bd 96 8e 2f 3e
       0.011826758 -0.129038 -0.06312065 0.17144236
000110 15 f6 4f bd 4d f3 69 bd 64 84 04 3e 7a 2b 21 bc
       -0.05077179 -0.057116795 0.12941128 -0.009837026
000120 29 0b e4 bd 78 38 14 3e 18 d1 1d 3e e3 2d c4 bd
       -0.11134941 0.14474666 0.15411794 -0.09579065
000130 8c 08 30 bd 84 8a 37 3c d7 62 08 bb 2e d2 a8 bd
       -0.0429769 0.011202458 -0.0020810866 -0.082432136
000140 50 a8 0f bd 5c c0 32 3d 3a 62 2a be c4 9b 44 bd
       -0.035072625 0.04364048 -0.16639033 -0.048000112
000150 91 f9 32 3d 9a b0 33 3c 8d 38 e3 3d 58 0e 2a be
       0.043695036 0.010967398 0.110947706 -0.16607034
000160 07 42 1f be 55 15 c5 3c 53 3f 53 3d d1 24 2f be
       -0.15552531 0.024058023 0.051574063 -0.17103888
000170 19 f2 98 bc b5 f4 21 bc 92 ad c0 bd 24 fa 2f 3d
       -0.018670129 -0.009885003 -0.09408106 0.042963162
000180 0b e4 21 3e 5d f0 17 3e 00 ad a0 bd 5f b6 34 3e
       0.15809648 0.14837785 -0.07845497 0.17647694
000190 36 01 19 be 9a 2c 1d be 55 8d 37 3e e4 9a a1 3d
       -0.14941868 -0.15349045 0.17925008 0.07890871
0001a0 b7 af 99 3d f6 a8 97 3d d0 8e 23 be 66 ac 15 3e
       0.07504218 0.074052736 -0.15972447 0.14616546
0001b0 ff c6 f9 3d 2b 12 aa bd c1 8d af 3d 8e 6d e3 3d
       0.121961586 -0.083042465 0.08571959 0.1110488
0001c0 5c 5a 0f bd 0b bb c4 3d 94 be b2 3d 43 3e 1c 3e
       -0.034998283 0.09605988 0.08727756 0.15258126
0001d0 fa 67 25 3d 22 11 4a 3b 11 d9 a2 bc 14 7a 32 3d
       0.040382363 0.0030832966 -0.019878896 0.043573454
0001e0 06 b4 99 b9 91 83 1e 3e 30 3b 29 be 01 4a fc bd
       -0.00029316562 0.15479876 -0.16526484 -0.123188026
0001f0 b1 1d 53 3d 44 f1 2d bd e5 af d8 3d f7 2c 8f bc
       0.051541988 -0.042466417 0.10580424 -0.017477496
000200 25 0e 5a 3d 3a 48 87 3c 5f 1a 8a 3d 3f ec e3 bd
       0.053236146 0.016513932 0.06743311 -0.11129045
000210 8a 5f b6 bd 16 30 db bd 1c ae ed 3d 28 73 be bd
       -0.089049414 -0.10702531 0.11605474 -0.09299308
000220 9c 37 56 bd 69 86 0a be 62 b2 03 3e 34 b9 0d 3e
       -0.052299127 -0.13527836 0.12861016 0.1384018
000230 6c ec 96 bd 81 57 9f bd 19 09 18 be e6 69 0c 3e
       -0.07369313 -0.07780362 -0.1484722 0.13712272
000240 cb fd 32 bb 0b 1f 62 bd cf 1b 02 be 5f d6 14 3e
       -0.0027311917 -0.055205386 -0.1270592 0.14534901
000250 b8 d0 db 3d 70 e0 d4 bd 0d 16 b2 3d 36 82 c1 3c
       0.10733169 -0.103943706 0.08695612 0.02362166
000260 cc 19 da bb 9e e5 6e bd a7 63 87 bd 92 f0 a2 bd
       -0.0066559073 -0.05832445 -0.06610804 -0.079560414
000270 43 da 56 bd e3 62 7b 3d 39 79 98 bd b1 f6 33 be
       -0.052454244 0.061373603 -0.074449964 -0.17574574
000280 03 e8 f2 3d 82 a0 ba 3d 09 fd 00 be 42 6c 1f 3e
       0.11860659 0.09112646 -0.12596525 0.15568641
000290 aa 3e 25 be f9 14 47 3d d3 61 24 be 01 7e 21 3e
       -0.16137186 0.048603985 -0.16052942 0.15770723
0002a0 28 fd 12 3e 2f 0c 52 bd 5d db 10 be a8 3b 79 3d
       0.14354384 -0.05128115 -0.1414618 0.06084791
0002b0 c8 dd d1 3d 03 62 15 be ce 7f 69 bd 15 5e 26 3e
       0.102473795 -0.1458817 -0.05700665 0.16246827
0002c0 eb da c4 bd 98 1c ae 3d 05 6a db 3d 77 a1 9d 3d
       -0.09612068 0.085015476 0.10713581 0.076968126
0002d0 63 ee f2 3d e4 bb 26 3e b3 6a d5 3d 7c b8 28 be
       0.11861875 0.16282612 0.10420742 -0.16476625
0002e0 57 b4 83 3b 4e 0e 8c bd 15 6d ea 3b 03 16 01 3e
       0.004019301 -0.06838666 0.007154117 0.12606053
0002f0 05 70 27 be bc d3 ff bd 5d d1 ac bd b1 aa f4 3c
       -0.16351326 -0.12491557 -0.084383704 0.029866548
000300 f0 28 bb 3d e5 1c 2d 3d b6 3d 24 bd 5f 83 0b be
       0.091386676 0.042263884 -0.040097915 -0.13624333
000310 b3 f6 22 bc 1c 7b e4 bd 20 51 ce bc c0 e9 f1 3d
       -0.009946513 -0.11156294 -0.025185168 0.118121624
000320 e1 da f8 3c 2a 67 17 be 03 20 9d bc 77 ba a3 bc
       0.030377807 -0.14785448 -0.019180303 -0.019986374
000330 61 0e 80 bd d0 03 cc 3d f8 47 1a 3e a4 94 22 be
       -0.062527426 0.09961665 0.15066516 -0.15877014
000340 d7 a5 3f 3d fa 8e 00 3e 84 39 d0 3d 98 76 6c bd
       0.046789017 0.12554541 0.1016722 -0.057730287
000350 4f 90 3e 3b 39 04 40 3e f9 7b 76 3c fa 8c d1 bc
       0.0029077714 0.18751611 0.015044206 -0.025579918
000360 80 45 03 3e 54 b4 9b bd 77 ee 1f bc c5 6b 56 bd
       0.12819481 -0.07602754 -0.009761444 -0.05234887
000370 05 e4 68 bc 03 9b 1e 3e 5e 80 16 bd 65 16 8b 3b
       -0.01421452 0.1548882 -0.036743514 0.004244613
000380 1f c2 d7 bd 10 97 83 bd 03 13 6f 3d 47 68 25 be
       -0.105350725 -0.06425297 0.05836774 -0.1615306
000390 e8 fc 86 bd 58 c4 1f 3e 0d 94 fa 3d 3e d8 64 bd
       -0.06591207 0.15602243 0.1223527 -0.055870287
0003a0 18 ca e8 bd 73 48 0d be 3e af 42 bd 1b bb 25 3d
       -0.11366671 -0.13797168 -0.047530405 0.04046164
0003b0 fb ea e1 3c c6 57 18 3d 6a ab 61 bc 90 04 8d bc
       0.027577868 0.037193082 -0.013773778 -0.01721409
0003c0 1c 55 ab bd 3a 44 13 be 7a 39 ed bd 4f 3d eb bd
       -0.08365843 -0.14381495 -0.115832284 -0.11486303
0003d0 33 98 a0 bd a2 46 99 bc 07 47 e0 3c 41 25 29 3e
       -0.0784153 -0.018710438 0.027377618 0.16518117
0003e0 2a ff a6 bc 98 51 af 3d e0 c1 05 3e 8c 9e ab bc
       -0.020385344 0.08560485 0.13062239 -0.020949624
0003f0 3a 58 8e 3d 22 de 0d 3e 7c 65 8c 3c 53 68 f5 bd
       0.06950422 0.13854268 0.017138235 -0.11982789

conv.0.bias f4 [128]
000000 c2 e1 92 3d 09 2b e5 bd 8e e6 35 bc 29 8c d4 bd
       0.07171966 -0.11189849 -0.011102332 -0.10378296
000010 7d d3 6c bd ea 75 95 3d 1e b8 f5 3c c0 35 b7 bc
       -0.05781888 0.07297881 0.02999502 -0.022364497
000020 65 51 47 bd e0 27 54 3d eb 39 59 bd f6 10 02 3e
       -0.04866161 0.05179584 -0.05303375 0.12701783
000030 aa 7c 35 3e 1d 05 81 3d f8 1f 80 bd 56 85 be 3d
       0.17723337 0.062998034 -0.062560976 0.093027756
000040 85 97 2f 3e 39 b2 3b be 00 42 88 bd 48 60 35 3e
       0.17147644 -0.18329705 -0.066532135 0.1771251
000050 6a 6f 32 be fd 38 1e be 95 b3 06 3e ba 4d 29 3e
       -0.17425314 -0.15451427 0.13154443 0.16533557
000060 db ab 19 be 2a df c3 bc b3 56 39 be e6 00 12 3e
       -0.15006964 -0.023910124 -0.1809948 0.14258155
000070 9b f1 a3 bc 9d 99 05 3d 56 59 d8 bd 59 2c ea bd
       -0.020012667 0.0326172 -0.105639145 -0.1143424
000080 b6 9b 84 bd b5 1c 4f bd 01 19 bb 3d 5a cd be bd
       -0.06475012 -0.050564487 0.091356285 -0.093165115
000090 2d 21 1c 3e df 5f 69 bc 78 f6 3d 3c c4 81 07 bd
       0.1524703 -0.014244049 0.011594407 -0.03308274
0000a0 53 18 6c 3d 3d 8a 00 3e 20 12 a8 bd 61 75 5e 3d
       0.057640385 0.12552734 -0.08206582 0.05431116
0000b0 05 fc 31 be 24 53 bb bc c6 9c 1c be dd fc a0 3d
       -0.17381294 -0.022866793 -0.1529418 0.0786073
0000c0 89 82 36 bd 14 25 20 3e 1f 78 1b 3e 7d 0b 9a 3d
       -0.04455808 0.15639144 0.15182541 0.075217225
0000d0 ec be e6 3c cb bb 09 bd b0 75 2c be c8 25 04 be
       0.02816721 -0.03362636 -0.16841769 -0.12905037
0000e0 b3 4f 6a 3d 39 96 0f 3e 75 b8 02 be f2 68 e4 3c
       0.057204913 0.14022149 -0.12765677 0.027882073
0000f0 55 57 bc bd f6 5c 23 3e 64 8c bb 3d 40 ed 1e be
       -0.09196345 0.1595343 0.09157637 -0.15520191
000100 96 17 16 be a8 45 28 3e 3f 39 1e bd 34 06 d1 3d
       -0.14657435 0.16432822 -0.038628813 0.10206261
000110 ff a2 01 be 3e b5 a7 bd 9f 63 e5 3d 44 ad b7 bd
       -0.12659834 -0.08188866 0.11200642 -0.08968595
000120 60 ff 9b 3d 93 ce 02 3e ac a2 63 bd f6 bb 21 3e
       0.07617068 0.12774114 -0.055575058 0.15794358
000130 8f 77 70 3d 99 d8 d3 bd 78 8d 13 3e 3f d6 d9 bd
       0.05870777 -0.10344047 0.14409435 -0.10636567
000140 5e ca 1e bd a4 1e 1d bd 10 9c 4e ba 65 8a 0d bd
       -0.03876721 -0.0383593 -0.00078815315 -0.03455581
000150 73 3a 1d be e3 e6 0f 3e ef 28 eb 3d 24 99 46 3d
       -0.15354328 0.1405292 0.11482417 0.04848589
000160 47 61 1c be 5b 13 b6 bd 4f 6e 1b be de 89 f7 bc
       -0.15271483 -0.088904105 -0.15178798 -0.030217107
000170 b6 7c b0 3c 2e b3 02 3e 04 3d 58 3d 77 8f 1a bd
       0.021543842 0.12763664 0.052792564 -0.037734475
000180 af 84 ef bd 3c fd aa 3d 35 43 0b 3e 64 0e 33 3e
       -0.11695229 0.08349082 0.13599856 0.17485958
000190 6a 76 f8 3d bf 60 5a bd 13 02 21 be b2 78 8c bd
       0.12131961 -0.05331492 -0.15723448 -0.06858958
0001a0 06 98 03 bd 0c e5 04 be 05 00 2a be e8 ad d3 3c
       -0.032127403 -0.12978 -0.1660157 0.02583976
0001b0 4b bf 1e 3c 8d 51 fa bd c4 10 f4 bd cf 20 d2 bc
       0.0096891625 -0.12222586 -0.1191726 -0.02565041
0001c0 64 f5 01 3e a3 9b 93 bd b2 7c 98 bd 02 63 c3 3c
       0.12691265 -0.0720742 -0.07445659 0.023850922
0001d0 41 13 0c be 48 47 82 bd 5a 3c d9 bd d9 75 3c bc
       -0.1367922 -0.06361252 -0.10607214 -0.011502706
0001e0 d8 9a b9 3d c2 39 67 3d 3f 3e 3f be 40 3a 4a bd
       0.09062737 0.056451567 -0.18676089 -0.049371958
0001f0 1f c5 39 3e b5 c7 1a bc 18 eb d2 3d 69 ad a7 3d
       0.18141602 -0.009447028 0.10298747 0.08187372

conv.2.weight f4 [16, 128, 1, 1]
000000 c8 46 7d 3c 6c e6 2f bc a7 8b ce bb 96 ac 34 bc
       0.01545877 -0.010736089 -0.006303269 -0.011027476
000010 7f 1e 20 bc fe 82 26 ba 76 87 3c 3a 76 95 a5 bb
       -0.009772896 -0.0006351917 0.0007191816 -0.0050532175
000020 26 80 b8 bb 94 a3 11 3d 77 b5 a8 bc 1f dc 75 3c
       -0.005630511 0.03555639 -0.020594342 0.015006094
000030 ae 95 53 3c 8e 34 0f 3c f5 24 11 bc 9f 92 0e 3c
       0.012914104 0.008740557 -0.008858909 0.008701949
000040 81 c6 5d 3c ca 6b 37 bc 04 c7 c3 bb 34 42 ed 3b
       0.013536097 -0.0111951325 -0.0059746522 0.007240558
000050 91 ef 3a bc ff f3 24 bc 2f 60 03 3c 82 48 a8 3c
       -0.011409656 -0.010067939 0.008018537 0.020542387
000060 71 3f 94 38 24 cd 36 bb b3 e4 2f 3b 88 2b 41 3c
       7.069007e-05 -0.002789327 0.0026839196 0.011790164
000070 63 a1 bd bb df 8b 1c 3b 36 b9 97 3b 1d 0a c0 39
       -0.005787061 0.002388708 0.004630233 0.0003662863
000080 5b ca de bb 54 04 a6 bb 6f cb 8f 3c 57 25 29 bc
       -0.006799025 -0.005066434 0.01755306 -0.010323844
000090 fb 61 60 3c e9 d9 3d bc ef a2 29 bb d7 7a bb 3b
       0.013695235 -0.011587598 -0.002588447 0.0057214308
0000a0 b5 5d 11 3d fe e8 b9 3b 66 2a be bb 66 97 1d 3a
       0.035489757 0.005673527 -0.005803394 0.0006011635
0000b0 c7 c9 19 bc c3 fa 18 bc 1b 81 49 bc 13 25 0c 3c
       -0.009386486 -0.00933713 -0.012298848 0.008553761
0000c0 30 2f 13 bc 90 83 33 3c 7e 86 37 3c 65 60 2d 3c
       -0.008983418 0.01095666 0.011201499 0.010582064
0000d0 5a 74 1c 3c 27 c8 8e bb 76 28 90 bc 14 41 15 bc
       0.009549225 -0.004357356 -0.017597418 -0.009109754
0000e0 53 e3 af 3b e0 f4 bd 3c 2f d7 af bb c1 ca 7c 3a
       0.0053676753 0.023188055 -0.005366228 0.000964325
0000f0 06 15 90 bb 0f 89 c5 3b 78 95 d4 b8 66 b6 42 bc
       -0.0043970374 0.0060283015 -0.000101367885 -0.0118843075
000100 37 88 cb bb 79 9f 85 3c c1 6d 63 bb bc e4 9b 3c
       -0.0062113064 0.016311394 -0.003470287 0.019029967
000110 bf d4 47 bc 21 f2 bb bb c3 4d f8 3b 8b 07 c8 bb
       -0.012196719 -0.005735651 0.0075776293 -0.006104415
000120 e1 68 15 3b be 03 73 3c 8a b8 76 3b fc 35 3b 3c
       0.0022798108 0.014832435 0.0037646615 0.011426445
000130 24 50 2b 3c 87 56 05 bc ed 93 59 3c 9b 07 2f bc
       0.010456119 -0.0081383055 0.013279897 -0.010682966
000140 8d 92 eb bb 5f b2 07 bc 69 f5 bf bb dc db 08 bc
       -0.007189101 -0.008282273 -0.0058581126 -0.0083532
000150 47 16 21 bc 13 92 25 3b e2 63 0c 3d 46 59 92 3b
       -0.0098319715 0.002526407 0.034274943 0.0044662086
000160 35 80 76 bc e4 68 c4 bb 97 f9 bd bb 78 9e b2 bb
       -0.015045215 -0.0059939492 -0.0057975757 -0.00545102
000170 14 45 c8 3b d1 62 0f 3c 15 a8 3c 3b 50 1c 20 bc
       0.0061117504 0.008751587 0.0028786708 -0.009772375
000180 3a 4d 0b bc 03 8c 4d 3b f3 97 9a 3c e6 3e 74 3c
       -0.008502299 0.003136397 0.018871283 0.014907574
000190 f0 99 8e 3c 5a 39 18 bc 13 37 ff bb 29 6a a6 bb
       0.017407387 -0.009291017 -0.007788548 -0.0050785732
0001a0 75 19 2e bb 53 ca b8 ba b4 f1 8d bc 34 39 9c ba
       -0.0026565467 -0.0014098383 -0.017327167 -0.0011918903
0001b0 f7 c5 ad 3a 48 9b 82 bc 22 2a 6c ba e2 fc de bb
       0.0013257851 -0.015943184 -0.0009008964 -0.0068050483
0001c0 5e 71 8c 3c ed 5c c7 bb 0d ba ba 3a 72 6a 95 3b
       0.017143901 -0.0060840757 0.0014246121 0.0045598084
0001d0 3d a6 25 bc 99 92 48 bc 2d 78 9b bb a4 36 b0 39
       -0.010110435 -0.012241983 -0.0047445507 0.00033610046
0001e0 bd 65 e9 3b 11 d6 ec 3b 9f 2e 50 bc 48 f6 79 bb
       0.007122724 0.007227667 -0.012706428 -0.003814118
0001f0 16 1b 1d 3c 7a 5f 82 bb 78 12 d6 3b ba 6a 83 3b
       0.009588977 -0.003978667 0.0065329634 0.0040105255
000200 e1 3d 7d 3c e9 ec c4 bb f8 b7 38 bc 17 31 80 bc
       0.015456648 -0.006009687 -0.01127433 -0.015648408
000210 5f e5 10 bc 7e a2 45 bb f5 c2 5b 3c d1 b8 b4 3a
       -0.008843749 -0.0030156667 0.013413181 0.001378799
000220 36 82 ac bb 2f cd 8e 3b e6 80 96 bc f5 be 9e 3c
       -0.005264546 0.004357956 -0.01837201 0.019378165
000230 32 84 1d 3c 5c fd 2d 3c 0e a7 04 bc 3a 87 fa 3b
       0.009614037 0.010619488 -0.00809647 0.007645515
000240 4c 6a 0d 3c ff b9 0f bc 80 40 c1 bb 6b 7d 1f 3b
       0.0086313 -0.008772372 -0.0058975816 0.002433623
000250 32 17 f1 bb ed 98 40 bb 44 c3 50 3b de 70 56 3c
       -0.0073575014 -0.0029388026 0.0031854669 0.013088433
000260 0c 01 8e bc 25 d6 bf bb 54 86 de bb 37 d4 64 3c
       -0.017334484 -0.0058543854 -0.0067909155 0.013966612
000270 f5 20 22 bc 48 33 fe 3b 81 3c 14 3c 40 59 b8 bb
       -0.009895553 0.007757578 0.009047628 -0.005625874
000280 3c c7 f9 39 ad 86 ab bb 76 be 00 3c 14 fd ba bb
       0.00047641422 -0.0052345605 0.007857909 -0.005706439
000290 95 39 45 3c 28 76 11 3c 11 63 25 3b a5 9b 93 3b
       0.012037654 0.008878268 0.002523605 0.0045046383
0002a0 f1 30 b0 3c a7 9e 12 3c aa 4d 2b 39 d9 7a 74 3b
       0.021507712 0.0089489585 0.00016336763 0.0037304668
0002b0 10 15 e1 bb 89 51 a7 bb 1f 72 06 bc dd b7 b4 3b
       -0.006868966 -0.0051061553 -0.0082059195 0.0055150823
0002c0 a3 36 aa 3b 2b 0c 9f 3b bf 26 a2 3c 41 20 e5 3b
       0.0051945015 0.0048537455 0.019793866 0.0069923704
0002d0 33 02 2a 3c e2 cd 8c ba bf e4 1b bc 9e ea 5b bc
       0.010376501 -0.001074251 -0.009514987 -0.013422636
0002e0 08 9b 4f bb 53 35 c0 3c d8 e0 db bb ce 85 05 bc
       -0.00316781 0.023462927 -0.006710153 -0.008149577
0002f0 87 01 ee bb 8a 72 b8 3b 4a fc 94 3b 97 75 2f bc
       -0.0072633657 0.0056288885 0.0045466768 -0.010709188
000300 f3 66 43 3c a3 f9 3c 3c b5 6c 71 bb 87 b4 9c 3c
       0.0119264005 0.011534127 -0.0036838476 0.01912905
000310 15 8e 09 bb cb 56 aa bc 39 fd c8 3b 82 80 c1 bb
       -0.0020989229 -0.02079334 0.006133702 -0.005905212
000320 51 99 c2 b9 24 80 94 3c 0b 1a 51 3c 09 2c 34 3c
       -0.00037116793 0.018127508 0.012762557 0.010996827
000330 7d 09 dd 3b b8 54 f9 bb c6 06 9f 3c 7f 42 4d bc
       0.006745516 -0.007608976 0.01941241 -0.012528061
000340 c2 53 36 bc 82 d6 9d bb 73 80 c8 3b aa 79 b5 3a
       -0.011128368 -0.004816831 0.006118828 0.0013845463
000350 d8 a7 2b bb fa ca 1c 3b 60 2d b9 3c 40 5b e7 ba
       -0.0026192572 0.0023924694 0.022604644 -0.0017651096
000360 02 40 94 bc 5c ef ba 3b 57 3a 33 3b b5 df 07 bc
       -0.018096928 0.0057048034 0.0027348006 -0.008293082
000370 86 24 9e 3b f5 71 c6 3b 56 a1 2a bb 78 df 44 3b
       0.0048261313 0.006056065 -0.0026036105 0.0030040424
000380 53 09 e0 bb a1 bc fa 3b 35 b7 3a 3c 9d 42 02 3c
       -0.006837049 0.007651881 0.011396219 0.007950452
000390 95 8e 95 3c 08 e7 30 bc 2e 20 73 bb 8c 2b 6f ba
       0.018256465 -0.01079727 -0.0037098038 -0.00091236155
0003a0 53 1c d8 bb 50 c9 03 bb 4e 13 d2 bb 31 42 c3 bb
       -0.0065951734 -0.0020109005 -0.0064109927 -0.0059588184
0003b0 1f c4 02 bc e8 9c a9 bb 8e 32 08 3b c4 c0 79 bb
       -0.007981329 -0.0051761754 0.0020782086 -0.0038109282
0003c0 f0 93 5e 3c e6 d6 6e 3b ec 2e 12 bc 96 db 93 3a
       0.013585076 0.0036444007 -0.00892232 0.0011280652
0003d0 a5 47 e4 bb fd ca ec 3a 8c 14 6d bc 3b cc 2d 3b
       -0.0069665485 0.0018065866 -0.014470231 0.0026519436
0003e0 45 3c 18 3c 9e 5d ff 3a a4 48 48 3b 0c 7c 03 ba
       0.009291713 0.0019482856 0.0030560875 -0.0005015738
0003f0 ae c1 11 3c 98 9f ed 39 24 51 d6 3a 41 a7 81 bb
       0.0088962745 0.0004532307 0.0016351086 -0.003956706
