models/blood/28-_manhattan_laplacian.pth (torch, 19140 bytes, 3 tensors)

conv.0.weight f4 [128, 16, 1, 1]
0.28278342 0.25171942 -0.14977825 -0.22055112 0.0455679 0.14467822 -0.02006188 -0.0057861116
0.0018009392 -0.1385933 -0.04466554 0.26265165 0.15624142 -0.04573869 0.14557189 -0.068670884
0.06074435 0.21722913 -0.11904804 -0.015812088 -0.21136554 0.10598016 -0.1018052 0.019109145
0.14724225 0.13289209 0.13124986 -0.11181487 -0.03579633 0.019756023 -0.15551646 0.16065998
0.20476986 -0.17648667 0.09621791 -0.09632941 0.07955171 0.08919924 0.21096356 0.18288563
-0.107672416 0.07100783 0.0059022564 0.055039365 -0.20210052 -0.03708214 0.18469116 -0.08386975
-0.06875097 0.09011647 -0.057803772 0.120176576 0.1527832 0.12559254 0.06940374 -0.1452553
0.11286156 -0.112541124 -0.057865478 0.27442113 -0.25329447 -0.20932928 -0.13747096 -0.06785752
-0.28015226 0.03157415 -0.050134175 0.41368216 0.2018925 0.11517282 -0.07734637 0.07126919
-0.13720605 0.08377537 0.21679506 -0.06702545 0.075842135 -0.10154247 0.07504354 -0.07962658
0.08925573 0.1680635 -0.1443902 0.02884547 -0.18256547 -0.1998052 0.11071172 0.03304355
0.21209046 -0.13912806 0.22346652 -0.007413722 0.04989121 0.09473792 -0.12281816 -0.09696159
0.21566425 0.12981206 -0.18595779 0.2955751 -0.09859543 -0.030496225 -0.09330094 0.036700517
0.18562272 0.24862155 -0.17378274 -0.028281894 -0.001639654 0.11774776 -0.041530073 -0.12152264
0.04527133 0.13287863 0.034719106 -0.21648884 -0.062872835 0.13449538 -0.13325585 -0.18258403
-0.04092482 0.056004424 -0.16306618 0.26557255 0.12060743 0.015667146 0.14317168 -0.23133118
0.09154997 -0.12402701 -0.14754805 -0.0313743 0.06695975 0.020627195 -0.13152018 -0.22052982
-0.14337362 -0.14672638 0.12816736 -0.04789164 -0.020894472 0.17180283 -0.2494053 0.17022073
-0.18681686 -0.18034719 -0.19882633 -0.005219262 -0.14670768 0.15877204 -0.23944335 -0.13852865
-0.059076816 0.20223846 0.25435296 0.20596145 -0.1536835 -0.06706342 -0.1962588 -0.19822685
0.085765794 -0.2261814 -0.065960586 0.33924225 0.200952 0.19841759 -0.010474813 0.037286706
-0.13481127 0.070015565 0.04019622 0.010120447 0.047982275 -0.16316515 0.18848571 -0.11980808
0.18986134 0.11989322 0.16524407 0.26229218 0.12967236 0.049292665 -0.04235191 -0.17068937
-0.02034537 -0.097519375 0.06064277 -0.14535409 -0.017131679 -0.23340672 0.08845975 0.18798508
-0.00044439477 -0.071138084 0.03855152 0.048811127 -0.09148801 -0.04391023 0.15173922 -0.24383955
-0.021647936 0.033411358 -0.19683367 0.0057446826 -0.13432972 -0.13072278 0.22692639 -0.13311563
-0.008676625 0.11117391 -0.013398142 0.14789829 0.14072621 0.10203921 0.0122220535 0.12602124
0.08209536 -0.044784207 -0.029276475 0.1538782 -0.16671607 -0.14732671 0.20497616 -0.004499221
0.0921381 0.031619813 0.19116734 -0.029605718 0.15231289 -0.017840024 -0.22972472 -0.049939316
-0.06548764 -0.12765655 0.13174535 0.11417735 0.076899 -0.16744067 0.072259374 0.098601714
0.28882706 0.23707744 0.038695853 0.36432415 0.032737162 -0.14748475 0.1676556 -0.06990415
-0.19145894 0.06467029 0.15892878 0.21905893 -0.033209257 -0.068260215 -0.08783538 -0.07299459
00000000: fdc8 903e 5ee1 803e 785f 19be 27d8 61be
00000010: 68a5 3a3d 8726 143e d058 a4bc 6c99 bdbb
00000020: 7e0d ec3a 67eb 0dbe 37f3 36bd 477a 863e
00000030: c0fd 1f3e 7e58 3bbd cc10 153e 52a3 8cbd
00000040: 11cf 783d 5071 5e3e 75cf f3bd 5a88 81bc
00000050: 3570 58be 200c d93d 3f7f d0bd c88a 9c3c
00000060: acc6 163e dd14 083e 5d66 063e 32ff e4bd
00000070: 2c9f 12bd 62d7 a13c b53f 1fbe 0d84 243e
00000080: 31af 513e ecb8 34be e50d c53d 5b48 c5bd
00000090: 02ec a23d 17ae b63d d506 583e 5f46 3b3e
000000a0: 5b83 dcbd 8e6c 913d b767 c13b f570 613d
000000b0: 70f3 4ebe 71e3 17bd ae1f 3d3e e7c3 abbd
000000c0: 4fcd 8cbd fc8e b83d a6c3 6cbd 231f f63d
000000d0: 3373 1c3e 559b 003e 8c23 8e3d cebd 14be
000000e0: f623 e73d f67b e6bd 5a04 6dbd ed80 8c3e
000000f0: d0af 81be 6a5a 56be 30c5 0cbe e2f8 8abd
00000100: 1e70 8fbe e553 013d 7e59 4dbd 26ce d33e
00000110: e8bc 4e3e badf eb3d c667 9ebd 95f5 913d
00000120: be7f 0cbe 6c92 ab3d 86ff 5d3e a444 89bd
00000130: 1f53 9b3d 80f5 cfbd 6db0 993d 4313 a3bd
00000140: b5cb b63d d718 2c3e 06db 13be 564d ec3c
00000150: 71f2 3abe bc99 4cbe d4bc e23d ac58 073d
00000160: 3e2e 593e 9677 0ebe 68d4 643e cfee f2bb
00000170: ba5a 4c3d f405 c23d 1688 fbbd cc93 c6bd
00000180: 17d7 5c3e 74ed 043e b86b 3ebe 9f55 973e
00000190: 67ec c9bd 38d3 f9bc 9014 bfbd 4853 163d
000001a0: e213 3e3e a696 7e3e 1af4 31be 6eaf e7bc
000001b0: a9e9 d6ba bd25 f13d 701b 2abd dde0 f8bd
000001c0: 6e6e 393d 5611 083e 9f35 0e3d 40af 5dbe
000001d0: 79c3 80bd 28b9 093e 3974 08be 4ff7 3abe
000001e0: c9a0 27bd e564 653d d2fa 26be 20f9 873e
000001f0: 0701 f73d 6358 803c 999b 123e 15e2 6cbe
00000200: 8d7e bb3d df01 febd d616 17be 5782 00bd
00000210: 3222 893d 5dfa a83c 3aad 06be 92d2 61be
00000220: 89d0 12be 713f 16be 4e3e 033e 062a 44bd
00000230: e22a abbc 15ed 2f3e 1a64 7fbe 584e 2e3e
00000240: eb4c 3fbe efac 38be 2199 4bbe 5806 abbb
00000250: 8a3a 16be 2395 223e a330 75be 74da 0dbe
00000260: 88fa 71bd 9917 4f3e 8d3a 823e 8fe7 523e
00000270: 355f 1dbe 8c58 89bd 11f8 48be fbfb 4abe
00000280: faa5 af3d 199c 67be 5816 87bd 29b1 ad3e
00000290: 5cc6 4d3e fb2d 4b3e 8d9e 2bbc f2b9 183d
000002a0: f70b 0abe 5264 8f3d cba4 243d 3bd0 253c
000002b0: 1089 443d c414 27be 6602 413e f05d f5bd
000002c0: 036b 423e 948a f53d be35 293e 294b 863e
000002d0: d5c8 043e 1be7 493d 3279 2dbd 32c9 2ebe
000002e0: 55ab a6bc 3db8 c7bd 8e64 783d b4d7 14be
000002f0: bc57 8cbc 2c02 6fbe 632a b53d 297f 403e
00000300: a8fd e8b9 d8b0 91bd 33e8 1d3d 2dee 473d
00000310: 115e bbbd 37db 33bd 8761 1b3e 13b1 79be
00000320: 0357 b1bc 59da 083d c48e 49be e43d bc3b
00000330: bb8d 09be 31dc 05be 645f 683e 774f 08be
00000340: 6728 0ebc 26af e33d e183 5bbc a672 173e
00000350: 881a 103e eff9 d03d 023f 483c b60b 013e
00000360: 9d21 a83d a56f 37bd 38d5 efbc 3f92 1d3e
00000370: 9eb7 2abe d0dc 16be 45e5 513e 346e 93bb
00000380: e6b2 bc3d c783 013d 5fc1 433e b187 f2bc
00000390: e9f7 1b3e 3e25 92bc f53c 6bbe 2b8d 4cbd
000003a0: 621e 86bd 66b8 02be 41e8 063e d1d5 e93d
000003b0: 397d 9d3d 9175 2bbe b9fc 933d b2ef c93d
000003c0: 24e1 933e 6ec4 723e 8b7f 1e3d b288 ba3e
000003d0: 6717 063d 3e06 17be e9ad 2b3e e829 8fbd
000003e0: d00d 44be db71 843d 3abe 223e fc50 603e
000003f0: 6e06 08bd 03cc 8bbd 09e3 b3bd 307e 95bd

conv.0.bias f4 [128]
0.14348528 0.11026147 0.19265653 0.102948025 0.025667427 0.02630579 0.1433626 0.13120215
-0.05959785 0.09844031 0.12257408 -0.17065611 -0.016258422 0.08933272 0.091319874 -0.22144264
-0.0456678 -0.25320393 -0.19770147 0.12268178 -0.20341012 0.05548249 -0.045548454 -0.07458489
-0.10378625 -0.11765676 0.21158473 0.19110304 -0.17112878 -0.0102217 0.14030008 -0.16406995
-0.014217191 -0.05008076 -0.23545957 -0.14486988 -0.22769858 0.076884024 0.0241887 0.019772954
-0.004089601 0.19754213 0.100708246 0.11037449 -0.04268367 -0.014562808 -0.05854689 0.06362295
-0.05425186 -0.16225697 0.03805569 0.10920673 -0.07044901 -0.07295865 0.17878518 0.111026615
-0.020820787 -0.27288657 -0.22135307 -0.012347199 0.051867086 -0.038804587 -0.098964795 -0.020838335
-0.21314953 0.022285318 0.09317148 0.1468688 -0.25089443 -0.15870698 0.103309035 -0.07719424
0.17749129 0.16042392 -0.10880121 -0.13834272 -0.016200168 0.06249146 0.118683524 0.05398786
0.096416794 0.052927446 0.16873671 -0.2118981 0.13532443 -0.2098834 -0.028346634 -0.2641832
0.051567517 0.16232553 0.1353041 -0.20687164 0.17933632 -0.1697248 -0.089566976 0.14582106
-0.0015502461 0.1218474 -0.04240638 0.22195135 0.18129505 0.08317138 -0.19208883 0.18364882
-0.1556714 0.14615947 -0.23737678 -0.2163624 -0.013080143 -0.03985091 -0.06368808 0.114788964
-0.05314566 -0.02869627 0.2160889 0.104758956 0.13435094 0.027078552 -0.18410018 0.0026036222
0.14841497 -0.19836833 -0.21078365 -0.28546184 -0.07264434 -0.15313937 -0.111563206 -0.014681311
00000000: ceed 123e c4d0 e13d c147 453e 6ad6 d23d
00000010: 7f44 d23c 3d7f d73c a5cd 123e db59 063e
00000020: e01c 74bd 139b c93d 1f08 fb3d 7ac0 2ebe
00000030: 6230 85bc 13f4 b63d ea05 bb3d dcc1 62be
00000040: 290e 3bbd f2a3 81be 4172 4abe 9640 fb3d
00000050: be4a 50be 9c41 633d 0491 3abd f6bf 98bd
00000060: e38d d4bd 07f6 f0bd aba9 583e 84b0 433e
00000070: 623c 2fbe eb78 27bc d3aa 0f3e f401 28be
00000080: 39ef 68bc 7c21 4dbd 501c 71be c558 14be
00000090: d129 69be 5f75 9d3d 6127 c63c e4fa a13c
000000a0: 0f02 86bb 7c48 4a3e 2040 ce3d 050c e23d
000000b0: 12d5 2ebd d898 6ebc ddce 6fbd c04c 823d
000000c0: 3337 5ebd b126 26be 48e0 1b3d c7a7 df3d
000000d0: 9247 90bd 586b 95bd 7613 373e ec61 e33d
000000e0: 5b90 aabc cab7 8bbe 61aa 62be e84b 4abc
000000f0: 9572 543d 8ff1 1ebd 0eae cabd 28b5 aabc
00000100: df43 5abe b38f b63c b0d0 be3d c664 163e
00000110: 3c75 80be 1584 22be b093 d33d 0418 9ebd
00000120: 47c0 353e 2b46 243e 2bd3 debd b7a9 0dbe
00000130: 37b6 84bc 0cf7 7f3d 5910 f33d 6022 5d3d
00000140: 2b76 c53d 73ca 583d 51c9 2c3e d1fb 58be
00000150: 7d92 0a3e adeb 56be 3337 e8bc 0543 87be
00000160: 7638 533d aa38 263e 288d 0a3e 29d6 53be
00000170: f1a3 373e 57cc 2dbe e46e b7bd 1e52 153e
00000180: a131 cbba 218b f93d 50b2 2dbd 3747 633e
00000190: 69a5 393e c255 aa3d efb2 44be 700e 3c3e
000001a0: 5368 1fbe d4aa 153e e612 73be 1b8e 5dbe
000001b0: 194e 56bc b53a 23bd e56e 82bd 7a16 eb3d
000001c0: 43af 59bd 7114 ebbc 6946 5d3e dd8b d63d
000001d0: 4b93 093e d7d3 dd3c c284 3cbe 88a1 2a3b
000001e0: 18fa 173e 1121 4bbe abd7 57be 0e28 92be
000001f0: 8ec6 94bd 91d0 1cbe 407b e4bd e289 70bc

conv.2.weight f4 [16, 128, 1, 1]
0.015624692 0.0057561486 0.019447017 -0.0061774137 -0.016141944 0.004052347 0.0033335073 0.010214459
-0.0033418268 0.004561415 -0.0069649364 0.0017001344 -0.022991339 -0.001569293 0.003184931 0.031358883
-0.021894401 0.0049556815 0.025917819 0.016606834 -0.012480413 -0.006801122 -0.0029404701 -0.0071380595
-0.016976327 -0.018523246 0.010659732 0.011522797 0.020868344 0.016851211 -0.0032652484 0.0076595126
-0.020167997 0.00025600457 -0.018125622 -0.016394889 0.019922465 0.01485242 -0.037561644 -0.0008499466
-0.0044522495 0.004918415 0.000852907 0.008599458 -0.03180612 0.050057836 -0.040781997 0.0071186577
-0.0100495545 0.0080832485 0.004908901 0.0008708448 0.00066703086 -0.023403112 0.010870042 0.0032992456
-0.024156125 0.011427105 0.005944981 -0.022973439 -0.0015647362 -0.009891507 -0.012657304 -0.025383174
0.025969554 0.0072194072 0.0045399843 -0.0026472367 0.019852847 0.0058033527 -0.020069813 -0.019988084
0.008140884 0.01337603 -0.041616477 0.013236146 0.0036766997 0.00035514912 -0.007186156 0.0065496126
0.011659052 -0.0021951806 0.001681801 0.005893272 -0.0007813316 -0.025593495 -0.02745787 -0.005846274
0.015596079 0.006631565 0.010446372 0.037503656 0.0012435155 -0.020521466 -0.042357035 0.011000038
0.028536264 0.0053064455 0.010630546 0.027579468 0.014997296 0.0009861885 0.01708998 0.005313064
0.0046627754 -0.0040750154 0.017725168 -0.010367025 -0.009416674 -0.024364386 0.0015547575 -0.0029043774
-0.008750794 -0.0070342747 -0.00058940443 -0.0012515797 0.006508041 -0.0056951465 -0.0057526873 -0.019545447
0.007683123 -0.0009330796 0.0058516082 0.0017275419 -0.019161992 -0.007523421 0.00611888 -0.002108581
0.017296392 0.0133446 0.00048052653 -0.00482429 -0.011692383 0.012504912 0.005943114 0.0148426695
-0.0111864675 0.004787624 -0.021653626 -0.009661193 -0.01809588 -0.003838686 -0.0048652296 0.042085413
-0.021962313 -0.04681677 0.028286098 0.004823047 0.0010956306 0.0045353845 -0.0035865193 -0.022222992
-0.01786601 -0.0133151375 0.007246796 0.008700812 0.031865593 0.027603474 -0.00049583695 0.016867897
-0.013979512 -0.0065830545 -0.0155513575 -0.015352499 0.006615793 0.022265218 -0.012273311 0.000637767
-0.007877951 0.010544327 -0.0041086464 0.006584055 -0.010793304 0.04299157 -0.028378509 -0.0051385174
-0.00013688717 -0.012167165 0.004018043 0.0018881278 -0.0110471165 -0.020209856 0.010926722 0.008625144
-0.022240432 -0.006693488 0.013427795 -0.027095998 -0.01704421 -0.005868072 -0.006465688 -0.039344937
0.0027358274 0.016875915 0.009360968 0.0020385897 0.01973145 0.01818174 -0.0014026009 -0.018212335
0.008693877 0.012050655 -0.02051859 0.008257548 0.015643196 -0.00066175224 -0.0040141013 0.017541448
0.0022501354 -0.0032757989 -0.0041647265 -0.0104768425 0.0021373308 -0.041055515 -0.01162656 -0.008742924
-0.00475549 0.016879039 0.0072036977 0.026627753 -0.00026544867 -0.005537013 -0.0054472317 0.0016353477
0.0059663476 -0.0079159755 0.0047349636 0.008177947 0.0052204644 0.0047196173 0.010304955 0.0040202714
0.007816195 -0.0024463914 0.022175908 0.0038941856 0.0037917593 -0.0066810613 -0.0057057478 -0.0008959302
-0.041162822 -0.009868459 0.0059134937 -0.0029655797 0.014711491 -0.011096875 0.0059924745 -0.012013337
-0.0025714254 -0.020864282 0.020241775 0.013667212 -0.013299127 -0.010636551 -0.0042981794 -0.011723249
00000000: b5fe 7f3c 139e bc3b 5a4f 9f3c e76b cabb
00000010: 1c3c 84bc 8dc9 843b f976 5a3b 8c5a 273c
00000020: 8d02 5bbb ec77 953b 1f3a e4bb 0bd7 de3a
00000030: 5558 bcbc bcb0 cdba 46ba 503b 2c72 003d
00000040: e35b b3bc 4563 a23b 9b51 d43c 0e0b 883c
00000050: a57a 4cbc f2db debb e7b4 40bb 62e6 e9bb
00000060: f011 8bbc 10be 97bc 28a6 2e3c 1dca 3c3c
00000070: 17f4 aa3c 8d0b 8a3c c7fd 55bb a6fc fa3b
00000080: 5b37 a5bc 5a38 8639 2f7c 94bc 934e 86bc
00000090: 7034 a33c 9157 733c 3dda 19bd f3ce 5eba
000000a0: 2de4 91bb a82a a13b 9f95 5f3a bee4 0c3c
000000b0: 2247 02bd 7209 4d3d 060b 27bd a143 e93b
000000c0: e3a6 24bc 9a6f 043c d9da a03b 6849 643a
000000d0: afdb 2e3a e2b7 bfbc 4318 323c 2838 583b
000000e0: 11e3 c5bc c138 3b3c 1dce c23b cb32 bcbc
000000f0: d617 cdba fd0f 22bc 9560 4fbc 60f0 cfbc
00000100: 1abe d43c c790 ec3b 26c4 943b 437d 2dbb
00000110: 70a2 a23c 0d2a be3b 7369 a4bc 0dbe a3bc
00000120: 5861 053c 2327 5b3c 0a76 2abd 6cdc 583c
00000130: c9f4 703b 4f33 ba39 d979 ebbb 229e d63b
00000140: 9c05 3f3c 05dd 0fbb e16f dc3a 591c c13b
00000150: 47d2 4cba 73a9 d1bc 54ef e0bc 1a92 bfbb
00000160: b286 7f3c 994d d93b 4327 2b3c 6f9d 193d
00000170: 75fd a23a a21c a8bc 927e 2dbd 8139 343c
00000180: e2c4 e93c b1e1 ad3b be2b 2e3c 56ee e13c
00000190: 38b7 753c ff42 813a 4900 8c3c 3619 ae3b
000001a0: 32ca 983b b587 85bb 5f34 913c 74da 29bc
000001b0: 6548 1abc d297 c7bc 01c9 cb3a 5e57 3ebb
000001c0: 7e5f 0fbc c67f e6bb 4382 1aba 0c0c a4ba
000001d0: 6841 d53b 5a9e babb 0a81 bcbb c61d a0bc
000001e0: b5c2 fb3b e999 74ba d9be bf3b b06e e23a
000001f0: 9cf9 9cbc 0887 f6bb e380 c83b 1e30 0abb
00000200: 2ab1 8d3c 4fa3 5a3c 2eef fb39 1415 9ebb
00000210: 6991 3fbc 67e1 4c3c 74be c23b ab2e 733c
00000220: 7247 37bc 80e1 9c3b f262 b1bc fb49 1ebc
00000230: d03d 94bc 7792 7bbb 816c 9fbb c161 2c3d
00000240: 4fea b3bc f1c2 3fbd 3fb8 e73c a70a 9e3b
00000250: 439b 8f3a 909d 943b cf0b 6bbb fe0c b6bc
00000260: bd5b 92bc bc27 5abc 8876 ed3b da8d 0e3c
00000270: 7f85 023d ae20 e23c 0efb 01ba 8b2e 8a3c
00000280: 530a 65bc aab6 d7bb 1fcb 7ebc 0c89 7bbc
00000290: 4bc9 d83b 8c65 b63c ff15 49bc d22f 273a
000002a0: 8512 01bc 1dc2 2c3c d3a1 86bb 0ebf d73b
000002b0: 66d6 30bc ee17 303d 0c7a e8bc 0261 a8bb
000002c0: 5f89 0fb9 ca58 47bc caa9 833b 0e7b f73a
000002d0: f7fe 34bc 248f a5bc fe05 333c 7a50 0d3c
000002e0: 9131 b6bc 0c55 dbbb 4100 5c3c 6df8 ddbc
000002f0: 4da0 8bbc f548 c0bb 1fde d3bb 2828 21bd
00000300: 914b 333b 5c3f 8a3c bf5e 193c dc99 053b
00000310: daa3 a13c dff1 943c 7ad7 b7ba 0932 95bc
00000320: c370 0e3c 1c70 453c 9a16 a8bc ab4a 073c
00000330: 2926 803c 7179 2dba b988 83bb 15b3 8f3c
00000340: 0277 133b c9ae 56bb 4278 88bb 10a7 2bbc
00000350: 7612 0c3b d429 28bd 547d 3ebc 7b3e 0fbc
00000360: f1d3 9bbb e945 8a3c ff0c ec3b 7222 da3c
00000370: eb2b 8bb9 d56f b5bb b17e b2bb 2a59 d63a
00000380: 5a81 c33b 02b2 01bc c127 9b3b ccfc 053c
00000390: 6e10 ab3b 05a7 9a3b 1dd6 283c 7bbc 833b
000003a0: 7f0f 003c a353 20bb 40aa b53c 9835 7f3b
000003b0: 2a7f 783b ceec dabb 48f7 babb dcdc 6aba
000003c0: 599a 28bd 51af 21bc fbc5 c13b 2c5a 42bb
000003d0: 7708 713c abcf 35bc 855c c43b 96d3 44bc
000003e0: 5c85 28bb 92eb aabc 14d2 a53c 71ec 5f3c
000003f0: 95e4 59bc ee44 2ebc bed7 8cbb df12 40bc
