models/blood/28-_hinge_identity.pth (torch, 19041 bytes, 3 tensors)

conv.0.weight f4 [128, 16, 1, 1]
000000 8a 72 4a 3d 73 dd 3c bd 9d b8 84 3d 51 c7 11 bc
       0.04942564 -0.046109628 0.06480525 -0.008897618
000010 28 de 34 3d b2 24 71 bc 44 18 3a bd 85 a7 c9 bc
       0.044157177 -0.0147182215 -0.045433298 -0.024616012
000020 f9 b4 23 be 2b 37 5b 3e 4e 37 c5 3d 6b da 11 be
       -0.15987004 0.21407764 0.09629689 -0.14243476
000030 70 76 05 bd b0 ea 80 3d c4 2d 58 be ef 8f 0d 3d
       -0.032583654 0.06294763 -0.21111208 0.034561094
000040 92 36 21 3e 24 d3 8c bd c0 76 7b bd 4d df f5 3c
       0.15743473 -0.068762094 -0.061392546 0.030013705
000050 75 28 ef bb d7 95 5d bb a2 95 13 3e 5b 7a 08 be
       -0.007298524 -0.0033811235 0.14412549 -0.13327925
000060 0f f8 3c be 0c 5a de 3d 42 c5 df 3d dc 5b ee bd
       -0.18454002 0.10857019 0.10926296 -0.116386145
000070 ba 2f 41 3e 78 f3 5e be 08 51 1c be f8 3e 68 be
       0.18865862 -0.21772563 -0.15265286 -0.2268027
000080 6b 97 69 be 3d c7 3b 3d eb d7 05 be cc 25 2a 3e
       -0.22811668 0.045844305 -0.13070647 0.16615981
000090 c6 0e b1 3d c8 c1 70 3e a0 ae 2c be 67 31 6b 3e
       0.08645396 0.23511422 -0.16863489 0.22968064
0000a0 14 4d 4b 3e e1 d6 78 bd 55 15 03 3e b7 65 20 3c
       0.19853622 -0.0607518 0.12801106 0.009789876
0000b0 de a3 b6 3d cd 4f 0b be 94 7e f0 bd c6 96 23 3e
       0.08917974 -0.1360466 -0.11742893 0.15975484
0000c0 fb d4 24 be 1d 3a da bd a2 20 57 be 6e 9b 13 be
       -0.1609687 -0.106556155 -0.21008542 -0.1441476
0000d0 f6 6f f8 3b e2 b0 10 3e 37 a1 1c be 99 f5 81 3d
       0.007581706 0.14129975 -0.15295874 0.06345672
0000e0 11 6a 9f 3d 37 3c 79 3e 79 0d 67 3e 1b 1a ae bd
       0.077839024 0.24339376 0.22563733 -0.08501073
0000f0 db af 46 3e d7 05 55 3d 08 af d8 bd 9a 84 51 3e
       0.19403021 0.052007522 -0.105802596 0.2046074
000100 c4 d1 ab bd fb 19 eb 3d 78 b6 a8 bc f1 f8 bb bd
       -0.08389619 0.11479565 -0.02059482 -0.09178341
000110 8c 14 11 bd 10 e8 56 3e 07 da 3e be 45 36 41 bc
       -0.035419986 0.20986962 -0.18637858 -0.011792724
000120 05 03 12 be b8 50 1c bc 4d f7 6b bb 50 ea 13 3d
       -0.14258964 -0.009540729 -0.0036005557 0.03611213
000130 2d b7 1b be 52 b3 41 3e a4 65 ea bd 31 ae 76 be
       -0.15206595 0.18916062 -0.11445168 -0.24089886
000140 86 08 d4 3d bb 49 04 3e ae 5c 62 be 46 2e 2b 3d
       0.10353188 0.12918751 -0.22105667 0.041792177
000150 54 ec 93 bd 2c 80 19 be 8b 14 01 3d 8b 52 07 be
       -0.072228104 -0.149903 0.031513732 -0.13215081
000160 65 19 3f bd f8 50 f4 ba 77 6a 9d bd f6 79 5f 3e
       -0.046655077 -0.0018639853 -0.07686322 0.21823868
000170 d4 47 0e 3e 8c 8f 3b 3d 22 75 e8 3d 14 62 60 be
       0.13894588 0.045791194 0.11350466 -0.21912414
000180 bc 75 63 be 4d df 1d be 78 c0 6d 3e 8b 18 3f 3e
       -0.22212881 -0.15417214 0.23217952 0.18661706
000190 73 89 ae bd 39 2f 22 3d f4 24 4c bd 79 3a 87 3d
       -0.0852231 0.039595816 -0.04983993 0.0660295
0001a0 3d 95 d2 3c f6 e9 9f bd 13 b8 19 3e ad ab b2 3d
       0.025705928 -0.078082964 0.15011625 0.08724151
0001b0 ed cb 50 3e 36 c9 9e bd e3 a4 3e 3e ba 29 0e be
       0.20390292 -0.07753222 0.18617587 -0.13883105
0001c0 03 55 ce bc 3c a8 38 be 70 c9 40 3e bd 7d 42 3e
       -0.025187021 -0.18032926 0.18826842 0.18993278
0001d0 be bd 4f be ed eb 05 3e df 3e 62 3d 4d 84 62 be
       -0.20287225 0.1307828 0.05523574 -0.22120781
0001e0 e6 3e 76 be c3 01 7d 3e 08 1b 53 be 9d b5 08 3e
       -0.24047431 0.24707703 -0.2061578 0.1335053
0001f0 f4 35 f3 bd d4 f7 52 be eb dc da bd ac 65 62 be
       -0.11875525 -0.20602351 -0.10686668 -0.22109097
000200 cd 43 5b 3e 87 24 65 3d ba 18 02 be 3c de 26 bd
       0.21412583 0.05594304 -0.12704745 -0.040739283
000210 d4 8e 4d 3e 36 1f c0 3c 5a 08 5b 3e 5f 6f 6d be
       0.20074016 0.023452383 0.21389905 -0.23187016
000220 7f 8e a2 3d 84 e7 1e 3e bb 82 a9 3c c1 3b 12 be
       0.07937335 0.15518004 0.02069222 -0.14280607
000230 83 c3 b3 bc 30 70 1f be 67 53 0f be 56 a5 0b be
       -0.021943813 -0.1557014 -0.13996659 -0.1363729
000240 f3 2b d9 bd 49 be 7d be 09 b4 6d bd fb 98 43 3e
       -0.10604086 -0.2477962 -0.058033023 0.19101326
000250 d1 b7 a1 3d bc 42 59 bd aa 00 40 be 7c 6c 3b be
       0.07896388 -0.05304216 -0.18750253 -0.18303102
000260 c1 c4 a3 3d f1 84 42 3e 64 5a d1 bc 04 4d b6 bc
       0.07996512 0.18996026 -0.025555797 -0.02225352
000270 d8 ce 1e 3e 00 eb 1c 3e 37 e2 e3 bd 0a cf 4d be
       0.15508592 0.1532402 -0.111271314 -0.2009851
000280 4d a1 c7 bc 71 da 22 3e 3c 4b 1e 3d 2c 9b fc bc
       -0.024368906 0.15903641 0.038645968 -0.03083571
000290 3b 3f 9b bc 59 03 83 bd 94 fc 16 3d 5f 4c 2a 3e
       -0.01895105 -0.06397123 0.03686197 0.16630696
0002a0 e9 1f c2 3d 28 7d 36 3c c9 f7 73 3e 80 ab 51 be
       0.09478743 0.011138238 0.23824991 -0.20475578
0002b0 88 db 18 be dd c4 12 3e 55 7b 06 3e 17 4f 2b be
       -0.14927495 0.1433291 0.13132985 -0.16729389
0002c0 20 30 2a be 54 d1 32 3e df 79 5b be 69 e6 fa bd
       -0.1661992 0.17462665 -0.21433209 -0.122509785
0002d0 c7 32 ca bc 13 3a 46 be cb 40 e2 bd bd b7 08 3e
       -0.024682416 -0.19358091 -0.110475145 0.1335134
0002e0 ff db 63 3e 0d 82 fc bd 97 ed 2c be 30 9d d1 bd
       0.2225189 -0.12329493 -0.16887508 -0.10235059
0002f0 c5 b5 61 3e ac 62 98 bd 07 35 dc bd 5f 1d 17 be
       0.22041996 -0.07440695 -0.10752302 -0.14757298
000300 d9 b1 3d bd d1 9f 44 be 98 98 14 be df f9 64 3c
       -0.046312187 -0.1920159 -0.14511335 0.01397559
000310 e6 10 20 be 22 37 83 3d 58 12 cb 3d 7a 8b 4e 3e
       -0.15631446 0.06407 0.09915608 0.20170394
000320 e9 52 4a be b3 63 3b be 68 ab 59 be 27 d5 b2 bc
       -0.1975819 -0.18299751 -0.21256793 -0.021830155
000330 c2 38 53 bd e2 1a 72 be a6 44 46 bd 22 0a d1 bc
       -0.0515678 -0.23643067 -0.048405312 -0.025517527
000340 d6 5c f3 3d d7 40 55 3e 5b 15 25 be 21 15 27 3e
       0.118829414 0.20825516 -0.16121428 0.16316654
000350 33 8b 10 be 8c 88 27 3e f0 85 42 3e 0c 06 65 3e
       -0.141156 0.16360682 0.18996406 0.22365588
000360 ab f7 1d be 0c b3 33 be ba 6f 92 3a 2c fc 52 be
       -0.15426509 -0.1754877 0.0011172213 -0.20604008
000370 b8 6b 37 3e e6 18 8a 3c 7f d4 82 3e 2b f7 42 3e
       0.17912185 0.016857576 0.25552747 0.190396
000380 3c 42 4f be 1f 61 81 bd a5 af 99 bd 96 99 f5 3d
       -0.2024011 -0.063173525 -0.07504205 0.11992185
000390 96 2b 24 3d a1 60 4a 3e 0b ff 26 3d b1 ab 11 bd
       0.04008063 0.19763424 0.04077057 -0.03556413
0003a0 fa 20 7d bc 2f d0 be 3d 3d cc ca bd 04 69 57 3d
       -0.015449757 0.093170516 -0.099022366 0.052590385
0003b0 83 df e2 bd 2f 35 e7 bc 37 73 f6 3d 83 43 79 3d
       -0.11077788 -0.028223602 0.12033694 0.0608554
0003c0 0b ae 63 be 91 43 0a be cd 38 fa 3d 3e 5d 2c 3e
       -0.22234361 -0.13502337 0.12217865 0.16832444
0003d0 61 92 ec bd 60 0c f9 bd c4 a5 f9 bc 92 ee 75 3e
       -0.11551357 -0.121605635 -0.030474551 0.24016789
0003e0 e4 7e 88 3d 7e 45 36 be 3d 96 33 3d 57 8e a1 3d
       0.066648275 -0.17799947 0.04384445 0.07888477
0003f0 ac 66 aa bd 80 07 37 be 56 aa 3e be 36 bc 87 bd
       -0.08320364 -0.17873955 -0.18619666 -0.06627695

conv.0.bias f4 [128]
000000 c3 b0 1a 3e 3c 8c 28 bd 83 46 5e 3e 61 28 38 be
       0.15106492 -0.041149363 0.21706586 -0.17984153
000010 d3 ca 0f 3d b0 0e 00 3d 5d b3 07 3e 05 b5 a7 ba
       0.035105538 0.031264007 0.13252015 -0.0012795037
000020 49 3b d8 bd cd 61 5a 3e 09 ff e1 bd 72 2e 14 b9
       -0.10558183 0.2132637 -0.11034972 -0.00014131682
000030 2b 4e 1d 3d 2f a5 1c 3d a1 46 ea 3c 17 7d bb bd
       0.038404625 0.03824347 0.028598132 -0.09154718
000040 c9 a4 5b 3e 6c 12 eb bd 8f aa 57 be dc 01 94 3d
       0.2144958 -0.11478123 -0.21061157 0.07226917
000050 c5 d8 6c be c7 fe c8 bc 10 98 f8 bc 7e 99 30 3e
       -0.23129566 -0.02453555 -0.030345947 0.17246053
000060 8b db 1c 3e 9c 82 10 bd 6c 50 32 3e b3 20 58 be
       0.15318124 -0.03528081 0.17413491 -0.21106224
000070 f4 66 bb bd fd 08 78 bd 68 54 4f 3e 66 99 81 3e
       -0.09150496 -0.060555447 0.20247042 0.25312346
000080 15 c9 40 be 25 15 bc bd 11 2d f5 bc 5e 45 b5 3d
       -0.18826707 -0.091837205 -0.029928716 0.08851121
000090 33 ef d8 bc 7b 7e 0d 3d d6 67 64 bc 3e 3d 5f bd
       -0.026481247 0.03454445 -0.013940772 -0.054501764
0000a0 89 8f 95 3d 40 12 3a 3e 16 38 75 be f6 b8 e6 3c
       0.07302768 0.18171024 -0.23947176 0.028164368
0000b0 35 a9 b0 3d 47 b1 1c 3e 75 23 45 be 39 0f 93 3d
       0.08626024 0.15302001 -0.19251807 0.07180638
0000c0 05 12 ed bc f5 59 7e 3d 3e 10 1c bd d3 f8 27 bd
       -0.028939256 0.06209751 -0.038101427 -0.04100878
0000d0 d5 2b 7e 3d f3 64 39 be 51 35 a3 bc e9 75 ea 3d
       0.06205352 -0.18104915 -0.019922884 0.11448271
0000e0 f6 60 1a be 5e f3 21 3e 23 59 60 3d 6a c9 de bd
       -0.1507605 0.15815493 0.054772507 -0.108782604
0000f0 e2 4d 21 3e 2a 4e 00 3e 2d 18 83 3e f7 60 f9 bd
       0.15752366 0.12529817 0.25604382 -0.12176698
000100 1f d0 22 be 60 63 6d be 8b 0e 0f be 76 c4 e6 3d
       -0.15899704 -0.2318244 -0.13970391 0.11267941
000110 cc 44 9f bd cf 51 09 bd 09 6a a3 3d 1d ba 1d be
       -0.07776794 -0.033525284 0.07979209 -0.15403028
000120 c8 8a e3 3d f4 6e 26 3c db 9b 72 be 9b f4 de bc
       0.11110455 0.010158289 -0.23692267 -0.027216246
000130 ea 66 c4 bd ac 01 3a 3d 81 32 48 3e bf 26 83 3e
       -0.09589942 0.04541175 0.19550516 0.25615498
000140 3b 46 47 3d 68 e8 c8 bd d0 fc dc 3d f0 b1 06 3e
       0.04865096 -0.09809953 0.10790408 0.13153815
000150 40 5c 38 be dd 22 32 bd b6 a3 29 3d d9 d9 11 bd
       -0.1800394 -0.04349028 0.041415893 -0.035608146
000160 9d c9 52 3d 54 b4 ce 3d a6 fc 1e bd c5 af 56 bc
       0.051461805 0.100929886 -0.038815163 -0.01310343
000170 bb 59 df bd bd c4 4a be e8 3d 5d be 9a 8e 1d 3e
       -0.109057866 -0.19801612 -0.21605647 0.1538643
000180 2f 7f ba 3d 16 2b 51 3e a4 78 22 3e d8 37 2a be
       0.091062896 0.20426592 0.15866333 -0.16622865
000190 21 60 4e be ee 80 da 3d 52 51 0b be ba 3a 3a 3d
       -0.20153858 0.10669123 -0.1360524 0.045466162
0001a0 f8 af 2c 3e a2 4e a3 bc 66 8e 2b be 5f 3d 11 be
       0.16864002 -0.019934956 -0.1675354 -0.14183567
0001b0 29 8b 2d be 67 81 97 bd bd 64 99 3d 18 a5 75 be
       -0.16947617 -0.073977284 0.074899174 -0.2398876
0001c0 b4 8b 44 3e 95 7c 7b 3c 3c e0 1e 3e 43 0d 69 be
       0.19193918 0.015349527 0.15515226 -0.22758965
0001d0 c0 e2 89 bd 8a 2d ab bd 8a c5 10 be 43 ea 61 be
       -0.06732702 -0.08358295 -0.14137855 -0.2206202
0001e0 24 46 fb bd 08 cb cd bd a9 33 99 3d ac 87 03 3e
       -0.12269238 -0.10048491 0.074805565 0.12844723
0001f0 86 b2 5f 3e cb 44 6d be f8 14 16 be f1 76 2d bd
       0.21845445 -0.23170774 -0.14656436 -0.04234976

conv.2.weight f4 [16, 128, 1, 1]
000000 ce 9f 17 3b 26 38 c5 bc 66 a2 4d 3c f7 1c 51 39
       0.0023136023 -0.024074625 0.012550926 0.00019942583
000010 f4 8a ae 3b 5c ea f6 ba e3 9b 2a 3c 8b ff fb 39
       0.005326623 -0.0018838155 0.010413143 0.00048064845
000020 49 4a 37 bc b0 62 07 3c 47 18 db bb d3 8a 82 bc
       -0.011187145 0.008263275 -0.0066862437 -0.015935337
000030 a4 03 52 3c 99 67 58 3b 62 ea 79 3c 3e 23 79 ba
       0.012818251 0.0033020733 0.015253635 -0.00095038477
000040 1f 56 1f 3c 50 b3 30 bc 81 6f e2 b9 32 b3 1f 3c
       0.009725123 -0.010784939 -0.00043189156 0.009747313
000050 0c 7c 67 bb 3a 25 0d bb 75 ff c0 bb fe 33 68 3c
       -0.003532174 -0.0021537081 -0.005889828 0.014172552
000060 13 ca ef 3b 6e 81 e1 bb 4f 63 5b 3c fe 47 73 bc
       0.0073177903 -0.0068818843 0.013390376 -0.014848707
000070 80 8c 63 3b ed f2 89 bb e7 d6 f8 3a a8 0a 74 3c
       0.0034721196 -0.004209867 0.0018984944 0.014895119
000080 34 56 82 bc 6d 76 3e ba 39 28 cb bb b0 96 59 3c
       -0.015910245 -0.00072655716 -0.0061998633 0.013280556
000090 5e e6 16 bb 46 18 21 3c 22 60 10 3c d4 6e 0d bb
       -0.0023025493 0.009832447 0.008811982 -0.0021580951
0000a0 e2 15 43 3b 2f 60 87 3c 84 de 0b bc 4e c6 a8 b8
       0.0029767682 0.016525356 -0.008536939 -8.0478014e-05
0000b0 8f 9b 07 3c b3 6c 44 3c 99 16 0c bc 99 a7 d0 3a
       0.008276834 0.011988807 -0.00855031 0.0015919089
0000c0 79 db af bc 3c c9 77 b8 a1 d8 8b bb 5c 2e 8b bb
       -0.021466957 -5.9076803e-05 -0.0042677675 -0.00424747
0000d0 91 98 0d 3b 3e e2 ef bb c9 88 46 bc 87 d3 44 3c
       0.002160583 -0.0073206713 -0.012117573 0.012013323
0000e0 e8 f4 f1 bb 26 92 ab 3c 05 b5 40 3b 74 19 ed bb
       -0.0073839314 0.020943712 0.002940477 -0.0072357003
0000f0 0e 23 8f 3c b4 66 8a 3c 72 7f 87 3c 7d 67 5e bc
       0.01747277 0.016894676 0.016540263 -0.013574478
000100 43 ea 56 bc 8f da 8e bb ca 53 38 3b 4d d4 91 3b
       -0.013117376 -0.0043595503 0.0028126114 0.004450357
000110 2f eb 32 bb 35 ac 58 bb a2 07 51 3b 65 4c a9 38
       -0.0027300825 -0.0033061628 0.0031895419 8.0727776e-05
000120 c9 1c d3 3a 98 87 d0 3a 11 42 6e 3b e7 bb f5 bb
       0.0016106601 0.0015909551 0.0036355297 -0.0074992063
000130 cd 39 03 bc 90 6c 61 3c ae 79 88 3c d0 b6 d0 3b
       -0.008009386 0.0137587935 0.016659584 0.006369449
000140 40 df 9b ba 72 b8 5b bb f2 43 b5 3c 3c 63 2d 3c
       -0.0011892095 -0.0033526686 0.022127125 0.010582741
000150 20 b4 62 bb ce c5 c8 ba 50 95 31 3c b8 88 99 b9
       -0.0034592226 -0.001531774 0.0108388215 -0.00029284297
000160 2e 62 7c 3b 16 f8 35 3c 1e 6f eb bb 8a 1d b7 bc
       0.0038510668 0.011106512 -0.007184877 -0.022352953
000170 00 fe bb bb 82 8c 1c 3a 17 ae 31 bc 1e c6 68 3b
       -0.0057370663 0.0005971865 -0.010844729 0.0035518478
000180 52 14 85 3c 21 1f 9f 3c a5 97 63 3c aa 64 33 bc
       0.016245041 0.019424023 0.013891135 -0.010949293
000190 eb 1b 91 3a 04 cc 8f 3c 45 c4 98 bc 95 b6 84 3c
       0.0011070942 0.017553337 -0.018648276 0.016200343
0001a0 0f 75 89 3c 60 3f 0f 3a 81 a2 84 bb 14 6c 1e bb
       0.01677945 0.00054644607 -0.0040476923 -0.0024173306
0001b0 e0 94 2b bc b4 3c 19 bc 54 b1 f8 b9 a7 8e 97 3a
       -0.010472506 -0.009352852 -0.00047434366 0.00115629
0001c0 f8 99 9f 3c 19 04 c0 3b 35 85 0d 3c e8 b1 04 3a
       0.019482598 0.0058598635 0.008637716 0.00050619105
0001d0 12 4a d4 bb e5 f6 23 bc c3 16 09 bc c7 0f 9b 39
       -0.0064785564 -0.010007595 -0.008367243 0.0002957566
0001e0 62 5b f0 3a cd df b6 39 71 5f 89 3b b6 88 98 3c
       0.0018337781 0.0003488049 0.0041922857 0.018619876
0001f0 41 e0 00 3c 21 d3 2c bc 40 b7 91 ba 98 6f 13 bc
       0.007865966 -0.010548384 -0.0011117235 -0.008998774
000200 da 5d cb 3b 8b d5 36 bc 5d 01 ce 3b 5c 0c 19 bc
       0.0062062563 -0.011159311 0.0062867836 -0.009341326
000210 69 dc b7 3b a9 ce 97 39 ae 7a dd 3b f4 02 a9 ba
       0.0056109917 0.00028954938 0.0067590093 -0.0012894557
000220 8f 94 0c bc 9b 7a 28 3c 9a 0b b3 bb 59 b5 93 bc
       -0.008580341 0.010283138 -0.0054640295 -0.01803081
000230 b3 2b 1b 3c 3c a7 64 bb 78 78 c5 3b af 58 ec ba
       0.009470868 -0.0034889719 0.006026324 -0.0018031801
000240 cc ae 24 3c a0 81 36 bc 4b f3 8b ba 54 01 db 3b
       0.01005144 -0.011139303 -0.0010677365 0.006683508
000250 6d ef c0 ba 01 d1 d5 ba 77 3f 07 bb 53 10 68 3c
       -0.0014719792 -0.0016312898 -0.0020637193 0.014164048
000260 e0 42 e1 3b 17 d7 32 3b 2d 2d 3f 3c 20 12 77 bb
       0.006874427 0.0027288848 0.011668486 -0.0037700012
000270 24 83 ae bb 7c 17 63 bb 5f 95 5a 3b c2 f1 4f 3c
       -0.005325692 -0.003465145 0.0033353192 0.012691917
000280 20 d7 2e bc 90 47 57 bc 1b be 15 bc 28 81 53 3c
       -0.010671407 -0.01313962 -0.009139563 0.012909211
000290 7b 2a 20 b8 3b 03 56 3c 42 4f 73 3a 6b 5b 9b 3b
       -3.8186536e-05 0.013062294 0.00092815247 0.0047411225
0002a0 70 49 b0 3b 75 98 55 3c 2a bf 30 bb 96 90 9f ba
       0.005379848 0.013036837 -0.0026969411 -0.0012173827
0002b0 81 20 fe 3b 88 21 93 3c 02 ab 1f bc 7f 09 33 3b
       0.0077553396 0.017960325 -0.009745361 0.0027318893
0002c0 b5 d5 6f 3a a3 83 d0 ba 69 e2 a6 bb d7 a4 01 bc
       0.00091489713 -0.0015908371 -0.005092908 -0.007912836
0002d0 d2 ea b4 3b 90 cc 8c bc d7 7b 23 bc 7e 76 13 3c
       0.005521157 -0.017187387 -0.009978256 0.009000419
0002e0 38 ac c0 bb ed fa bc 3c 33 20 94 3b 26 ee 41 bc
       -0.005879905 0.02306887 0.00452044 -0.011836564
0002f0 84 8c 83 3c 78 72 a3 3b 63 56 57 3c 08 27 8f bc
       0.016058214 0.004988011 0.013143155 -0.017474666
000300 66 85 e2 bb a5 a8 63 bb 44 4b a0 3b db 01 e0 3b
       -0.006912875 -0.003473797 0.004891785 0.0068361587
000310 50 cd 51 3c 50 9d 6a bc 56 7f c9 3a c4 42 82 bb
       0.012805298 -0.014319733 0.0015373032 -0.0039752442
000320 93 61 87 b9 a4 6b 3c 3a a0 59 cf 3b 03 fa 2c 3b
       -0.00025821905 0.00071876706 0.006327823 0.0026394136
000330 cc 15 68 bc 4b a6 16 3c ed dc 49 3c 4c 42 e8 3b
       -0.014165353 0.009194921 0.012320739 0.0070879813
000340 9c 40 9b 3b fd b1 5e 3b c6 09 85 3c 9b 3c 40 3c
       0.0047379266 0.00339806 0.016240012 0.0117331995
000350 46 8d 14 3b 5a 32 3e 3b 12 30 17 3a 03 d3 8e bb
       0.0022667213 0.002902171 0.0005767356 -0.0043586507
000360 d8 d6 46 3a 9b 33 42 3c da 3b a2 bb ea c5 15 bb
       0.0007585115 0.011853124 -0.0049509825 -0.0022853562
000370 82 dc 1c bc 8d 89 f8 3b 09 4c 16 bc b1 bd 90 3b
       -0.0095740575 0.0075847567 -0.009173402 0.004417144
000380 9b 2d 8b 3c 33 86 8a 3c df 66 42 3c 5d e0 e4 bb
       0.01698952 0.016909694 0.011865347 -0.006984754
000390 84 8c 9c bb 46 4e 96 3c d8 63 20 bc 08 89 8c 3b
       -0.004777493 0.01834787 -0.00978943 0.0042887963
0003a0 d3 73 32 3c b2 18 05 bb a0 a9 bc b9 73 62 ac bb
       0.010891872 -0.002030891 -0.00035984535 -0.0052607595
0003b0 b1 d1 b9 bb 9a 2e df bb 91 05 21 3c 22 75 e0 3b
       -0.005670749 -0.0068109753 0.009827987 0.006849901
0003c0 4f 24 22 3c ba b7 e3 3b 7f 05 7b 3c 01 f1 0b 3a
       0.009896352 0.006949392 0.015321135 0.00053383416
0003d0 ad 6b df bb 32 9e 13 3c ff 1c fd bb a1 03 26 bb
       -0.006818256 0.009009885 -0.007724404 -0.0025331753
0003e0 19 04 13 bc 08 36 12 3c 05 4b bc 3b be 3a 7c 3c
       -0.008973145 0.008924015 0.0057462477 0.015394865
0003f0 20 01 78 3b 37 2d e6 bb cf 72 e8 38 59 1b bf bb
       0.0037842467 -0.007024433 0.00011084007 -0.0058321175
